model/ACE inhibitor_best_model_fold_3_auc_0.8269.pth (torch, 975118 bytes, 35 tensors)

feature_preprocessing.0.weight f4 [128, 128]
0	0x3da8e981	0.08247662
1	0xbc697329	-0.014248648
2	0x3c99217b	0.018692723
3	0x3d9f4051	0.07775939
4	0xbc9bc3f5	-0.019014338
5	0x3d0d679a	0.03452263
6	0x3c494ac5	0.012285893
7	0x3d9c4c8f	0.0763179
8	0x3dbeaada	0.09309931
9	0xbb339262	-0.0027400483
10	0x3c05ac4a	0.008158753
11	0x3dcf00e5	0.101075925
12	0x3da06e8c	0.07833585
13	0xbcabc346	-0.020967137
14	0x80057706	-5.01875e-40
15	0x3bdfb846	0.006827387
16	0xbba13c7c	-0.0049205404
17	0xbd44eeae	-0.048079185
18	0xbd9117ca	-0.070846155
19	0x0005687e	4.96662e-40
20	0x800635b6	-5.70281e-40
21	0xbc2e3d54	-0.010634739
22	0x3b8820c4	0.0041542966
23	0xbcc238de	-0.023708757
24	0x3dab8ebb	0.08376833
25	0xbd2834a2	-0.04106582
26	0x3d5213ef	0.05128854
27	0xbcd415a8	-0.025889233
28	0x0005641a	4.95087e-40
29	0x3d947b2e	0.07250057
30	0x0005693f	4.96933e-40
31	0xbd8cff8b	-0.068846785
32	0xbd54f36d	-0.05198996
33	0xbcd1e181	-0.025620224
34	0x3c427504	0.011868719
35	0x3e054476	0.13014397
36	0xbd9d279c	-0.076735705
37	0x3dcf34c4	0.10117486
38	0xbcbf1d1e	-0.023329314
39	0x3d976adc	0.07393429
40	0x3ce66331	0.02812347
41	0x3d7c726d	0.061632562
42	0xbd44983b	-0.04799674
43	0xbd003096	-0.031296335
44	0xbd18a028	-0.037262112
45	0xbd1034e0	-0.035206676
46	0x3888eea7	6.529438e-05
47	0xbc8a68fd	-0.016895765
48	0x3dac0799	0.08399887
49	0x3d973f5c	0.07385132
50	0x3d00630c	0.03134446
51	0xbdf31457	-0.11869114
52	0xbd18933e	-0.037249796
53	0xbd4a6575	-0.049413163
54	0xbdda6214	-0.10663238
55	0xbdf5783c	-0.119858235
56	0x3c98b5f4	0.01864145
57	0x3cd2e798	0.025745198
58	0xbc0a08d7	-0.008424959
59	0x3c9a3407	0.018823637
60	0x3ca6e10a	0.020370979
61	0x3da6c01f	0.08142113
62	0x3d234bb9	0.039867137
63	0xbcecf400	-0.028924942
64	0x3d1ec6e7	0.038763907
65	0x3c99f7a3	0.01879484
66	0x3ba057b7	0.004893269
67	0x3d8ad2b4	0.0677847
68	0x3daa69a1	0.08320928
69	0x3d984c2d	0.074364044
70	0xbd27db4d	-0.040980626
71	0x3d93b993	0.0721313
72	0x3d19e0ea	0.03756801
73	0xbd8f4736	-0.06996004
74	0x3bb8a6a3	0.005635099
75	0xbd62c169	-0.05536023
76	0x3bc18914	0.0059062336
77	0x3d46000a	0.04833988
78	0xbd9d0438	-0.0766682
79	0x3d2f100a	0.042739905
80	0xbd0da67a	-0.034582593
81	0xbda71767	-0.081587605
82	0xbd211374	-0.039325193
83	0x3d2cd897	0.042198744
84	0xbd7d012a	-0.06176869
85	0xbc50f72d	-0.012754244
86	0x3d2f671d	0.042822946
87	0x3d54dc7d	0.051968087
88	0x3d7d4c0b	0.0618401
89	0x3d215ddf	0.039396163
90	0xbc66b47c	-0.014081117
91	0x3d2ea2de	0.04263579
92	0xbdd928bc	-0.106034726
93	0x3d8cdcf2	0.068780795
94	0xbdb5870e	-0.0886365
95	0xbde3c19d	-0.11120913
96	0xbdb924fa	-0.09040256
97	0x3d6f0003	0.05834962
98	0xbd233694	-0.03984697
99	0x3c5f60d9	0.01363393
100	0x3da76637	0.08173793
101	0x3da6fb57	0.08153408
102	0xbd53e9e7	-0.05173674
103	0x3daeae2e	0.08529316
104	0xbd8fec8e	-0.07027541
105	0x3d702650	0.058630288
106	0x3cca3247	0.024682177
107	0xbdb38774	-0.0876607
108	0xbd076ab2	-0.033060737
109	0xbd8379bf	-0.064197056
110	0x3d6ee414	0.05832298
111	0xbd923b9b	-0.07140275
112	0x3dac9688	0.08427149
113	0x3d4c5add	0.04989134
114	0xbbfe88ef	-0.0077677886
115	0xbd86eaa5	-0.06587724
116	0x3d98b8fe	0.074571595
117	0x3d3908f7	0.045174565
118	0x3d845064	0.06460646
119	0xbd0982bb	-0.03357194
120	0xbd03e0a3	-0.032196652
121	0xbd9d2c55	-0.07674471
122	0x3d726e35	0.059187133
123	0xbcf5c100	-0.029999256
124	0xbd487d9e	-0.048947923
125	0xbd38a46f	-0.04507869
126	0x3c85572e	0.016276922
127	0xbdb57f21	-0.088621385
128	0xbd0c7469	-0.034290705
129	0x3d4fe603	0.050756466
130	0x3d07c36c	0.033145353
131	0xbcd34712	-0.025790725
132	0xbd7ff99a	-0.062493898
133	0x3d3e0611	0.046392504
134	0x3de74aa9	0.11293537
135	0x3dcdbe12	0.10046019
136	0x3ca6c350	0.020356804
137	0xbe11bca6	-0.1423212
138	0x3d41c948	0.047311097
139	0xbc9a2986	-0.018818628
140	0xbdcdd661	-0.10050655
141	0x3bb73c63	0.0055919155
142	0x80058ae5	-5.09003e-40
143	0x3dba95e2	0.09110619
144	0xbd93ae3c	-0.07210967
145	0xbdfb72b0	-0.12277734
146	0x3d1098ea	0.03530208
147	0x80056ed8	-4.98941e-40
148	0x000560f3	4.93956e-40
149	0xbcb55b39	-0.022138225
150	0x3d556429	0.052097473
151	0xbd421f8a	-0.04739336
152	0x3dfcd6c6	0.12345652
153	0x3c375017	0.0111885285
154	0x3cbc2570	0.02296707
155	0xbdcc8459	-0.09986181
156	0x0005643d	4.95136e-40
157	0x3ce67ec9	0.028136628
158	0x80057094	-4.99563e-40
159	0x3bc20fa4	0.0059222747
160	0xbbfd6eee	-0.007734171
161	0xbdde9804	-0.108688384
162	0x3e754dce	0.23955461
163	0x3d7f9ff8	0.062408417
164	0x3ca09b49	0.019605296
165	0x3e3b5a9f	0.18296288
166	0x3d6e9815	0.058250505
167	0x3dbb8cc4	0.09157708
168	0x3d44ed03	0.048077594
169	0xbbd88485	-0.0066075944
170	0xbbb0e5bc	-0.00539848
171	0xbd80fd9f	-0.062983744
172	0xbda0bc38	-0.078484
173	0xbc5cee1f	-0.013484507
174	0xbc8edf34	-0.017440416
175	0xbe15339f	-0.14570473
176	0x3dc721a1	0.09723211
177	0x3e0f60da	0.1400179
178	0xbd314801	-0.04328156
179	0xbd586577	-0.05283114
180	0x3d40e19b	0.047090154
181	0xbb90b909	-0.004416589
182	0x3d29e0e9	0.041474257
183	0x3d5d3386	0.054004215
184	0xbc0672a9	-0.008206048
185	0x3c2e63b9	0.010643893
186	0xbcb7d350	-0.022439629
187	0x3dbaa9ed	0.09114442
188	0x3d8ab1ab	0.06772169
189	0x3d05b4f5	0.032643277
190	0x3d599a56	0.0531257
191	0xbd0e53be	-0.03474783
192	0xbdce2c37	-0.10067027
193	0xbc425b81	-0.011862637
194	0x3d47c1c3	0.04876877
195	0xbc4d6c77	-0.012538067
196	0xbd6068b7	-0.054787364
197	0xbcb289e9	-0.021794276
198	0xbc4a3351	-0.012341336
199	0x3ca07907	0.01958896
200	0x3c4a46c1	0.012345971
201	0x3d648b7b	0.05579708
202	0x3d7b8d47	0.06141403
203	0xbc847641	-0.01616967
204	0x3d3c9cda	0.046048023
205	0xbd5be2d2	-0.05368311
206	0xbc34a822	-0.011026414
207	0x3cde1063	0.027107423
208	0xbd81046c	-0.062996715
209	0xbcc09224	-0.023507185
210	0x3d0340d4	0.032044247
211	0x3c120e5d	0.008914557
212	0x3db6f225	0.08932904
213	0xbcfc0233	-0.030762767
214	0xbd117d15	-0.03551968
215	0x3cc90da8	0.024542645
216	0xbdaa8152	-0.08325447
217	0x3d4c2b95	0.04984625
218	0xbcee894b	-0.0291182
219	0xbd926d12	-0.0714971
220	0x3b85b0b4	0.0040799025
221	0x3d83d7ff	0.06437682
222	0xbb067eeb	-0.0020522426
223	0xbd0435b8	-0.032277793
224	0xbd72bfda	-0.059264995
225	0xbd595440	-0.053058863
226	0x3d093541	0.033498053
227	0xbce47f02	-0.027892593
228	0xbd98700a	-0.07443245
229	0xbdb2fb3f	-0.08739328
230	0xbd58cd3a	-0.052930094
231	0xbbb1a574	-0.005421335
232	0xbcf4a965	-0.02986593
233	0x3ad0198c	0.0015876754
234	0x3cafbc6e	0.021452155
235	0x3d5d839c	0.05408059
236	0xbb1edc7d	-0.0024240308
237	0xbe0ae42f	-0.13563608
238	0xbc49ba39	-0.012312465
239	0x3c7b0eb6	0.015323332
240	0xbd8741a5	-0.066043176
241	0xbd7fa412	-0.06241233
242	0xbd7c006a	-0.061523832
243	0x3d2584bb	0.040409785
244	0x3d98290c	0.07429704
245	0xba6ff429	-0.0009153509
246	0xbd8d313e	-0.06894158
247	0xbcfbc0f9	-0.030731665
248	0xbd57253a	-0.052525736
249	0x3d6e5708	0.05818847
250	0xbd96bd5e	-0.07360338
251	0xbb3f7d3b	-0.002921893
252	0xbc28b781	-0.010297657
253	0xbd9c3f2b	-0.07629236
254	0xbc49b44b	-0.012311052
255	0x3d738ce5	0.05946054

feature_preprocessing.0.bias f4 [128]
0	0x379a306f	1.8380784e-05
1	0xb8177916	-3.6113976e-05
2	0x349c919f	2.9163218e-07
3	0xb8de3c80	-0.00010597054
4	0xb771e7ae	-1.44186615e-05
5	0x37f59aef	2.9278423e-05
6	0xb5246584	-6.1242486e-07
7	0x351d8dc0	5.869333e-07
8	0x375049ed	1.2414978e-05
9	0x37962289	1.7897475e-05
10	0xb8264217	-3.9639035e-05
11	0xb67dc4eb	-3.781456e-06
12	0x37fefd51	3.039712e-05
13	0xb7aae512	-2.0372248e-05
14	0x36ae24eb	5.189902e-06
15	0xb771d6f7	-1.441477e-05
16	0xb79f9d60	-1.902756e-05
17	0x36c88507	5.975951e-06
18	0xb710d748	-8.633193e-06
19	0x3747a289	1.18991675e-05
20	0xb6e15b0a	-6.716121e-06
21	0xb77daf48	-1.5120786e-05
22	0x36d49872	6.3358393e-06
23	0xb7fbe6d2	-3.0029016e-05
24	0xb655f267	-3.188057e-06
25	0x385ff034	5.339105e-05
26	0x37b571ca	2.1629869e-05
27	0xb72b825e	-1.0222748e-05
28	0x3716fa68	8.998999e-06
29	0xb711a89d	-8.681932e-06
30	0xb75c1cbf	-1.3119715e-05
31	0xb58ee990	-1.06478e-06
32	0xb788c06e	-1.630207e-05
33	0x3682af84	3.8947346e-06
34	0xb6c27b00	-5.7959696e-06
35	0xb81e2f54	-3.7714213e-05
36	0xb8893e09	-6.544224e-05
37	0xb6f74a26	-7.3698056e-06
38	0x35de3fe0	1.6558879e-06
39	0x34ee39e9	4.437309e-07
40	0x33d2637c	9.796983e-08
41	0x37bd5e95	2.2574599e-05
42	0xb80c04ee	-3.3383192e-05
43	0x3841d1a4	4.621003e-05
44	0xb6d6568a	-6.3877715e-06
45	0xb7dc52c6	-2.6264588e-05
46	0xb6d935bb	-6.473359e-06
47	0xb7549c83	-1.2672625e-05
48	0x373723c2	1.09159755e-05
49	0x38264bb9	3.9648006e-05
50	0x37423a13	1.15768225e-05
51	0x3706c39e	8.032568e-06
52	0xb84e2c65	-4.9155573e-05
53	0xb6c1c0e6	-5.7743046e-06
54	0xb820c27a	-3.8328093e-05
55	0xb70545a3	-7.943631e-06
56	0x3823f5f1	3.909128e-05
57	0xb5670a6c	-8.606937e-07
58	0x34d8d82b	4.0390418e-07
59	0x36d58389	6.3632074e-06
60	0xb81a3e2e	-3.677437e-05
61	0x37d371cb	2.5206149e-05
62	0xb7d8ecae	-2.585942e-05
63	0xb7865f79	-1.6018503e-05
64	0x3802f9e3	3.122714e-05
65	0xb69acb65	-4.613236e-06
66	0xb740d25c	-1.149307e-05
67	0xb8a15f92	-7.6948796e-05
68	0xb7e5d757	-2.7399203e-05
69	0x37405a45	1.1465109e-05
70	0xb6becd09	-5.6863105e-06
71	0x3683a815	3.9236716e-06
72	0xb794094c	-1.7647304e-05
73	0x35bc9bc7	1.4052429e-06
74	0xb7d83b2e	-2.5776764e-05
75	0xb7ccfba4	-2.4435874e-05
76	0x36d98fce	6.483845e-06
77	0xb875e132	-5.862228e-05
78	0xb762fd30	-1.35295995e-05
79	0x38046f7a	3.1575073e-05
80	0xb5e33215	-1.6927394e-06
81	0x348ed14c	2.6601845e-07
82	0xb513877a	-5.495891e-07
83	0x37487546	1.1948234e-05
84	0x36c746d3	5.938907e-06
85	0x37b2c81f	2.1312442e-05
86	0xb706d775	-8.037187e-06
87	0xb72f928f	-1.0464936e-05
88	0x37e50a84	2.7303824e-05
89	0x38c89fa9	9.566482e-05
90	0x34dc8d95	4.1081208e-07
91	0x36a357fb	4.868021e-06
92	0xb6d5fcdf	-6.3773327e-06
93	0xb7bbea5c	-2.240127e-05
94	0xb62c1375	-2.5641323e-06
95	0xb7cca098	-2.4393477e-05
96	0xb6014158	-1.9260533e-06
97	0x3796026c	1.7882521e-05
98	0xb6b432c0	-5.370326e-06
99	0xb7092716	-8.174937e-06
100	0xb30312b2	-3.0517818e-08
101	0xb80e35b5	-3.3905457e-05
102	0xb8533633	-5.0356797e-05
103	0xb7da6af7	-2.6037435e-05
104	0xb7bd9de0	-2.2604072e-05
105	0x377d017f	1.50803235e-05
106	0x37b5a393	2.1653052e-05
107	0xb7973e83	-1.8029712e-05
108	0xb68bd86d	-4.167718e-06
109	0xb728043c	-1.0014566e-05
110	0x3869c612	5.5735996e-05
111	0x36819cbc	3.862746e-06
112	0xb4efd744	-4.4673845e-07
113	0xb7c761a7	-2.3768122e-05
114	0xb4157301	-1.3918545e-07
115	0x3840a19a	4.592687e-05
116	0x37c35e03	2.3289589e-05
117	0x38836c8c	6.266785e-05
118	0x37a6dfac	1.9892897e-05
119	0x36734693	3.6250901e-06
120	0x3889097b	6.534435e-05
121	0xb834f02b	-4.3139018e-05
122	0xb7605812	-1.3371946e-05
123	0xb73e4730	-1.1341457e-05
124	0xb7b72d2f	-2.183634e-05
125	0xb6b7c236	-5.476434e-06
126	0x37390dca	1.103007e-05
127	0x3654e46a	3.1723416e-06

feature_preprocessing.1.weight f4 [128]
0	0x3f79a889	0.9752279
1	0x3f8198b9	1.0124732
2	0x3f7070ac	0.93921924
3	0x3f81b3d6	1.0133007
4	0x3f837e81	1.0272981
5	0x3f82e794	1.0226922
6	0x3f7902d3	0.97269934
7	0x3f7452a7	0.9543862
8	0x3f7c6fe8	0.98608255
9	0x3f82928b	1.0200971
10	0x3f851625	1.0397383
11	0x3f767f08	0.96287584
12	0x3f84116a	1.0317814
13	0x3f8414da	1.0318863
14	0x3f81ca8f	1.0139941
15	0x3f6cd8be	0.9251822
16	0x3f8992a1	1.0747873
17	0x3f81f5c8	1.0153131
18	0x3f7bf1df	0.9841594
19	0x3f7c0297	0.9844145
20	0x3f71a48f	0.9439172
21	0x3f740aaf	0.953288
22	0x3f72045f	0.9453792
23	0x3f8114de	1.0084493
24	0x3f81f19c	1.0151858
25	0x3f87a12e	1.0596063
26	0x3f6faff8	0.9362788
27	0x3f74f06e	0.95679367
28	0x3f70cde7	0.9406418
29	0x3f8a5972	1.0808547
30	0x3f7e770b	0.99400395
31	0x3f7b5913	0.9818279
32	0x3f7fb80a	0.99890196
33	0x3f742148	0.95363283
34	0x3f830e38	1.0238714
35	0x3f813c99	1.0096618
36	0x3f8688d9	1.0510513
37	0x3f824519	1.0177337
38	0x3f85ff67	1.0468568
39	0x3f869836	1.0515201
40	0x3f766059	0.96240765
41	0x3f86cc92	1.053118
42	0x3f81ebf0	1.0150127
43	0x3f7bd974	0.9837868
44	0x3f833c76	1.0252826
45	0x3f6ed8d9	0.93299633
46	0x3f7038b9	0.9383655
47	0x3f81f323	1.0152324
48	0x3f8072a3	1.0034984
49	0x3f886c3f	1.0658034
50	0x3f66bb42	0.9012948
51	0x3f6e4440	0.9307289
52	0x3f89faff	1.0779723
53	0x3f80c1fc	1.0059199
54	0x3f7db28f	0.99100584
55	0x3f6e436d	0.93071634
56	0x3f7eaa33	0.99478453
57	0x3f70a8b8	0.94007444
58	0x3f8408c7	1.0315179
59	0x3f72381f	0.94616884
60	0x3f81a8d8	1.0129652
61	0x3f831f19	1.0243865
62	0x3f80e082	1.0068514
63	0x3f809ef6	1.0048511
64	0x3f800a38	1.0003119
65	0x3f7ef32c	0.995898
66	0x3f76360a	0.9617621
67	0x3f8506da	1.0392716
68	0x3f75472c	0.95811725
69	0x3f6fe47e	0.93708026
70	0x3f75f8fc	0.96083045
71	0x3f7786ce	0.9669007
72	0x3f70f67e	0.9412612
73	0x3f6ab585	0.91683227
74	0x3f74947c	0.9553907
75	0x3f7e5839	0.9935337
76	0x3f84895a	1.0354416
77	0x3f84d1c4	1.0376515
78	0x3f7a5122	0.9778005
79	0x3f8b72d2	1.0894415
80	0x3f841e02	1.0321658
81	0x3f80c87c	1.0061183
82	0x3f77bbf0	0.96771145
83	0x3f7a0db8	0.97677183
84	0x3f87ef07	1.061982
85	0x3f833c38	1.0252752
86	0x3f83d1a1	1.0298349
87	0x3f78aad0	0.9713564
88	0x3f734995	0.9503415
89	0x3f833b45	1.0252463
90	0x3f7b1269	0.98074967
91	0x3f758bb6	0.95916307
92	0x3f7c477a	0.98546565
93	0x3f7c3143	0.9851267
94	0x3f80de62	1.0067866
95	0x3f8a7926	1.0818222
96	0x3f80b2e6	1.0054595
97	0x3f683779	0.90709645
98	0x3f749ab0	0.95548534
99	0x3f81bb62	1.013531
100	0x3f7e8fd9	0.99438244
101	0x3f7d14eb	0.98860043
102	0x3f75ebfa	0.96063197
103	0x3f81a723	1.0129131
104	0x3f83f340	1.0308609
105	0x3f8464d6	1.0343273
106	0x3f83fc3e	1.0311353
107	0x3f74aa49	0.95572335
108	0x3f6f8f7d	0.9357832
109	0x3f7a8f3b	0.978748
110	0x3f832258	1.0244856
111	0x3f727cdd	0.94721776
112	0x3f6de2a2	0.9292394
113	0x3f835c55	1.0262552
114	0x3f776ff7	0.9665522
115	0x3f8125b8	1.0089636
116	0x3f8664e7	1.0499543
117	0x3f8f6226	1.1201828
118	0x3f804ffd	1.002441
119	0x3f804a71	1.0022718
120	0x3f867dc5	1.0507132
121	0x3f7ac39e	0.9795474
122	0x3f808260	1.0039787
123	0x3f7bd08a	0.9836508
124	0x3f88d7fe	1.0690916
125	0x3f6a962b	0.9163539
126	0x3f719de3	0.9438154
127	0x3f7cfcce	0.9882325

feature_preprocessing.1.bias f4 [128]
0	0xbcf83b66	-0.03030176
1	0xbdbbc1d3	-0.091678284
2	0xbd8cf41b	-0.06882497
3	0xbdc062aa	-0.09393819
4	0xbd9bd595	-0.07609097
5	0x3b5989dd	0.0033193745
6	0xbcff5290	-0.031167299
7	0xbddbd254	-0.10733476
8	0xbd2b0890	-0.041756213
9	0xbcdbb488	-0.026819482
10	0xbd7b9201	-0.061418537
11	0xbd9a35d8	-0.07529801
12	0xbcd58a37	-0.026066883
13	0xbc624730	-0.013810918
14	0xbd33555a	-0.04378257
15	0xbd9ae3fc	-0.07563016
16	0xbd502a43	-0.050821554
17	0xbd160b66	-0.036631964
18	0x3c641fa1	0.013923557
19	0xbd2b78ce	-0.041863255
20	0xbd9be1cf	-0.07611429
21	0xbdce5de9	-0.10076506
22	0xbdaad39b	-0.08341142
23	0xbd617a64	-0.05504836
24	0xbdb4716e	-0.088106975
25	0xbc86b26e	-0.016442504
26	0xbd891e68	-0.06695253
27	0xbd6f93f2	-0.0584907
28	0xbda693ac	-0.08133635
29	0xbd8f4986	-0.06996445
30	0xbc8d9617	-0.017283482
31	0xbcea19ec	-0.028576814
32	0xbdd11b56	-0.10210292
33	0xbd791335	-0.060809333
34	0xbd27064e	-0.040777497
35	0xbd09d214	-0.03364761
36	0xbd94c54b	-0.07264193
37	0xbd856417	-0.06513231
38	0xbdd6cc0a	-0.10488136
39	0xbcc63dd9	-0.024199413
40	0xbd958df0	-0.07302463
41	0xbb575e88	-0.0032862742
42	0xbe0deb6d	-0.13859339
43	0xbd355bf6	-0.044277154
44	0xbd774ad7	-0.060374107
45	0xbd4060c6	-0.04696729
46	0xbda01a50	-0.07817519
47	0x3ab923fe	0.0014125106
48	0xbccde8e3	-0.025135463
49	0x3ca95143	0.020668631
50	0xbdcdc7e9	-0.100478955
51	0xbcc0aa4c	-0.023518704
52	0xbd5fd08b	-0.05464224
53	0xbd77ff4a	-0.060546197
54	0xbc99cc8e	-0.018774297
55	0xbc0739f8	-0.008253567
56	0xbd6d4b83	-0.05793334
57	0xbcf7b224	-0.030236311
58	0xbd1afff9	-0.03784177
59	0xbd4d30a4	-0.050095215
60	0xbd4a44b7	-0.049381938
61	0xbdc513af	-0.09622895
62	0xbdd5a750	-0.10432303
63	0xbd757d5d	-0.05993401
64	0xbd115cbd	-0.035488833
65	0xbd869cc3	-0.06572869
66	0xbd185ebb	-0.037199717
67	0x3cc52f23	0.024070328
68	0xbdbb946d	-0.09159169
69	0xbc241fcc	-0.010017347
70	0x3bc4c97e	0.006005465
71	0xbdae4626	-0.085094735
72	0xbde76a57	-0.112995796
73	0xbde97aef	-0.11400401
74	0xbcdd0d96	-0.026984017
75	0xbc8f151f	-0.017466126
76	0xbdaf2b51	-0.08553184
77	0xbdb9c90b	-0.09071549
78	0xbd582a2c	-0.052774593
79	0xbcb3db80	-0.021955252
80	0x3d20aab3	0.03922529
81	0xbd888d88	-0.0666762
82	0xbb398a31	-0.0028311128
83	0xbd13ad74	-0.03605409
84	0x3bdfabde	0.006825908
85	0xbc336bf9	-0.010951036
86	0xbcc8314f	-0.024437575
87	0xbcbd9e64	-0.023146816
88	0xbd9028bc	-0.070390195
89	0xbdac5bf6	-0.08415978
90	0xbd868762	-0.06568791
91	0xbdb372bb	-0.087621175
92	0xbd02dfd9	-0.03195176
93	0xbd837cab	-0.06420263
94	0xbd618ca3	-0.055065762
95	0xbd92e275	-0.071720995
96	0xbc195465	-0.0093585
97	0xbda2438f	-0.07923042
98	0xbd5bdac3	-0.053675424
99	0xbc4c610b	-0.012474309
100	0xbacdd5ac	-0.0015703938
101	0x3cfaf739	0.030635463
102	0xbd859897	-0.06523245
103	0x3b16a2e1	0.0022985267
104	0xbd380f40	-0.04493642
105	0xbbdc6fd6	-0.006727199
106	0xbca6b085	-0.020347843
107	0xbd7c8f0b	-0.061659854
108	0xbd9fd367	-0.07803994
109	0xbc8f8660	-0.01752013
110	0xbd60c1f6	-0.054872476
111	0xbd8a7b8b	-0.06761845
112	0xbd390300	-0.045168877
113	0xbb91f6c4	-0.0044544656
114	0xbd4608e6	-0.04834833
115	0xbd10fc11	-0.03539664
116	0xbd04920a	-0.032365836
117	0xbde7793e	-0.11302422
118	0xbd899ca7	-0.06719332
119	0xb9b26fd3	-0.0003403412
120	0xbdc24429	-0.09485657
121	0xbd68e7bb	-0.05686162
122	0xbc197c0c	-0.009367954
123	0xbdc36005	-0.09539799
124	0xbcbe79a1	-0.023251357
125	0xbdad3c98	-0.08458823
126	0xbda3ecd4	-0.08004156
127	0xbc884bf1	-0.016637774

feature_preprocessing.1.running_mean f4 [128]
0	0x3d085fd2	0.033294506
1	0x3d6af5dd	0.05736338
2	0xbd4ef9bc	-0.050531134
3	0x3c8af247	0.01696123
4	0x3ce1e441	0.02757466
5	0xbd1a1d8f	-0.037625846
6	0xbbbe8037	-0.0058136242
7	0x3cbd8336	0.023133855
8	0x3cf4ad96	0.029867928
9	0x3d5a02ff	0.053225514
10	0xbb50d51d	-0.0031865307
11	0x3cd69066	0.026191901
12	0xbc7dd148	-0.015491791
13	0xbd21d7f3	-0.039512586
14	0x3d10182d	0.035179306
15	0x3cb36dc6	0.02190293
16	0x3a0d35de	0.000538675
17	0xbcd2d75a	-0.025737453
18	0xbd0335f6	-0.032033883
19	0xbd57d5f4	-0.052694276
20	0xbcc530be	-0.024071094
21	0x3cf70115	0.030151883
22	0xbd2d63db	-0.042331558
23	0x3bd84ce4	0.006600963
24	0xbc15ffe1	-0.009155245
25	0xbc3b3b1b	-0.011427666
26	0x3cf8d4ab	0.030374845
27	0xbd8e7efd	-0.06957815
28	0x3b3ad0e3	0.0028505854
29	0xbcbc57e2	-0.022991125
30	0xbbe9f858	-0.0071402006
31	0x3ca19edc	0.01972907
32	0xbd3e0dea	-0.04639999
33	0x3c29b036	0.010356953
34	0xbcdd0d4a	-0.026983876
35	0xbcb2edc1	-0.021841886
36	0xbcef9f12	-0.029250655
37	0xbc9705a0	-0.0184353
38	0xbc2b74f6	-0.010464897
39	0x3a255a89	0.0006307741
40	0xbcd51ddb	-0.026015213
41	0xbd2c60e5	-0.042084593
42	0x3c7b02e6	0.015320515
43	0x3b928166	0.004470992
44	0xbd0572b5	-0.032580096
45	0xbc81e085	-0.01585413
46	0xbca029ce	-0.019551184
47	0xbc37e89b	-0.011224891
48	0xbc237cd9	-0.0099784965
49	0xbc6e5f02	-0.014549019
50	0x3d155644	0.036459222
51	0x3c6d9852	0.014501648
52	0xbbc9550f	-0.006144173
53	0xbd1b8fd6	-0.03797897
54	0xbc3764b1	-0.01119344
55	0xbca3a115	-0.01997427
56	0xbcd5f44f	-0.026117472
57	0xbcb3af1b	-0.021934083
58	0xbd741af4	-0.059596017
59	0x3d07e231	0.033174697
60	0xbcc36faf	-0.023856966
61	0xbc6594d5	-0.014012535
62	0xbd1a2f6c	-0.03764288
63	0x3cf9235d	0.03041237
64	0x3c9f1f2f	0.01942405
65	0x3cd5d7c9	0.026103871
66	0xbbe148e3	-0.006875144
67	0xbd5d1ad6	-0.05398067
68	0x3c24aed8	0.010051452
69	0xbc982d21	-0.018576207
70	0xbcf0b230	-0.029381841
71	0xbd30a08a	-0.043121852
72	0x3d2b6465	0.04184379
73	0x3d0aded5	0.033903915
74	0xbae65a2a	-0.0017574478
75	0x3d0a925a	0.033830978
76	0x3c2f7a13	0.010710257
77	0x3bad3a80	0.0052865148
78	0x3cc060be	0.02348363
79	0xbcf37da3	-0.029722994
80	0x3b832f01	0.004003406
81	0x3d448e85	0.04798748
82	0xbce63424	-0.028101034
83	0xbbbc84d3	-0.0057531386
84	0x3c037ee9	0.008025863
85	0xbc988ec1	-0.018622758
86	0x3cf4c045	0.029876838
87	0x3d575ff6	0.05258175
88	0x3cde2230	0.027115911
89	0xbc40df66	-0.011772012
90	0xbd52b6dc	-0.05144392
91	0x3caa4737	0.020785911
92	0x3bbfbcd0	0.0058513656
93	0xbcaf444e	-0.021394875
94	0xbce95166	-0.028481197
95	0xbd5896ad	-0.05287807
96	0xbca5a5fb	-0.020220747
97	0x3cf5098b	0.029911777
98	0xbd388ddf	-0.045057174
99	0x3b497e2e	0.0030745375
100	0x3c33a708	0.010965116
101	0x3cad7c22	0.021177355
102	0xbd16cc65	-0.03681602
103	0x3d049b71	0.032374803
104	0xbc29f599	-0.010373496
105	0xbda166a5	-0.07880906
106	0xbc336239	-0.010948711
107	0x3bd57d35	0.00651517
108	0xbd00e8f7	-0.031472173
109	0xbc4eaf99	-0.012615108
110	0xbc13117a	-0.008976335
111	0xbd67e3e8	-0.056613833
112	0xbd1b9bde	-0.037990443
113	0x3cf127a4	0.029437847
114	0xbd241aa3	-0.040064465
115	0x3b2ea32d	0.0026647553
116	0xbd1db30c	-0.03850083
117	0xbcd735c7	-0.02627076
118	0xbd420335	-0.04736634
119	0xbd62558d	-0.05525737
120	0xbd1410a8	-0.036148697
121	0xbc22892e	-0.0099204015
122	0xbd90d2bd	-0.07071445
123	0x3c58eafc	0.013239618
124	0xbc97147b	-0.018442383
125	0xbc12b86c	-0.008955102
126	0xbc6b7759	-0.014371716
127	0xbd22ef8d	-0.039779235

feature_preprocessing.1.running_var f4 [128]
0	0x3eb7f218	0.3592689
1	0x3f2347ac	0.6378124
2	0x405620ee	3.3457599
3	0x3eeaa4f4	0.45828974
4	0x3f291c87	0.66059154
5	0x3f1b2290	0.60599613
6	0x3f389e93	0.72116965
7	0x3edbaf30	0.42907095
8	0x3f93dd4b	1.1551908
9	0x3f0484b2	0.51764977
10	0x3e9fa504	0.31180584
11	0x3f6cca1a	0.9249588
12	0x3ef48325	0.47756305
13	0x3ea251af	0.31702945
14	0x3eb240b4	0.3481499
15	0x3fb9158f	1.4459704
16	0x3eb0773b	0.34465966
17	0x3f4befd3	0.7966282
18	0x400392b0	2.055828
19	0x3efccdde	0.49375814
20	0x404cf2e0	3.202324
21	0x3f0202d6	0.5078558
22	0x40e687eb	7.2040915
23	0x3f87f8cb	1.06228
24	0x3fa58949	1.2932521
25	0x3e97e0be	0.29663652
26	0x3fa5bff4	1.2949204
27	0x40698735	3.6488774
28	0x3f190f13	0.59788626
29	0x3e762fd3	0.24041681
30	0x3f773d1e	0.9657763
31	0x3f2dea5b	0.67935723
32	0x3f053aac	0.5204265
33	0x3f3107c8	0.691525
34	0x3ecaa700	0.39580536
35	0x3e861d10	0.26194048
36	0x3e4c289b	0.19937365
37	0x3eb4485b	0.35211453
38	0x3e331f44	0.17492396
39	0x3e4d6024	0.20056206
40	0x3f425854	0.7591603
41	0x3f0d16ae	0.5511273
42	0x3e42d474	0.19026357
43	0x3eedbe2f	0.4643416
44	0x3ef01b06	0.46895617
45	0x3f195fd3	0.5991184
46	0x3f3c3168	0.7351289
47	0x3eeda33c	0.464136
48	0x3f66db03	0.90177935
49	0x3eefa9fe	0.4680938
50	0x3f5c0ee3	0.85960215
51	0x400bfc59	2.187277
52	0x3e38ee6d	0.18059702
53	0x3e9a98ee	0.301948
54	0x3f4b7cb1	0.7948714
55	0x3f03297b	0.5123517
56	0x3e5acec4	0.21367937
57	0x3f350db8	0.7072406
58	0x3f07cb47	0.5304455
59	0x402e789a	2.726111
60	0x3ed2d347	0.41176817
61	0x3e93c886	0.28863925
62	0x3f08b765	0.5340484
63	0x3ea75509	0.32682064
64	0x3eaa8fb8	0.33312774
65	0x3f0a41a5	0.54006416
66	0x3e73f8e2	0.2382541
67	0x3ee7a284	0.45241177
68	0x3e4802ff	0.19532393
69	0x3fc6440d	1.5489517
70	0x3f8faa4b	1.1223844
71	0x3f10f411	0.56622416
72	0x3ef4370b	0.47698244
73	0x40967929	4.70229
74	0x3f615a47	0.8802838
75	0x3f671b91	0.9027644
76	0x3e823d94	0.25437605
77	0x3eda0f80	0.4258995
78	0x3f7d595f	0.98964494
79	0x3ef7e1cf	0.48414466
80	0x3f532694	0.8248074
81	0x3f50ced4	0.81565595
82	0x3f9167c4	1.1359792
83	0x4048c7b8	3.1371899
84	0x3f120a77	0.5704722
85	0x3e7869fd	0.24259181
86	0x3ed2ab48	0.41146302
87	0x3fdfc8fa	1.7483208
88	0x3eacff66	0.33788604
89	0x3ea543ab	0.3227819
90	0x4057b414	3.370366
91	0x3f465be8	0.7748399
92	0x3f3ccee0	0.73753166
93	0x3ef3483d	0.4751605
94	0x3f8b8d95	1.0902582
95	0x3ed1b4ac	0.40958154
96	0x3fb277ba	1.3942788
97	0x404d9159	3.2119963
98	0x3efe88bc	0.49713695
99	0x3f0f204d	0.5590866
100	0x3fdb5fa3	1.7138561
101	0x3f0b4384	0.54399896
102	0x3f855ad1	1.041834
103	0x3efa1f25	0.48851886
104	0x3f270e75	0.65256435
105	0x4004b9af	2.0738332
106	0x3efba83b	0.49151787
107	0x402525c6	2.5804305
108	0x3f95d87a	1.1706688
109	0x3ea540df	0.32276055
110	0x3e89296a	0.2678941
111	0x403b089c	2.9224005
112	0x4083a7e2	4.1142435
113	0x3e642f6d	0.22283716
114	0x401314af	2.2981374
115	0x3e8215d7	0.25407287
116	0x3f0e0fd8	0.55492926
117	0x3e19b491	0.15010287
118	0x3f3e505f	0.74341387
119	0x3f39d0a7	0.72584003
120	0x3f0752b8	0.52860594
121	0x3eb5d7db	0.35516247
122	0x3f837ded	1.0272804
123	0x3f0120cd	0.50440675
124	0x3f019374	0.5061562
125	0x400169df	2.0220869
126	0x3e8dfe9d	0.27733317
127	0x40d45e9e	6.63655

bilstm.weight_ih_l0 f4 [256, 128]
0	0x3df2b802	0.11851503
1	0x3c522433	0.012826013
2	0x3de7d697	0.11320227
3	0xbd43ed32	-0.04783363
4	0x3cc7cd72	0.024389956
5	0x3db3c152	0.08777107
6	0xbdf9657b	-0.12177559
7	0x3d9deee2	0.07711579
8	0xbd5c8310	-0.05383593
9	0x3d20a94b	0.03922395
10	0xbcbccc5b	-0.023046663
11	0xbdb8ac57	-0.09017246
12	0x3dca3d3d	0.098749615
13	0xbd40345c	-0.046924934
14	0x3dc03913	0.09385886
15	0x3c85625c	0.016282253
16	0xbd040556	-0.03223165
17	0xbddc9603	-0.107708
18	0x3d31bd99	0.043393705
19	0xbcb4d6ac	-0.02207502
20	0x3dc957b0	0.09831178
21	0xbcd4b724	-0.025966235
22	0x3d919b7e	0.07109736
23	0xbcc2dcc1	-0.023786904
24	0xbcd7ffad	-0.026367033
25	0x3db1923a	0.08670469
26	0x3b7e749f	0.0038826836
27	0x3e19923c	0.1499719
28	0xbd9ee81d	-0.07759116
29	0x3d603664	0.05473937
30	0xbb89d537	-0.0042063254
31	0xbd80e07e	-0.062928185
32	0xbde7a3a2	-0.11310507
33	0xbd4e55fc	-0.05037497
34	0x3e0781c3	0.13233094
35	0xbc8091b2	-0.015694473
36	0x3e017776	0.12643227
37	0x3d709f86	0.058745883
38	0x3d87a256	0.0662276
39	0x3e0521b0	0.13001132
40	0x3d7bfa99	0.061518285
41	0xbda86019	-0.08221454
42	0xbdd8cb0f	-0.10585605
43	0x3d7e84ae	0.062138252
44	0xbd50460e	-0.05084806
45	0xbdf1bd18	-0.11803645
46	0xbca834cc	-0.020532988
47	0xbdf51965	-0.11967734
48	0xbd911e5f	-0.07085871
49	0xbd362dee	-0.044477396
50	0x3d5fdc6b	0.054653566
51	0xbda7ffab	-0.08203062
52	0x3a11e108	0.00055648433
53	0xbdaac175	-0.0833768
54	0x3bbada9b	0.0057023293
55	0x3d9ea570	0.077463984
56	0xbd3d326d	-0.046190668
57	0xbcf9e126	-0.030502867
58	0xbdf91401	-0.121620186
59	0xbb69e5ed	-0.0035690025
60	0xbd255e84	-0.04037334
61	0x3d70caa2	0.058786996
62	0xbd757c4f	-0.059933003
63	0xbd26322c	-0.04057519
64	0x3d20b374	0.03923364
65	0xbdbbe125	-0.09173802
66	0xbda9d724	-0.08292988
67	0xbc2ea9d2	-0.0106606055
68	0xbd94913c	-0.07254264
69	0x3d13d8e8	0.03609553
70	0xbc922577	-0.01784013
71	0x3e1bdc50	0.15220761
72	0xbdf32647	-0.11872535
73	0xbcf32cfc	-0.029684536
74	0x3dfe54d6	0.12418525
75	0x3d2ab07e	0.041672222
76	0x3dcfb0e1	0.10141159
77	0xbdac9025	-0.08425931
78	0x3db272ec	0.08713326
79	0x3dc3cfa4	0.09561089
80	0x3dc64440	0.096809864
81	0x3c1cf479	0.009579771
82	0x3d7ae1ff	0.061250683
83	0x3d726606	0.05917933
84	0xbd9570e9	-0.072969265
85	0x3bfdd4e4	0.007746326
86	0x3a87b8b8	0.0010354733
87	0x3dccd02c	0.10000643
88	0x3d95d6b8	0.07316345
89	0x3dd15b7d	0.10222528
90	0x3cd868b8	0.026417121
91	0x3d055fbd	0.032562006
92	0x3dfcbfac	0.12341246
93	0xbe2b6a3f	-0.16739748
94	0x3e1530cf	0.145694
95	0xbdb9e28d	-0.09076414
96	0xbdc0bd70	-0.09411132
97	0xbe067e3c	-0.13134092
98	0x3d6f1567	0.05837002
99	0xbc8e685c	-0.017383747
100	0xbe1c4721	-0.15261509
101	0xbd8f11e5	-0.06985835
102	0xbd0d8b37	-0.034556594
103	0xbd6f6469	-0.058445368
104	0xbdf71f58	-0.12066525
105	0xbce0fe37	-0.02746497
106	0x3dc46137	0.09588855
107	0xbdb08137	-0.08618396
108	0xbd49d2c9	-0.049273286
109	0xbbe90144	-0.0071107466
110	0x3d4ffaa6	0.050776146
111	0xbd4ec39c	-0.050479516
112	0xbd575f47	-0.052581098
113	0xbdb5a9a1	-0.08870245
114	0x3c9abe7d	0.01888966
115	0x3da5f84c	0.081039995
116	0xbbd0a193	-0.0063669174
117	0x3d4523cd	0.048129845
118	0xbd3fccb7	-0.04682609
119	0xbc060558	-0.008179985
120	0xbdedf004	-0.11618045
121	0xbdc3f429	-0.09568054
122	0x3daafcc6	0.08348994
123	0xbdbccc4a	-0.092186525
124	0xbe00a05e	-0.12561175
125	0x3c82805b	0.015930345
126	0x3bbc2d0e	0.0057426756
127	0xbdd7adc2	-0.105311885
128	0xbd2ce1fa	-0.042207696
129	0xbd6b40e3	-0.057434928
130	0x3d895797	0.067061596
131	0xbddf8b25	-0.109152116
132	0xbc3d3bcd	-0.011549902
133	0x3d556051	0.052093808
134	0xbd99b913	-0.07506003
135	0x3d23c5fd	0.03998374
136	0x3de1a12b	0.110170685
137	0xbd7d062a	-0.061773457
138	0xbdea393b	-0.11436697
139	0xbe1f0cf4	-0.15532285
140	0x3d4600f8	0.048340768
141	0xbde9fa14	-0.11424652
142	0x3db9f217	0.09079378
143	0x3def1ad8	0.11675042
144	0xbdc07347	-0.093969874
145	0xbd9dbc69	-0.07701952
146	0xbd5b8f18	-0.05360326
147	0xbc90eee3	-0.017692035
148	0xbcfe819c	-0.031067662
149	0x3de46747	0.11152511
150	0xbdba6451	-0.09101165
151	0xbd2fb5a4	-0.042897835
152	0xbd950952	-0.07277168
153	0xbddbb077	-0.107270174
154	0xbdb052b1	-0.08609522
155	0xbdc59fda	-0.0964963
156	0xbd70c61f	-0.058782693
157	0xbd28b45a	-0.04118762
158	0xbc1c87f5	-0.009553899
159	0xbdbb310f	-0.091402166
160	0x3ca200d3	0.019775784
161	0xbdc81b57	-0.0977084
162	0x3c397d2f	0.01132135
163	0x3a4a3eed	0.0007715065
164	0x3ca1552b	0.019693932
165	0x3d21ac2d	0.03947084
166	0xbdb3de74	-0.08782664
167	0x3d19d15a	0.03755317
168	0x3cdc4a43	0.02689088
169	0xbcd86c8e	-0.02641895
170	0xbc1fb2cb	-0.009747217
171	0x3c3524ae	0.011056108
172	0xbd64e75e	-0.05588471
173	0x3c7a0264	0.015259359
174	0xbc3d699a	-0.011560822
175	0xbc93b84d	-0.018032217
176	0x3d726dda	0.059186794
177	0xbdf4f2ff	-0.1196041
178	0x3e002be9	0.1251675
179	0xbd295b15	-0.04134663
180	0x3dc78a29	0.09743149
181	0x3dbbf567	0.09177666
182	0xbc91abb7	-0.017782075
183	0xbc804da1	-0.015662016
184	0x3c94fe44	0.01818765
185	0xbdbd0788	-0.09229952
186	0xbdbb76c9	-0.09153516
187	0x3d4826d2	0.048865147
188	0xbd8223e5	-0.063545026
189	0xbd813b64	-0.06310156
190	0x3db6ca79	0.08925337
191	0x3d856211	0.06512845
192	0xbdba5ad4	-0.09099355
193	0xbd271926	-0.040795468
194	0x3db14a15	0.08656708
195	0xbd903a9a	-0.07042427
196	0x3d378507	0.0448046
197	0x3cd994b4	0.026560165
198	0x3b6e71f5	0.0036383842
199	0x3e249c1d	0.16075177
200	0xbdf14ec9	-0.11782605
201	0xbd517764	-0.05113925
202	0xbd5b5930	-0.053551853
203	0x3d276e7d	0.040876854
204	0xbcdbbf9e	-0.026824769
205	0x3de994a2	0.114053026
206	0xbc98ea20	-0.018666327
207	0x3d2cf85b	0.042229038
208	0xbd4d3699	-0.050100897
209	0xbdd9e091	-0.10638536
210	0xbdf81d18	-0.12114924
211	0xbdcdecd7	-0.10054939
212	0xbd75d7ed	-0.060020376
213	0x3df63308	0.12021452
214	0x3dd38b3f	0.103292935
215	0xbd812942	-0.063066974
216	0xbda28888	-0.079361975
217	0x3c369471	0.01114379
218	0xbdc21309	-0.09476287
219	0x3d62e145	0.055390615
220	0xbd6b9c7b	-0.05752228
221	0xbd85ab56	-0.0652682
222	0x3dc0dd16	0.09417169
223	0xbc7f3262	-0.015575977
224	0x3d598d94	0.053113535
225	0xbd52bfc7	-0.051452424
226	0xbd05b96d	-0.03264754
227	0xbdca6116	-0.09881799
228	0x3e04da26	0.12973842
229	0xbdc8c76c	-0.09803662
230	0x3dacc3b4	0.08435765
231	0xbe0acdb4	-0.13555032
232	0x396f5151	0.00022823109
233	0xbdcf21f6	-0.101138994
234	0x3d896379	0.06708426
235	0x3d8c8980	0.068621635
236	0xbdbf426b	-0.0933884
237	0x3dc7c494	0.09754291
238	0x3c7563d0	0.01497741
239	0x3d669f5c	0.05630432
240	0xbccbcf9b	-0.024879267
241	0xbe0d7eea	-0.13817945
242	0xbe1ab595	-0.1510833
243	0x3cbb9f60	0.022903144
244	0x3df1dacd	0.11809311
245	0x3d62994f	0.055321988
246	0x3cb96ade	0.022633966
247	0xbd76ac29	-0.06022278
248	0x3da20f66	0.07913093
249	0xbdd8985b	-0.105759345
250	0x3e219305	0.1577874
251	0x3d1052e6	0.035235308
252	0xbdddae6c	-0.10824284
253	0x3c0bd152	0.008533793
254	0x3d7d7559	0.06187949
255	0x3e0ba00f	0.13635276

bilstm.weight_hh_l0 f4 [256, 64]
0	0x80057150	-4.99826e-40
1	0x00055c17	4.92213e-40
2	0x0005af4a	5.2206e-40
3	0x80055bc9	-4.92104e-40
4	0x800562f5	-4.94677e-40
5	0x80058381	-5.06352e-40
6	0x800559c9	-4.91386e-40
7	0x00056558	4.95533e-40
8	0x80056a71	-4.97361e-40
9	0x8005ce68	-5.33222e-40
10	0x0005c957	5.31405e-40
11	0x8005607a	-4.93787e-40
12	0x80058ab4	-5.08935e-40
13	0x0005659b	4.95627e-40
14	0x000627a7	5.65238e-40
15	0x8006946e	-6.0426e-40
16	0x80055cab	-4.9242e-40
17	0x00055cda	4.92486e-40
18	0x800570f5	-4.99699e-40
19	0x0005682f	4.96552e-40
20	0x0005cfad	5.33678e-40
21	0x80057a3c	-5.03027e-40
22	0x80055a83	-4.91647e-40
23	0x8005d94c	-5.37129e-40
24	0x80056036	-4.93691e-40
25	0x80055c2a	-4.9224e-40
26	0x80056252	-4.94448e-40
27	0x80056e32	-4.98708e-40
28	0x000557b0	4.90634e-40
29	0x00056d7a	4.9845e-40
30	0x000573e7	5.00755e-40
31	0x00055ece	4.93187e-40
32	0x000560aa	4.93854e-40
33	0x000558dd	4.91056e-40
34	0x80062343	-5.63662e-40
35	0x00055da0	4.92764e-40
36	0x8005782a	-5.02284e-40
37	0x80060f20	-5.56439e-40
38	0x8005660c	-4.95785e-40
39	0x8005894c	-5.0843e-40
40	0x00056748	4.96228e-40
41	0x00066c19	5.89791e-40
42	0x8005a408	-5.18021e-40
43	0x800593fb	-5.12263e-40
44	0x000598d6	5.14005e-40
45	0x00056b1a	4.97598e-40
46	0x0006714e	5.91659e-40
47	0x00058c8c	5.09596e-40
48	0x80056baa	-4.978e-40
49	0x00055c92	4.92385e-40
50	0x0005ef02	5.44917e-40
51	0x8005e984	-5.42947e-40
52	0x00056425	4.95103e-40
53	0x80056136	-4.9405e-40
54	0x8005755f	-5.01282e-40
55	0x80057d08	-5.0403e-40
56	0x80069818	-6.05574e-40
57	0x00056d4f	4.9839e-40
58	0x800561e0	-4.94288e-40
59	0x80056092	-4.9382e-40
60	0x80056288	-4.94524e-40
61	0x80057dfe	-5.04375e-40
62	0x000557ea	4.90715e-40
63	0x80056a55	-4.97322e-40
64	0x00056235	4.94408e-40
65	0x00056ae3	4.97521e-40
66	0x000559ac	4.91346e-40
67	0x80057bf9	-5.0365e-40
68	0x800564dd	-4.9536e-40
69	0x80056bc3	-4.97835e-40
70	0x0006d5d9	6.27727e-40
71	0x00055fe0	4.93571e-40
72	0x80056aa6	-4.97436e-40
73	0x80065280	-5.80608e-40
74	0x80056bef	-4.97897e-40
75	0x00056911	4.96868e-40
76	0x000564be	4.95317e-40
77	0x00056a58	4.97326e-40
78	0x80057342	-5.00524e-40
79	0x00058904	5.0833e-40
80	0x00055f09	4.9327e-40
81	0x800559a8	-4.9134e-40
82	0x00062e14	5.67543e-40
83	0x00055cc0	4.9245e-40
84	0x00066f14	5.9086e-40
85	0x0005892f	5.0839e-40
86	0x00055f66	4.934e-40
87	0x00063d3a	5.72977e-40
88	0x8005699e	-4.97066e-40
89	0x00055b56	4.91943e-40
90	0x80056733	-4.96198e-40
91	0x800582fc	-5.06166e-40
92	0x80055a83	-4.91647e-40
93	0x00055bf6	4.92167e-40
94	0x00060950	5.54354e-40
95	0x800566f4	-4.9611e-40
96	0x0005b900	5.25543e-40
97	0x800577e5	-5.02188e-40
98	0x00055e19	4.92933e-40
99	0x8005638f	-4.94892e-40
100	0x0005b019	5.2235e-40
101	0x000566ca	4.96051e-40
102	0x80056ace	-4.97492e-40
103	0x000566de	4.96079e-40
104	0x00057fbb	5.04999e-40
105	0x0005e720	5.4209e-40
106	0x0005937f	5.12089e-40
107	0x800569f1	-4.97182e-40
108	0x00055954	4.91222e-40
109	0x8005efff	-5.45272e-40
110	0x00055e12	4.92924e-40
111	0x000561e7	4.94298e-40
112	0x8005636c	-4.94843e-40
113	0x8005c5ad	-5.3009e-40
114	0x80066199	-5.86024e-40
115	0x00056158	4.94098e-40
116	0x00055e17	4.9293e-40
117	0x8005c5be	-5.30114e-40
118	0x000565a6	4.95642e-40
119	0x0005befc	5.2769e-40
120	0x8005618f	-4.94175e-40
121	0x00056752	4.96242e-40
122	0x8005dbf8	-5.38087e-40
123	0x00069bb6	6.06872e-40
124	0x8005632e	-4.94756e-40
125	0x8005745c	-5.0092e-40
126	0x000565c9	4.95691e-40
127	0x80056bbd	-4.97827e-40
128	0x00055d08	4.92551e-40
129	0x80056b73	-4.97723e-40
130	0x000586f5	5.07591e-40
131	0x80055a61	-4.916e-40
132	0x00056957	4.96966e-40
133	0x800559a9	-4.91341e-40
134	0x80055de5	-4.9286e-40
135	0x00055da0	4.92764e-40
136	0x80057f1a	-5.04773e-40
137	0x00055f05	4.93264e-40
138	0x80060b27	-5.55014e-40
139	0x80056bdc	-4.9787e-40
140	0x80055b91	-4.92025e-40
141	0x00055856	4.90866e-40
142	0x000566bc	4.96032e-40
143	0x80056251	-4.94447e-40
144	0x00055b26	4.91875e-40
145	0x00055d5f	4.92673e-40
146	0x0005a92b	5.19864e-40
147	0x0006046b	5.52598e-40
148	0x80056465	-4.95192e-40
149	0x000620c4	5.62767e-40
150	0x000572b1	5.00321e-40
151	0x0005d660	5.36081e-40
152	0x80056d46	-4.98377e-40
153	0x800566f7	-4.96114e-40
154	0x800579d4	-5.02881e-40
155	0x800574f9	-5.0114e-40
156	0x00067846	5.94159e-40
157	0x80055898	-4.90959e-40
158	0x00056e79	4.98808e-40
159	0x80057230	-5.0014e-40
160	0x8005605f	-4.93749e-40
161	0x00055736	4.90463e-40
162	0x80056e69	-4.98785e-40
163	0x80066f08	-5.90843e-40
164	0x00056c3d	4.98006e-40
165	0x8005624d	-4.94441e-40
166	0x800583d5	-5.0647e-40
167	0x800662e8	-5.86494e-40
168	0x80055a9e	-4.91685e-40
169	0x80056a8c	-4.97399e-40
170	0x80057551	-5.01263e-40
171	0x8006a9a2	-6.11866e-40
172	0x80056105	-4.93982e-40
173	0x80056eea	-4.98966e-40
174	0x00056b50	4.97674e-40
175	0x80055b5e	-4.91954e-40
176	0x800559cf	-4.91395e-40
177	0x00055ae8	4.91788e-40
178	0x80057778	-5.02035e-40
179	0x800566d5	-4.96067e-40
180	0x0005e843	5.42497e-40
181	0x0005579a	4.90603e-40
182	0x000557b5	4.90641e-40
183	0x80056074	-4.93778e-40
184	0x00063bf8	5.72526e-40
185	0x0006dc30	6.30001e-40
186	0x00056ac7	4.97482e-40
187	0x0005c0a6	5.28287e-40
188	0x00063f98	5.73826e-40
189	0x80056eca	-4.98921e-40
190	0x8005a0b4	-5.16827e-40
191	0x00056794	4.96334e-40
192	0x8005d9dc	-5.3733e-40
193	0x00056602	4.95771e-40
194	0x8005eea7	-5.4479e-40
195	0x800583b3	-5.06422e-40
196	0x80055b55	-4.91941e-40
197	0x8005636e	-4.94846e-40
198	0x00056a67	4.97347e-40
199	0x80056737	-4.96204e-40
200	0x00056310	4.94714e-40
201	0x8005806b	-5.05245e-40
202	0x80055960	-4.91239e-40
203	0x00055c30	4.92248e-40
204	0x80055a74	-4.91626e-40
205	0x8006a486	-6.10033e-40
206	0x0005b5a3	5.24336e-40
207	0x8006a83a	-6.11361e-40
208	0x0005a81d	5.19485e-40
209	0x80057f25	-5.04788e-40
210	0x800575bd	-5.01414e-40
211	0x00056e04	4.98644e-40
212	0x80056533	-4.95481e-40
213	0x80055c04	-4.92186e-40
214	0x00055916	4.91135e-40
215	0x80055fe5	-4.93578e-40
216	0x8005e1bd	-5.40157e-40
217	0x0006640d	5.86904e-40
218	0x80058d6a	-5.09907e-40
219	0x0006a949	6.11741e-40
220	0x0005f788	5.47975e-40
221	0x8005575c	-4.90516e-40
222	0x0005665e	4.959e-40
223	0x80055c1e	-4.92223e-40
224	0x8005670b	-4.96142e-40
225	0x00056770	4.96284e-40
226	0x000574bc	5.01054e-40
227	0x8005581d	-4.90787e-40
228	0x00056dd1	4.98572e-40
229	0x00055efc	4.93251e-40
230	0x8005717d	-4.9989e-40
231	0x000560ae	4.9386e-40
232	0x8005716c	-4.99866e-40
233	0x80056dd6	-4.98579e-40
234	0x80055af2	-4.91803e-40
235	0x00055f63	4.93396e-40
236	0x00056a4b	4.97308e-40
237	0x800564c4	-4.95325e-40
238	0x00055fdf	4.9357e-40
239	0x80056266	-4.94476e-40
240	0x00068f22	6.0236e-40
241	0x800563d4	-4.94989e-40
242	0x80057800	-5.02225e-40
243	0x0005620d	4.94351e-40
244	0x00055f38	4.93336e-40
245	0x00055ca4	4.9241e-40
246	0x80068cfc	-6.01589e-40
247	0x8006583f	-5.8267e-40
248	0x8005715e	-4.99846e-40
249	0x00059c84	5.15325e-40
250	0x80059186	-5.11381e-40
251	0x80055787	-4.90576e-40
252	0x000569e9	4.97171e-40
253	0x8005619f	-4.94197e-40
254	0x80055902	-4.91107e-40
255	0x80069e55	-6.07812e-40

bilstm.bias_ih_l0 f4 [256]
0	0xbce85921	-0.028362812
1	0x3d07134c	0.032977387
2	0x3cf0ca59	0.029393362
3	0xbdc94138	-0.098268926
4	0x3dda3612	0.10654844
5	0xbcd1e564	-0.025622077
6	0xbd633e4d	-0.055479337
7	0xbce54a24	-0.027989455
8	0xbd156d3a	-0.03648112
9	0xbc95af25	-0.018271992
10	0x3e072b79	0.13200177
11	0xbc58d79b	-0.013234998
12	0xbe1fe371	-0.15614106
13	0xbded59f2	-0.11589421
14	0x3da246f9	0.07923693
15	0x3cb0845c	0.021547489
16	0x3d8acc63	0.06777265
17	0x3cbb8c26	0.022893976
18	0xbe103d22	-0.1408582
19	0xbd171348	-0.036883622
20	0xbd57fd2d	-0.05273168
21	0xbc2b49b9	-0.010454589
22	0x3d31445b	0.04327808
23	0x3d1280cf	0.035767373
24	0xbe03570d	-0.12826176
25	0xbdb5ddb2	-0.08880176
26	0xbc81a97b	-0.015827885
27	0x3c4730d5	0.012157639
28	0xbd8f3635	-0.06992761
29	0xbe0a21ee	-0.13489506
30	0x3da76813	0.081741475
31	0x3d56f185	0.052476425
32	0xbdceeade	-0.10103391
33	0x3b4b9d10	0.0031068958
34	0x3dcae646	0.099072024
35	0x3bbe2d0a	0.005803709
36	0xbcc41bc9	-0.02393903
37	0xbdaf35f1	-0.085552104
38	0x3d15a3ea	0.036533274
39	0xbd7d4951	-0.061837498
40	0xbda8bf5c	-0.08239624
41	0xbdd59452	-0.104286805
42	0x3dcbc7f6	0.09950249
43	0xbddcb4a6	-0.107766435
44	0xba4e9364	-0.0007880239
45	0xbdaf0c3b	-0.08547255
46	0x3d9ce372	0.07660569
47	0xbdad28d0	-0.0845505
48	0x3e150380	0.14552116
49	0xbde55e11	-0.11199582
50	0xbd05d31a	-0.032672025
51	0x3d9fec7d	0.078087784
52	0xbd461290	-0.048357546
53	0xbdc5a6c8	-0.096509516
54	0x3dd94bcd	0.10610161
55	0x3d2eba18	0.04265794
56	0x3db58eb1	0.08865107
57	0xbc61f68f	-0.013791694
58	0xbb148fac	-0.0022668643
59	0xbda6c3b1	-0.08142794
60	0xbca3d90c	-0.020000957
61	0x3c7ce07f	0.015434383
62	0x3d704a13	0.058664393
63	0x3d5d6933	0.054055404
64	0x8005590c	-4.91121e-40
65	0x800558a9	-4.90983e-40
66	0x0005672f	4.96193e-40
67	0x800568b1	-4.96734e-40
68	0x00055cec	4.92512e-40
69	0x0006019d	5.51592e-40
70	0x000558fb	4.91098e-40
71	0x80055c88	-4.92371e-40
72	0x80055e39	-4.92978e-40
73	0x800570e4	-4.99675e-40
74	0x00055f0d	4.93275e-40
75	0x000564f6	4.95395e-40
76	0x00061ee2	5.62092e-40
77	0x80055cc4	-4.92456e-40
78	0x80055f5e	-4.93389e-40
79	0x000568c5	4.96762e-40
80	0x80055d6e	-4.92694e-40
81	0x0005ad4b	5.21343e-40
82	0x0006093a	5.54323e-40
83	0x80060a93	-5.54806e-40
84	0x00064022	5.7402e-40
85	0x00056809	4.96498e-40
86	0x80059d2d	-5.15562e-40
87	0x800692d1	-6.03681e-40
88	0x800579e6	-5.02906e-40
89	0x80059780	-5.13525e-40
90	0x80055846	-4.90844e-40
91	0x0005626b	4.94483e-40
92	0x80055fe8	-4.93582e-40
93	0x8006abc9	-6.12638e-40
94	0x800563dd	-4.95002e-40
95	0x80056718	-4.9616e-40
96	0x800599c3	-5.14337e-40
97	0x00057f99	5.04951e-40
98	0x80058148	-5.05555e-40
99	0x00057f01	5.04738e-40
100	0x80058a0b	-5.08698e-40
101	0x80065ff1	-5.8543e-40
102	0x8005629f	-4.94556e-40
103	0x000565db	4.95716e-40
104	0x0005a109	5.16946e-40
105	0x0005b75f	5.24959e-40
106	0x80055c0c	-4.92198e-40
107	0x000572ce	5.00362e-40
108	0x80065b33	-5.83729e-40
109	0x0005ed5e	5.44329e-40
110	0x800572ee	-5.00406e-40
111	0x800580a0	-5.0532e-40
112	0x00056ac1	4.97474e-40
113	0x80055c96	-4.92391e-40
114	0x00058485	5.06717e-40
115	0x00056372	4.94852e-40
116	0x800648fc	-5.77195e-40
117	0x80061a64	-5.6048e-40
118	0x000566fe	4.96124e-40
119	0x80055b65	-4.91964e-40
120	0x80056bda	-4.97867e-40
121	0x0006186c	5.59774e-40
122	0x0005ca28	5.31697e-40
123	0x80057fa1	-5.04962e-40
124	0x0006d8d6	6.28799e-40
125	0x80055892	-4.9095e-40
126	0x8005dcc7	-5.38377e-40
127	0x8005e065	-5.39675e-40
128	0x3d7dc415	0.061954577
129	0x3c0841ce	0.00831647
130	0x3d782f43	0.060591947
131	0x3d94cd04	0.07265666
132	0xbc45c896	-0.012071749
133	0xbd205662	-0.03914488
134	0xbd9140fa	-0.070924714
135	0x3da4a547	0.08039337
136	0xbd61ae73	-0.05509801
137	0xbdad342a	-0.08457215
138	0x3cdc1359	0.026864694
139	0xbc04d6c6	-0.008107847
140	0xbdcff0a9	-0.10153324
141	0xbe047b4f	-0.12937663
142	0x3bcf7908	0.0063315667
143	0xbd5225d3	-0.051305603
144	0xbdfecbe1	-0.124412306
145	0xbd69e76c	-0.057105467
146	0x3d022eda	0.031782962
147	0xbdca06a0	-0.09864545
148	0xbd77630f	-0.060397204
149	0x3e2356bf	0.1595106
150	0xbd6f95b1	-0.058492366
151	0xb91c0a82	-0.00014881234
152	0x3d7dd970	0.061974943
153	0xbdf9aa3f	-0.12190675
154	0x3d289ad5	0.041163284
155	0xbca06dd8	-0.019583628
156	0xbb9eb0ff	-0.004842877
157	0xbe04b09a	-0.12957993
158	0x3c2a63dd	0.010399786
159	0xbd82ba58	-0.063831985
160	0xbaa15806	-0.0012309558
161	0x3c257259	0.010098063
162	0xbb0cb0bf	-0.0021467654
163	0xbbbef79c	-0.005827857
164	0x3d62c9bc	0.05536817
165	0x3dc77c7a	0.09740539
166	0x3d91324d	0.07089672
167	0x3aa38bc6	0.0012477569
168	0x3d108285	0.035280723
169	0xbe1183fa	-0.14210501
170	0xbd3ec6e6	-0.046576403
171	0xbdffcbb6	-0.12490027
172	0x3de20b60	0.11037326
173	0xbcd8eb58	-0.026479408
174	0x3d59ed9f	0.05320513
175	0xbd870335	-0.065924086
176	0xbdac8d99	-0.08425445
177	0x3d175391	0.03694493
178	0xbd583d9e	-0.052793138
179	0xbcb195af	-0.02167782
180	0xbcbbf69e	-0.022944745
181	0xbbe937ef	-0.0071172635
182	0xbd99daa2	-0.07512404
183	0x3dca4f1f	0.098783724
184	0x3ddeb2b7	0.10873931
185	0x3d721ece	0.05911141
186	0xbd9537ca	-0.072860315
187	0x3d7e984a	0.062156953
188	0xbe0e2578	-0.1388148
189	0x3db3ba5b	0.08775779
190	0xbd5db00b	-0.054122966
191	0x3d286e12	0.041120596
192	0xbdb49950	-0.088183045
193	0xbd3cae91	-0.046064917
194	0x3cba9ae9	0.022778945
195	0x3dbe10d0	0.092805505
196	0xbc463c9d	-0.012099412
197	0x3afccde3	0.0019287433
198	0x3d940de0	0.07229209
199	0xbd91ae04	-0.07113269
200	0x3d56371c	0.05229865
201	0x3dda8c9d	0.10671351
202	0x3d911a8b	0.07085141
203	0xbcf4dbf4	-0.029890038
204	0x3db54cca	0.08852537
205	0xbd0c0c10	-0.03419119
206	0x3d117f48	0.035521775
207	0xbd0b1f3f	-0.033965345
208	0x3daca183	0.084292434
209	0xbd96b0c6	-0.073579356
210	0xbd6b268a	-0.0574098
211	0xbdc4bb24	-0.09606007
212	0xbb3481a6	-0.0027543097
213	0xbda9b366	-0.08286171
214	0x3d30b2e1	0.043139342
215	0xbd86f0c3	-0.065888904
216	0xbe163648	-0.14669144
217	0x3dbdb538	0.0926308
218	0x3dbced8f	0.09224998
219	0x3db4276c	0.087965816
220	0x3bf52537	0.007481243
221	0xbdbee310	-0.093206525
222	0xbda8bb4c	-0.08238849
223	0x3d91e06a	0.07122882
224	0xbdb30857	-0.08741825
225	0xbd1b733b	-0.03795169
226	0xbdbacee8	-0.091214955
227	0xbd598759	-0.053107593
228	0x3d7651b6	0.06013652
229	0xbd859716	-0.06522958
230	0x3cf6e5da	0.030138899
231	0xbca5eaef	-0.020253627
232	0xbdb08c28	-0.08620483
233	0xbd44fa12	-0.048090048
234	0x3d3ef3db	0.046619277
235	0xbad20272	-0.0016022457
236	0x3dafb9d3	0.08580365
237	0x3d62d93d	0.055382956
238	0x3d2c0cf7	0.04200455
239	0xbcdb3f3b	-0.02676355
240	0xbd729993	-0.05922849
241	0x3d1ba82a	0.03800217
242	0xbd081802	-0.03322602
243	0x3e1a085d	0.15042253
244	0xbd08fd46	-0.033444665
245	0xbe068a1a	-0.13138619
246	0x3d8226ca	0.06355055
247	0x3d20af7d	0.03922986
248	0x3ceda2d5	0.029008308
249	0x3c933683	0.01797033
250	0xbda1f05f	-0.07907175
251	0x3dad1864	0.08451918
252	0xbd55f55d	-0.05223595
253	0x3d878f4e	0.0661913
254	0x3e13e629	0.14443268
255	0xbd540c5b	-0.051769596
