model/antibacterial_best_model_fold_5_auc_0.9892.pth (torch, 975118 bytes, 35 tensors)

feature_preprocessing.0.weight f4 [128, 128]
-0.058826104 0.10967069 -0.024872925 0.026766403 -0.093893394 -0.05904798 -0.016797362 -0.009388866
-0.0446957 -0.07000074 0.02945888 -0.11212264 -0.054721344 0.023713533 4.99242e-40 0.105439745
0.16679592 -0.020916656 0.08366662 -5.08622e-40 -5.22087e-40 -0.047736455 0.09329918 0.018986283
0.020206016 0.088517286 -0.023642117 0.031458043 4.99228e-40 0.10730643 5.08562e-40 0.00364702
-0.009215049 0.07717165 0.10861001 0.09552856 0.06099723 -0.14171432 -0.09986305 0.09178892
0.040210415 -0.0498565 -0.21842021 -0.15240327 -0.06939723 -0.019620944 0.030249164 -0.059093032
-0.053901896 -0.074310645 -0.023232713 -0.06194813 -0.01355882 -0.02148031 0.02655214 0.028165633
0.09590037 0.012053294 -0.037118573 0.029052261 -0.0335837 0.11984238 0.11820258 0.010743987
-0.057067115 0.07030669 0.086776994 -0.06450458 0.016889833 0.043488987 0.07136742 -0.05109978
0.013999372 0.056521557 0.07074096 0.02251477 -0.0039937813 -0.029694287 0.08527762 -0.018727269
-0.025032729 -0.05475105 0.06523425 0.015301861 -0.019063164 -0.036267504 0.11227484 0.016553551
0.007795441 -0.0264957 0.110333316 0.030304505 0.0062266993 -0.018468658 -0.036513824 -0.009462375
0.019664029 0.014290506 0.076845504 0.010590467 0.043482218 0.052736275 0.10755713 -0.018563587
0.11403028 0.07577237 0.04504483 0.050426796 0.07044441 0.009295104 0.01171734 -0.037790935
0.058722932 0.06720588 -0.050024353 -0.0948805 0.08760758 -0.064539395 0.06421198 0.01142412
0.023477642 0.07670106 0.009548463 0.0636645 0.0047457353 -0.08889681 -0.02253484 0.01727094
-0.10475718 0.015938893 -0.08534421 0.0065438743 -0.020459732 0.05952786 0.11402338 0.13776752
-0.0116532175 0.03542694 -0.09336934 -0.1942803 -0.0989801 0.05055051 -5.24968e-40 -0.0025433837
0.16821547 -0.038867716 0.105011865 5.22701e-40 5.17686e-40 -0.030131958 -0.09894692 -0.11375002
-0.1661727 -0.102646284 -0.058897406 0.0860211 -5.12438e-40 0.18692915 4.93491e-40 -0.21608397
0.0318757 -0.08525342 0.021391049 -0.12731442 -0.00938838 -0.12482457 -0.09636125 -0.03336654
0.011160934 0.062212218 -0.1371764 -0.022655807 0.12135468 -0.010726295 0.06461172 0.19300254
-0.06949984 -0.10546965 0.061970092 -0.07733002 0.010564413 -0.06736049 -0.14430067 0.078128114
-0.028107591 -0.04421903 -0.10022172 0.14471939 0.09482461 0.017805275 0.1467355 -0.0069284653
0.00070690626 -0.090788774 0.017702552 -0.022461928 0.003552491 0.018385917 0.0065274234 -0.04742748
-0.055333197 0.007698251 0.017200503 0.14347449 0.009503828 0.09120119 0.06815471 0.029234374
-0.021973014 -0.070093274 0.088967 0.070399985 0.0853784 0.02455747 0.0074167023 -0.04184452
-0.0012703408 -0.06470009 0.047803644 -0.08972178 0.027071603 0.027036184 0.08750124 -0.02574135
0.00094437064 0.013905424 -0.0564816 -0.0073003294 -0.08331465 0.07881612 -0.00927039 -0.05985767
-0.048758596 -0.04407487 0.055654407 0.016501926 -0.032313347 -0.05050279 -0.08129068 -0.09369629
0.014483476 0.02774876 0.08493351 -0.027535878 0.04949592 -0.056109592 -0.022220809 -0.029621383
0.047492858 0.046875015 -0.06617422 0.08341859 0.09046795 -0.019808298 0.042379692 -0.05101911
00000000: a4f3 70bd 079b e03d 4ec2 cbbc 3745 db3c
00000010: 2e4b c0bd 4bdc 71bd 9f9a 89bc c2d3 19bc
00000020: d712 37bd 8c5c 8fbd c053 f13c 8ea0 e5bd
00000030: 7d23 60bd e242 c23c af6f 0500 cbf0 d73d
00000040: 8dcc 2a3e 6859 abbc 6859 ab3d d589 0580
00000050: 5eaf 0580 4d87 43bd a413 bf3d 1f89 9b3c
00000060: 1687 a53c 8d48 b53d 1dad c1bc 26da 003d
00000070: a56f 0500 79c3 db3d aa89 0500 d802 6f3b
00000080: b8fa 16bc 2c0c 9e3d ed6e de3d 7aa4 c33d
00000090: 3bd8 793d 8f1d 11be 0085 ccbd d4fb bb3d
000000a0: adb3 243d 5436 4cbd 8ca9 5fbe 9a0f 1cbe
000000b0: 2320 8ebd 1abc a0bc 18cd f73c 890b 72bd
000000c0: 3cc8 5cbd 2e30 98bd 8852 bebc 53bd 7dbd
000000d0: d025 5ebc 7af7 afbc e083 d93c 9dbb e63c
000000e0: 6a67 c43d 2e7b 453c a509 18bd 02ff ed3c
000000f0: 108f 09bd ec6f f53d 3214 f23d 8c07 303c
00000100: 35bf 69bd f4fc 8f3d 23b8 b13d fa1a 84bd
00000110: 8c5c 8a3c 8221 323d 1529 923d 014e 51bd
00000120: 9f5d 653c 2683 673d a3e0 903d e570 b83c
00000130: 44de 82bb 6f41 f3bc 08a6 ae3d ee69 99bc
00000140: 7011 cdbc a342 60bd 8999 853d a8b4 7a3c
00000150: 5a2a 9cbc 3c8d 14bd 5af0 e53d 509b 873c
00000160: e670 ff3b 830d d9bc 6ff6 e13d 2741 f83c
00000170: 5709 cc3b 954b 97bc 858f 15bd 1408 1bbc
00000180: 7516 a13c ba22 6a3c 2d61 9d3d a383 2d3c
00000190: 691a 323d fe01 583d ea46 dc3d aa12 98bc
000001a0: b588 e93d 8b2e 9b3d ed80 383d 548c 4e3d
000001b0: 2945 903d 7e4a 183c 16fa 3f3c abca 1abd
000001c0: 7587 703d 3da3 893d 56e6 4cbd b550 c2bd
000001d0: 9a6b b33d 3b2d 84bd 9281 833d 3b2c 3b3c
000001e0: 2f54 c03c 7215 9d3d 2871 1c3c 8962 823d
000001f0: 1d82 9b3b 880f b6bd fc9a b8bc c97b 8d3c
00000200: ef8a d6bd 4892 823c f2c8 aebd ff6d d63b
00000210: 2b9b a7bc 7cd3 733d 1785 e93d ee12 0d3e
00000220: 23ed 3ebc d71b 113d 6d38 bfbd 6af1 46be
00000230: 14b6 cabd 0d0e 4f3d 66b7 0580 e6ae 26bb
00000240: ad40 2c3e c133 1fbd 7610 d73d 14b1 0500
00000250: 19a3 0500 4cd7 f6bc afa4 cabd c5f5 e8bd
00000260: 2d29 2abe 3738 d2bd 683e 71bd d52b b03d
00000270: 7894 0580 5b6a 3f3e a75f 0500 1e45 5dbe
00000280: 1890 023d 5899 aebd 483c af3c b65e 02be
00000290: b8d1 19bc 06a4 ffbd 0c59 c5bd 5aab 08bd
000002a0: 5adc 363c 3dd2 7e3d f877 0cbe ac98 b9bc
000002b0: cd88 f83d 58bd 2fbc 2653 843d 75a2 453e
000002c0: ef55 8ebd 7900 d8bd 5ad4 7d3d 345f 9ebd
000002d0: 5c16 2d3c 4cf4 89bd 8ec3 13be a201 a03d
000002e0: e441 e6bc 031f 35bd 0c41 cdbd 5231 143e
000002f0: 6833 c23d 5edc 913c d541 163e 2e08 e3bb
00000300: ad4f 393a 77ef b9bd f104 913c 1402 b8bc
00000310: e9d0 683b 109e 963c ffe3 d53b 5143 42bd
00000320: 10a5 62bd 9c41 fc3b 12e8 8c3c faea 123e
00000330: f2b5 1b3c b1c7 ba3d b294 8b3d ed7c ef3c
00000340: c000 b4bc 108d 8fbd 5534 b63d de2d 903d
00000350: dfda ae3d bf2c c93c cf07 f33b 2965 2bbd
00000360: 9081 a6ba 7b81 84bd c1cd 433d 0dc0 b7bd
00000370: 44c5 dd3c fd7a dd3c da33 b33d 86df d2bc
00000380: a48f 773a 93d3 633c 4059 67bd 9a37 efbb
00000390: dfa0 aabd 596a a13d d5e2 17bc 512d 75bd
000003a0: 18b7 47bd da87 34bd e0f5 633d 0c2f 873c
000003b0: 005b 04bd 03dc 4ebd ba7b a6bd d7e3 bfbd
000003c0: 1a4c 6d3c 5e51 e33c 9ff1 ad3d ec92 e1bc
000003d0: 3cbc 4a3d 2cd3 65bd 6a08 b6bc 8ba8 f2bc
000003e0: df87 423d 0400 403d 5986 87bd 5ed7 aa3d
000003f0: 4347 b93d 0345 a2bc 5496 2d3d 6af9 50bd

feature_preprocessing.0.bias f4 [128]
1.8424439e-06 1.0944684e-06 -1.5913638e-06 1.43961515e-05 2.5042311e-06 4.9005644e-06 -1.4453681e-05 5.1431516e-06
-1.2219783e-05 -3.008544e-06 2.3917446e-06 9.019913e-06 -2.02538e-06 -1.5587795e-05 6.393487e-06 -9.0728845e-06
8.960839e-06 1.2233204e-06 -3.5383506e-05 2.3739567e-05 1.0661334e-05 -2.6664266e-06 -2.8866432e-05 3.104841e-05
4.6145515e-06 4.6528453e-06 4.101646e-06 1.2228619e-05 -7.1856844e-06 -2.936737e-06 6.0115923e-07 -2.1652608e-05
-1.4193605e-05 -2.922178e-06 -4.811793e-07 -2.0268888e-06 -1.4273578e-05 1.06314255e-05 4.842717e-06 1.5884368e-06
-7.867646e-05 -1.8039482e-06 7.787525e-07 1.3174845e-05 -3.342688e-05 -1.7000585e-06 2.6686457e-05 3.2801547e-06
3.754917e-06 -1.3511304e-06 5.704786e-07 -1.3672856e-05 -1.7217899e-05 -2.3419148e-06 1.5443718e-06 1.1895122e-06
-7.963555e-05 -4.732528e-05 4.012746e-07 -4.942052e-05 7.8546655e-05 2.7282542e-05 2.9445832e-06 -7.3664e-06
-2.9802968e-05 -3.6269994e-06 -2.413142e-06 1.0759578e-06 1.2813475e-05 8.111979e-06 2.9043993e-05 -2.3859463e-06
-3.967569e-05 -4.53095e-05 -1.1948359e-06 4.3223167e-06 7.193342e-06 6.651702e-06 1.5656191e-05 -4.1238136e-06
-4.1426094e-05 5.5372284e-06 1.2155835e-05 -0.00011315911 -1.120741e-05 -1.7419657e-06 1.5927048e-05 7.2928074e-06
-1.2530653e-05 -7.00902e-05 -3.54267e-06 4.7280428e-06 -6.543856e-07 7.754163e-06 -1.7281278e-06 -9.306382e-06
0.00025646758 8.926553e-07 -1.5809266e-09 1.0800482e-06 2.4387914e-06 6.403569e-06 -3.0847893e-06 8.15309e-06
-6.4384185e-06 3.0586282e-06 -9.2073236e-07 -1.3811566e-05 4.225618e-06 -3.781407e-05 5.339234e-06 4.4891058e-05
9.91315e-07 -1.9053809e-06 -1.0629712e-05 -2.2769796e-06 -2.6789692e-06 3.5428707e-06 1.2344287e-06 -1.0953969e-07
3.3594148e-07 9.737917e-07 -1.2940422e-05 5.6359727e-06 2.2411783e-05 -3.430701e-06 2.6554962e-06 8.9414704e-07
00000000: e449 f735 a6e5 9235 d896 d5b5 0087 7137
00000010: 5d0e 2836 876f a436 167e 72b7 5693 ac36
00000020: 9103 4db7 64e6 49b6 dc81 2036 3b54 1737
00000030: c3eb 07b6 89c2 82b7 a387 d636 be37 18b7
00000040: 8356 1637 f830 a435 c068 14b8 5524 c737
00000050: 15de 3237 dcf0 32b6 3126 f2b7 fa39 0238
00000060: b2d6 9a36 a31f 9c36 dfa0 8936 8529 4d37
00000070: 8f1c f1b6 c214 45b6 595f 2135 9fa2 b5b7
00000080: 1221 6eb7 a31a 44b6 642a 01b5 af05 08b6
00000090: 8d78 6fb7 a05d 3237 9f7e a236 4632 d535
000000a0: 1aff a4b8 301f f2b5 770b 5135 8709 5d37
000000b0: d733 0cb8 912d e4b5 bbdc df37 a120 5c36
000000c0: fcfc 7b36 7d58 b5b5 fe22 1935 7864 65b7
000000d0: 286f 90b7 ca29 1db6 3648 cf35 54a7 9f35
000000e0: 0302 a7b8 227f 46b8 c36e d734 e148 4fb8
000000f0: 6ab9 a438 d0dc e437 8e9b 4536 e52c f7b6
00000100: 6301 fab7 6067 73b6 77f1 21b6 a169 9035
00000110: 75f9 5637 af18 0837 80a3 f337 3f1e 20b6
00000120: 7369 26b8 b50a 3eb8 405e a0b5 6b08 9136
00000130: 565e f136 af31 df36 6a55 8337 4a5f 8ab6
00000140: eec0 2db8 6ecc b936 eaf0 4b37 d64f edb8
00000150: 7607 3cb7 7ccd e9b5 139b 8537 bdb4 f436
00000160: bf3a 52b7 64fd 92b8 9bbe 6db6 94a5 9e36
00000170: 09a9 2fb5 e017 0237 05f2 e7b5 9b22 1cb7
00000180: 7f76 8639 ce9e 6f35 e947 d9b0 2cf6 9035
00000190: 1eaa 2336 3dde d636 4704 4fb6 41c9 0837
000001a0: 9809 d8b6 d542 4d36 3f28 77b5 39b8 67b7
000001b0: c8c9 8d36 8c9a 1eb8 ac27 b336 6849 3c38
000001c0: 530d 8535 64bc ffb5 4456 32b7 36ce 18b6
000001d0: 57c8 33b6 0ec2 6d36 a6ae a535 153c ebb3
000001e0: 725b b434 3ab3 8235 b01a 59b7 a31c bd36
000001f0: f000 bc37 ff3a 66b6 1435 3236 5105 7035

feature_preprocessing.1.weight f4 [128]
0.9823232 1.1264611 0.88032246 1.0549006 0.9368471 1.0157173 0.95145196 0.9279351
1.0782363 0.95800495 0.900471 1.0678759 0.8808513 0.925183 0.9919194 1.0308812
0.99433935 0.85723835 0.9462382 1.0819348 1.024823 1.0261436 1.0923105 1.0123333
0.921083 0.98068 0.9474305 0.97686034 1.0168175 0.9613751 0.97266036 0.9871798
1.1135333 1.0033035 0.9544466 0.92363274 0.9625436 0.979552 0.99675876 1.0593071
1.054029 1.0440264 0.8984231 1.0914474 0.90731436 1.0408853 0.9992249 0.99842376
0.881895 0.98874736 0.93475467 1.073064 1.0845494 0.93273526 1.0337304 1.0697266
1.0829344 1.004643 0.9671636 1.0004972 0.90009415 1.0626178 0.91970557 1.0027633
1.0882659 0.9629831 0.9689178 1.1059157 1.0972933 0.97059387 0.98284954 0.95077467
1.0228369 1.0834711 1.0104444 0.9761001 1.0671419 1.0400267 0.9606934 1.0026165
1.0404959 1.0262699 0.97693735 1.088939 1.1137792 1.0927556 0.9858203 1.0613664
0.92966336 1.0477211 1.0089597 1.0711148 0.91376984 1.0915992 1.015167 0.9915948
1.1355578 1.0372007 1.0008558 1.0571365 1.0199785 1.0859221 0.94197625 1.1272509
1.0672437 0.9962244 1.0024806 1.0744685 1.0284641 1.1377252 1.0681622 1.1306219
0.97702324 1.1070698 1.1474199 0.9435411 0.90789074 0.9139748 0.96345025 0.84606314
1.001792 0.8639037 0.9373149 1.0528541 1.0592564 1.0642508 0.9663257 1.0111898
00000000: 8979 7b3f e12f 903f d05c 613f fc06 873f
00000010: 36d5 6f3f 0603 823f 5b92 733f 288d 6d3f
00000020: a603 8a3f d03f 753f 4485 663f 28b0 883f
00000030: 797f 613f cbd8 6c3f 6eee 7d3f eaf3 833f
00000040: 068d 7e3f f973 5b3f ab3c 723f d77c 8a3f
00000050: 662d 833f ac58 833f d5d0 8b3f 2394 813f
00000060: 18cc 6b3f d80d 7b3f ce8a 723f 8513 7a3f
00000070: 1327 823f ae1c 763f 4500 793f d1b7 7c3f
00000080: 4288 8e3f 406c 803f 9d56 743f 3273 6c3f
00000090: 4269 763f ebc3 7a3f 952b 7f3f 6097 873f
000000a0: 6cea 863f a8a2 853f 0eff 653f 8cb4 8b3f
000000b0: c145 683f bb3b 853f 34cd 7f3f b398 7f3f
000000c0: dfc3 613f 8c1e 7d3f 154c 6f3f 295a 893f
000000d0: 84d2 8a3f bdc7 6e3f 4751 843f cdec 883f
000000e0: 989d 8a3f 2498 803f 0998 773f 4b10 803f
000000f0: 926c 663f dc03 883f d371 6b3f 8c5a 803f
00000100: 4c4c 8b3f 0f86 763f ff0a 783f a58e 8d3f
00000110: 1b74 8c3f d778 783f 079c 7b3f f865 733f
00000120: 52ec 823f 2eaf 8a3f 3e56 813f b2e1 793f
00000130: 1b98 883f 981f 853f 01f0 753f bd55 803f
00000140: f82e 853f d05c 833f 9118 7a3f 5a62 8b3f
00000150: 5190 8e3f 6adf 8b3f b85e 7c3f dbda 873f
00000160: 6bfe 6d3f ba1b 863f 9725 813f 4a1a 893f
00000170: d2ec 693f 86b9 8b3f fef0 813f 28d9 7d3f
00000180: f559 913f fec2 843f 0b1c 803f 4050 873f
00000190: a88e 823f 7fff 8a3f 5b25 713f c249 903f
000001a0: 719b 883f 9008 7f3f 4951 803f 2f88 893f
000001b0: b6a4 833f fba0 913f 8ab9 883f 38b8 903f
000001c0: 321e 7a3f 77b4 8d3f a8de 923f e98b 713f
000001d0: 876b 683f 41fa 693f ada4 763f 9897 583f
000001e0: b83a 803f cb28 5d3f dff3 6f3f ecc3 863f
000001f0: b795 873f 5f39 883f 1f61 773f ab6e 813f

feature_preprocessing.1.bias f4 [128]
-0.0028259407 -0.013805431 -0.12274861 -0.08370521 -0.06992138 -0.039449833 -0.02497698 -0.06253136
0.042685777 -0.08958943 -0.070304334 0.037833784 -0.04887978 0.0066014514 -0.0077323616 -0.004032524
-0.020975998 -0.06343138 -0.018310918 0.024962978 -0.07104004 0.07076674 -0.039232843 -0.04927183
-0.019702986 0.019681552 -0.06780866 0.028030848 -0.022185128 0.018949533 0.071785375 0.08881143
0.029001482 -0.03298307 0.038257483 -0.11485302 -0.05871342 -0.06750891 -0.11535993 0.08582542
-0.05266427 0.029938614 -0.0081926305 0.0015366344 -0.08418964 0.036106605 -0.02209448 -0.009769958
-0.108217515 -0.05218867 -0.016662685 -0.036492225 -0.06432771 -0.12618141 -0.06915311 0.07305939
-0.09136302 -0.031475298 -0.043663356 -0.017533077 -0.09886724 -0.05315235 -0.0488253 -0.10497921
0.010767753 -0.021784151 -0.0049275053 -0.09096995 0.014940113 -0.11215836 -0.024236508 0.0019626375
-0.03289545 -0.062323593 0.0026716436 -0.100504436 -0.013406495 -0.051418077 -0.0068772864 -0.061022755
-0.0011698295 -0.05285427 -0.09970648 -0.14346857 -0.020824378 0.062805444 -0.019778058 0.09355395
-0.020988269 -0.0385816 -0.053824507 -0.07794818 -0.0054347427 -0.05891197 -0.02581751 -0.071166344
-0.051569715 -0.046171118 -0.04363058 0.061137076 -0.023017867 -0.03704366 -0.07044187 0.039696135
-0.0068557626 -0.028913029 -0.061381 -0.008747264 0.01038381 -0.03296946 -0.004157708 -0.027728543
-0.023968417 0.11867385 -0.0036177987 0.005047925 -0.019886505 -0.023689494 -0.08102558 -0.12156661
-0.023622094 -0.13092059 0.0072346334 -0.11599305 0.04536568 0.13074046 -0.005311277 0.01434576
00000000: 6b33 39bb 2d30 62bc a063 fbbd a36d abbd
00000010: f132 8fbd 2696 21bd 869c ccbc 7110 80bd
00000020: 48d7 2e3d aa7a b7bd b8fb 8fbd 99f7 1a3d
00000030: 2a36 48bd fd50 d83b c05f fdbb 4323 84bb
00000040: dbd5 abbc 50e8 81bd c700 96bc 297f cc3c
00000050: 717d 91bd 27ee 903d 9eb2 20bd 42d1 49bd
00000060: 2868 a1bc 353b a13c 44df 8abd f3a0 e53c
00000070: 96bd b5bc 0d3c 9b3c 3604 933d c4e2 b53d
00000080: 8494 ed3c 4119 07bd e1b3 1c3d 0f38 ebbd
00000090: 7c7d 70bd 1d42 8abd d441 ecbd 3dc5 af3d
000000a0: 7db6 57bd d341 f53c 623a 06bc e568 c93a
000000b0: 9e6b acbd 85e4 133d 7cff b4bc 2d12 20bc
000000c0: 25a1 ddbd c9c3 55bd 2f80 88bc df78 15bd
000000d0: 3fbe 83bd b335 01be 25a0 8dbd 29a0 953d
000000e0: 891c bbbd 3eec 00bd 59d8 32bd 87a1 8fbc
000000f0: e87a cabd 47b6 59bd 0afd 47bd 57ff d6bd
00000100: 3b6b 303c ad74 b2bc e976 a1bb 744e babd
00000110: 60c7 743c 48b3 e5bd a48b c6bc 989f 003b
00000120: 61bd 06bd 0647 7fbd be16 2f3b 45d5 cdbd
00000130: eaa6 5bbc c39b 52bd dc5a e1bb fff2 79bd
00000140: f754 99ba b87d 58bd e932 ccbd 6de9 12be
00000150: e397 aabc 24a0 803d 9805 a2bc 3799 bf3d
00000160: 97ef abbc bd07 1ebd 1677 5cbd 4ca3 9fbd
00000170: ed15 b2bb ae4d 71bd 3e7f d3bc a9bf 91bd
00000180: c43a 53bd ed1d 3dbd fbb5 32bd df6a 7a3d
00000190: f78f bcbc 18bb 17bd d443 90bd 6a98 223d
000001a0: 4ea6 e0bb 04db ecbc a56a 7bbd af50 0fbc
000001b0: db20 2a3c fc0a 07bd 623d 88bb f826 e3bc
000001c0: 6a59 c4bc 470b f33d 9718 6dbb 1069 a53b
000001d0: 06e9 a2bc 7810 c2bc bdf0 a5bd eaf7 f8bd
000001e0: 1f83 c1bc 0c10 06be 8110 ed3b c48d edbd
000001f0: 5dd1 393d d4e0 053e 390a aebb 7b0a 6b3c

feature_preprocessing.1.running_mean f4 [128]
-0.006953924 -0.0035509341 0.13663216 0.019517306 -0.058815684 -4.9079415e-05 -0.09748901 0.13103381
0.033958875 0.005121294 -0.021960225 -0.061316352 -0.0941131 0.00061846524 -0.057823982 0.039122056
0.037046697 0.041498825 -0.017621359 -0.010948147 0.032625373 0.12859611 0.024675317 -0.009071795
-0.12245476 -0.03329027 0.08095969 -0.031661518 0.027412934 -0.07360599 0.027170151 0.022186885
-0.07139872 -0.033973347 0.051002752 0.07992906 -0.0777793 0.051902357 -0.015081113 0.032886125
-0.03189313 -0.062966995 -0.107870944 0.029563565 -0.0054746494 0.0041953893 -0.11603176 0.0020511823
0.05417976 -0.04548248 -0.13572587 0.008812164 -0.01230933 0.10487797 0.078779 -0.024866335
0.01063875 -0.019144906 -0.014180178 -0.00034339505 0.04573186 0.0063379887 -0.044588823 0.006607643
-0.013555967 0.091978855 -0.01977542 0.0016926774 0.0016527473 0.0083519 0.012111162 -0.058309466
0.019681968 -0.007129093 -0.08556326 0.0038161858 -0.009545652 -0.01789262 0.048618015 0.035756037
0.012836828 -0.03037938 0.03188769 0.013718158 0.025085945 -0.03657552 -0.031850047 -0.05725194
-0.021832518 0.0047674305 -0.06484993 0.051153395 -0.06432572 -0.0030610086 0.1109222 0.02369399
-0.004175741 -0.0019285121 0.066380836 -0.013337267 -0.026281534 -0.00071212824 0.056306012 -0.067235634
-0.037528183 0.020704525 -0.01761468 -0.0020146617 -0.0646456 0.037769888 0.034697346 -0.014190855
-0.09833731 -0.02746812 -0.019119285 -0.042455353 -0.102301724 0.032037318 0.1082925 0.093755014
0.037553705 -0.049525037 -0.092772685 0.03788739 0.0074920985 -0.005933665 0.069780536 -0.04820523
00000000: bedd e3bb cab6 68bb 4de9 0b3e c2e2 9f3c
00000010: b7e8 70bd 9fda 4db8 51a8 c7bd ba2d 063e
00000020: 7618 0b3d 87d0 a73b eee5 b3bc db26 7bbd
00000030: 5ebe c0bd 8020 223a d7d8 6cbd 733e 203d
00000040: 47be 173d acfa 293d ab5a 90bc db5f 33bc
00000050: 2fa2 053d b3ae 033e e423 ca3c dea1 14bc
00000060: 90c9 fabd 615b 08bd 32ce a53d 82af 01bd
00000070: 1791 e03c bdbe 96bd f093 de3c 45c1 b53c
00000080: 7e39 92bd a327 0bbd 43e8 503d d9b1 a33d
00000090: c14a 9fbd 9197 543d c616 77bc 9ab3 063d
000000a0: 5fa2 02bd d7f4 80bd 71eb dcbd 4a2f f23c
000000b0: b064 b3bb 7a79 893b 0fa2 edbd 216d 063b
000000c0: 99eb 5d3d d64b 3abd b9fb 0abe e560 103c
000000d0: 12ad 49bc 43ca d63d e256 a13d 7cb4 cbbc
000000e0: 274e 2e3c c7d5 9cbc fa53 68bc b409 b4b9
000000f0: 5551 3b3d e7ae cf3b c5a2 36bd ed84 d83b
00000100: d919 5ebc 695f bc3d 1000 a2bc d4dc dd3a
00000110: ffa0 d83a 68d6 083c e56d 463c e8d5 6ebd
00000120: 143c a13c 2b9b e9bb ca3b afbd f918 7a3b
00000130: 5e65 1cbc 8b93 92bc af23 473d ec74 123d
00000140: 8f51 523c 2dde f8bc ab9c 023d 20c2 603c
00000150: 0a81 cd3c 36d0 15bd 3275 02bd 0381 6abd
00000160: 1cda b2bc 1b38 9c3b 0ad0 84bd 3986 513d
00000170: 34bd 83bd 349b 48bb 2e2b e33d e619 c23c
00000180: a8d4 88bb 21c6 fcba adf2 873d 8d84 5abc
00000190: 5f4c d7bc 1eae 3aba 22a1 663d d6b2 89bd
000001a0: 27b7 19bd 899c a93c a94c 90bc 6a08 04bb
000001b0: ea64 84bd 99b4 1a3d ce1e 0e3d c380 68bc
000001c0: 1265 c9bd d304 e1bc 0ca0 9cbc aae5 2dbd
000001d0: 9183 d1bd 9039 033d 75c8 dd3d a102 c03d
000001e0: ead1 193d c4da 4abd 9bff bdbd cf2f 1b3d
000001f0: 4780 f53b 316f c2bb 19e9 8e3d d972 45bd

feature_preprocessing.1.running_var f4 [128]
0.84217924 0.38960257 7.309705 0.5302802 5.7788296 0.40632263 3.4104774 7.08594
0.63824415 1.6066958 1.6717231 3.033207 5.9820127 1.0648202 1.0466653 0.48268872
1.5227375 6.311157 1.4781963 0.5117437 1.6169298 8.756104 0.39766473 0.6191274
8.1232195 2.776496 4.651768 1.105109 0.87301713 3.5221019 1.104662 0.3643128
2.6382296 1.9934926 2.7115035 5.817977 2.9374642 2.7500212 0.49273014 1.197265
0.5633765 2.768904 5.449744 0.5487256 0.30924654 1.9202646 4.880514 0.4152561
2.0019324 2.033578 12.18214 0.9941635 0.48357382 3.227414 3.2939537 0.5148857
0.7372157 0.2886259 0.5385172 1.4389247 4.2413154 1.1365126 4.6962423 0.6831917
0.54107577 4.150433 2.164008 0.7158912 0.5494525 0.54711074 1.0911373 3.9585423
0.5350788 0.7439622 3.7728658 1.346565 0.5015347 0.7663904 4.052001 0.8432604
0.5485425 1.0879815 0.6276204 0.6133213 0.4450851 2.142896 0.8300612 1.6765801
1.1411207 0.5826052 2.5358198 0.56227523 5.1148424 0.52454746 5.36209 1.7576561
0.44477704 0.609666 1.8513392 1.8208522 0.5608314 0.6917257 1.9331142 2.4521768
1.7280303 1.261894 3.2732363 0.64446914 4.149181 0.57363 0.72841996 0.7965705
3.1484804 1.1474376 0.4266847 2.442694 3.3224432 1.9475695 3.368134 6.5872235
1.2699335 2.8386948 3.679826 0.48747125 0.8504918 1.6375191 3.515752 6.2925463
00000000: 0f99 573f fd79 c73e 1ae9 e940 71c0 073f
00000010: 2cec b840 8509 d03e 4345 5a40 05c0 e240
00000020: f863 233f 35a8 cd3f 06fb d53f 1020 4240
00000030: a66c bf40 074c 883f 21f9 853f fa22 f73e
00000040: 10e9 c23f 00f5 c940 8935 bd3f a301 033f
00000050: 8ef7 ce3f 0119 0c41 b69a cb3e 227f 1e3f
00000060: b5f8 0141 1cb2 3140 49db 9440 3674 8d3f
00000070: 0d7e 5f3f 1e6a 6140 9065 8d3f 3587 ba3e
00000080: c1d8 2840 c42a ff3f 4689 2d40 de2c ba40
00000090: 6aff 3b40 5900 3040 2047 fc3e fb3f 993f
000000a0: 7139 103f b935 3140 4e64 ae40 4879 0c3f
000000b0: 9055 9e3e 3bcb f53f 2c2d 9c40 739c d43e
000000c0: a91f 0040 2426 0240 0cea 4241 8081 7e3f
000000d0: fd96 f73e f38d 4e40 23d0 5240 8dcf 033f
000000e0: 2bba 3c3f c6c6 933e 43dc 093f af2e b83f
000000f0: dbb8 8740 3f79 913f 9e47 9640 a7e5 2e3f
00000100: f183 0a3f 59d0 8440 1b7f 0a40 a544 373f
00000110: eba8 0c3f 730f 0c3f 63aa 8b3f c258 7d40
00000120: edfa 083f 4f74 3e3f a276 7140 3e5c ac3f
00000130: 9464 003f 2932 443f fea9 8140 eadf 573f
00000140: 486d 0c3f fa42 8b3f bbab 203f a002 1d3f
00000150: 32e2 e33e 3525 0940 e47e 543f 2d9a d63f
00000160: 3e10 923f 9d25 153f df4a 2240 45f1 0f3f
00000170: caac a340 be48 063f 3e96 ab40 e0fa e03f
00000180: d1b9 e33e 1213 1c3f aff8 ec3f af11 e93f
00000190: a692 0f3f ef14 313f 4970 f73f 77f0 1c40
000001a0: 1930 dd3f be85 a13f b47c 5140 eefb 243f
000001b0: 17c6 8440 6ad9 123f bb79 3a3f 0bec 4b3f
000001c0: b480 4940 3cdf 923f 6b76 da3e 1955 1c40
000001d0: e9a2 5440 f549 f93f 828f 5740 89ca d240
000001e0: 2e8d a23f 2dad 3540 4582 6b40 d595 f93e
000001f0: d5b9 593f 3a9a d13f 1502 6140 8a5c c940

bilstm.weight_ih_l0 f4 [256, 128]
-0.16650791 -0.006451545 -0.075137734 -0.06694817 0.047216658 -0.14325744 -0.067045465 -0.061616514
0.045388166 0.029298734 0.06534851 -0.12000621 0.04120501 -0.04945677 0.0369968 -0.00864277
0.00086870434 -0.07560644 0.046389446 -0.10481848 -0.021162821 -0.04450941 -0.027279159 -0.13392383
0.0145148365 -0.080461346 0.011612008 0.034007452 -0.12745436 0.0664209 -0.11953433 0.13505776
-0.015650466 0.06731138 0.0019209014 -0.01343114 -0.0015851514 0.050926495 -0.02115425 -0.12715933
-0.121322945 -0.11479651 0.08494356 0.044762913 0.06024225 -0.028736798 -0.04445945 -0.045548335
0.08553332 0.007890106 0.07957637 0.04762177 -0.040096402 -0.12016141 -0.0063367942 -0.10948612
-0.09619356 0.046497557 -0.033059776 -0.027396685 0.07803443 -0.04214848 -0.09123911 0.052305624
-0.15283844 -0.10611067 0.0028788825 0.0096149305 0.10716138 0.034388665 -0.060380723 0.08819071
-0.14583653 -0.077229165 0.014050747 0.04118311 0.018390516 0.0024707674 0.028594568 0.009906064
-0.029728483 -0.041802235 -0.013497443 -0.05471858 -0.02374871 0.06819118 0.10704907 0.056230243
0.014810186 0.029372562 -0.091557786 -0.09191457 0.013500957 -0.07651865 0.025164133 -0.027126271
-0.09203214 0.027419746 -0.06978358 0.020250173 -0.06788519 -0.10190597 0.034013785 0.09139025
0.108527526 0.0021813277 -0.013921901 0.048564482 0.01435817 0.058878463 0.0034807425 -0.013243147
0.0035371245 0.06250078 -0.10357972 -0.0920071 0.034988876 -0.07843448 0.0048424033 -0.019214828
-0.09286416 -0.013947195 -0.040982645 -0.05975475 -0.012640056 0.01647821 0.048678223 -0.14338697
-0.033822354 0.015319456 0.090464376 0.1047852 -0.0051265513 -0.08225921 -0.117023684 0.029793167
0.0948829 0.08441869 -0.012858692 0.070176326 -0.019872017 -0.106422424 0.12274579 -0.03443236
-0.05979299 0.09229921 -0.08832768 -0.05898051 -0.05162329 0.11192973 0.06601859 0.013500323
-0.057368577 0.09199847 -0.0107516805 -0.042243823 -0.07500662 -0.038872782 0.064348474 0.057163652
0.03089356 0.028533135 -0.13833135 0.004982618 -0.056478776 -0.043454014 -0.10566135 0.027655728
-0.10935027 -0.07618143 -0.011087877 -0.072770886 0.08625027 0.0069710845 0.117397696 -0.012790264
0.010235041 -0.09842884 -0.07441718 -0.12633875 0.008052302 -0.021367738 0.072774686 -0.042327926
0.116338536 -0.07115337 0.06616435 -0.017655427 -0.03196551 -0.040386423 -0.096642986 0.11856644
0.014458366 0.05781318 -0.029659439 0.0059379125 0.09631721 0.06943684 -0.12643029 -0.021569567
-0.057987 -0.12130195 0.08585378 -0.019250965 -0.06828731 0.114524744 -0.057221133 0.116989315
-0.018381536 -0.036766507 0.046594486 0.12755147 -0.06857581 -0.02072607 0.020299 -0.045008153
0.01822573 -0.061333302 0.13788871 -0.06421659 -0.10318435 -0.11792969 -0.09970062 -0.15402564
-0.021431632 0.048912615 -0.06949413 -0.04058013 -0.04725201 -0.07747829 0.06285401 0.08353903
-0.0074896794 0.08179312 -0.16079694 0.06755658 -0.072671354 -0.04160128 0.013162834 0.019472344
-0.0047668745 0.0047176904 -0.0011018189 -0.03982218 0.12806892 0.054559287 0.029293774 -0.059557974
-0.033887025 0.015523908 0.024022665 0.09794504 -0.036898375 0.08032366 -0.11626572 -0.04453141
00000000: 0d81 2abe 7b67 d3bb d0e1 99bd 1f1c 89bd
00000010: 4166 413d 14b2 12be 224f 89bd 9961 7cbd
00000020: f1e8 393d e603 f03c 71d5 853d d1c5 f5bd
00000030: 96c6 283d 2f93 4abd f589 173d 689a 0dbc
00000040: c3b9 633a 8dd7 9abd dc02 3e3d 12ab d6bd
00000050: a75d adbc 804f 36bd 8b78 dfbc 5423 09be
00000060: a3cf 6d3c ebc8 a4bd 4b40 3e3c 664b 0b3d
00000070: 6583 02be ae07 883d 6ace f4bd 954c 0a3e
00000080: 6835 80bc 8cda 893d c1c6 fb3a 490e 5cbc
00000090: dbc4 cfba 4d98 503d ad4b adbc 0e36 02be
000000a0: 2a78 f8bd 6f1a ebbd e4f6 ad3d 5159 373d
000000b0: 94c0 763d 6f69 ebbc 1d1b 36bd e490 3abd
000000c0: 182c af3d 8145 013c f0f8 a23d 0c0f 433d
000000d0: 203c 24bd 2f17 f6bd e2a4 cfbb 423a e0bd
000000e0: 2101 c5bd 3974 3e3d b069 07bd 036f e0bc
000000f0: 84d0 9f3d e2a3 2cbd 92db babd 6c3e 563d
00000100: ae81 1cbe 8d50 d9bd a2ab 3c3b f187 1d3c
00000110: 6d77 db3d 21db 0c3d c751 77bd 559d b43d
00000120: 2c56 15be 532a 9ebd 1b35 663c 9faf 283d
00000130: b5a7 963c 99ec 213b 283f ea3c 0b4d 223c
00000140: 2689 f3bc d238 2bbd 6124 5dbc 9720 60bd
00000150: a88c c2bc d1a7 8b3d 8b3c db3d af51 663d
00000160: 6ca6 723c ba9e f03c a682 bbbd b53d bcbd
00000170: 1e33 5d3c cfb5 9cbd 0325 ce3c ea37 debc
00000180: 597b bcbd 609f e03c b2ea 8ebd b1e3 a53c
00000190: 6407 8bbd 14b4 d0bd 0a52 0b3d d02a bb3d
000001a0: ae43 de3d 9bf4 0e3b af18 64bc 8deb 463d
000001b0: 883e 6b3c 8b2a 713d 2b1d 643b c9f9 58bc
000001c0: 1acf 673b 6900 803d 9b21 d4bd 386e bcbd
000001d0: 7f50 0f3d 42a2 a0bd 06ad 9e3b 6a68 9dbc
000001e0: 912f bebd c782 64bc 6bdd 27bd 66c1 74bd
000001f0: 3d18 4fbc 50fd 863c d162 473d 09d4 12be
00000200: 4f89 0abd 75fe 7a3c 6345 b93d 9f99 d63d
00000210: a1fc a7bb 8477 a8bd 1daa efbd cd10 f43c
00000220: f751 c23d b5e3 ac3d 43ad 52bc 9bb8 8f3d
00000230: a4ca a2bc 00f4 d9bd 2562 fb3d f208 0dbd
00000240: 7fe9 74bd 5e07 bd3d 25e5 b4bd 8c95 71bd
00000250: f172 53bd 6a3b e53d c134 873d 7530 5d3c
00000260: 50fb 6abd b269 bc3d d127 30bc dc07 2dbd
00000270: 129d 99bd 1139 1fbd 22c9 833d 6f24 6a3d
00000280: 7e14 fd3c 52be e93c bca6 0dbe 3b45 a33b
00000290: 4a56 67bd d6fc 31bd fa64 d8bd 448e e23c
000002a0: 09f3 dfbd 0205 9cbd eda9 35bc e708 95bd
000002b0: fba3 b03d b26d e43b 346e f03d 418e 51bc
000002c0: e0b0 273c 0f95 c9bd 0968 98bd f25e 01be
000002d0: cded 033c 650b afbc e50a 953d 0c60 2dbd
000002e0: e642 ee3d dcb8 91bd 2d81 873d 1da2 90bc
000002f0: 44ee 02bd 3c6c 25bd c2ec c5bd f6d2 f23d
00000300: c8e2 6c3c 83cd 6c3d 5af8 f2bc d292 c23b
00000310: f541 c53d e734 8e3d f176 01be a9b2 b0bc
00000320: c783 6dbd 286d f8bd 1bd4 af3d 33b4 9dbc
00000330: 38da 8bbd f38b ea3d b560 6abd 1898 ef3d
00000340: e094 96bc 7a98 16bd dcd9 3e3d da9c 023e
00000350: 7971 8cbd b8c9 a9bc 174a a63c 785a 38bd
00000360: 204e 953c a138 7bbd b332 0d3e fd83 83bd
00000370: 5152 d3bd 1f85 f1bd d72f ccbd e6b8 1dbe
00000380: 6491 afbc 9858 483d f052 8ebd 5a37 26bd
00000390: 538b 41bd f0ac 9ebd 9ab9 803d 8316 ab3d
000003a0: fc6b f5bb 2783 a73d f4a7 24be 1b5b 8a3d
000003b0: b8d4 94bd 1b66 2abd eda8 573c 7784 9f3c
000003c0: 7133 9cbb db96 9a3b e86a 90ba 951c 23bd
000003d0: 8024 033e 8f79 5f3d 7ff9 ef3c 10f3 73bd
000003e0: 1fcd 0abd fd57 7e3c 2ecb c43c 6997 c83d
000003f0: c022 17bd bb80 a43d b91c eebd 9166 36bd

bilstm.weight_hh_l0 f4 [256, 64]
-6.11853e-40 5.33107e-40 5.51644e-40 -6.257e-40 -5.96443e-40 -5.29841e-40 -5.01703e-40 5.04238e-40
-5.37304e-40 -5.16156e-40 -4.92293e-40 -5.07441e-40 5.05384e-40 -5.56344e-40 5.74293e-40 -5.01082e-40
-5.69537e-40 -4.94581e-40 -5.09809e-40 -5.00209e-40 -4.93874e-40 -4.96843e-40 5.14721e-40 -5.18288e-40
-5.00935e-40 -5.05486e-40 5.9346e-40 -5.18409e-40 -4.98616e-40 -5.44074e-40 -4.98305e-40 5.02008e-40
-5.10224e-40 -5.01446e-40 5.05617e-40 -4.95125e-40 5.37043e-40 -5.51248e-40 5.1299e-40 4.92702e-40
4.97684e-40 5.07143e-40 5.06663e-40 -5.08628e-40 -4.94361e-40 5.0238e-40 6.07899e-40 -5.10884e-40
4.96592e-40 4.95488e-40 5.12955e-40 5.13846e-40 5.79361e-40 4.91144e-40 4.92755e-40 5.0278e-40
5.0719e-40 5.20054e-40 4.91528e-40 4.9404e-40 5.09453e-40 -5.01983e-40 -5.17219e-40 -5.17099e-40
-5.0816e-40 -5.04051e-40 -4.96909e-40 -5.16757e-40 -5.05534e-40 -5.05566e-40 -5.37654e-40 5.1606e-40
4.99063e-40 5.05377e-40 -5.1409e-40 4.97504e-40 5.00605e-40 -4.92912e-40 4.93963e-40 4.96287e-40
4.94375e-40 5.07089e-40 -5.16789e-40 -5.06317e-40 5.66722e-40 -4.96298e-40 5.97802e-40 -5.03561e-40
5.23608e-40 -5.15821e-40 5.00359e-40 -4.95313e-40 5.20032e-40 5.00038e-40 -5.38327e-40 6.168e-40
5.0396e-40 5.2936e-40 -5.75558e-40 5.58427e-40 -5.01942e-40 5.55702e-40 4.95231e-40 -5.2389e-40
5.66417e-40 -4.99306e-40 -5.57975e-40 -4.98347e-40 5.01696e-40 -4.95502e-40 -4.98847e-40 -4.95007e-40
-5.06289e-40 5.01195e-40 4.97998e-40 -5.00355e-40 5.6501e-40 -5.03869e-40 4.92943e-40 5.41308e-40
-5.73243e-40 4.97321e-40 -5.11019e-40 5.24231e-40 -6.25886e-40 5.00517e-40 -5.72851e-40 -4.92412e-40
-4.94951e-40 -5.13848e-40 4.94675e-40 -5.0339e-40 5.24357e-40 -6.01192e-40 -4.96942e-40 4.91316e-40
5.1332e-40 6.16697e-40 -4.93704e-40 -5.42927e-40 4.9962e-40 4.91812e-40 -4.96487e-40 5.37297e-40
-5.05996e-40 -5.01092e-40 -4.92597e-40 5.18765e-40 -4.92704e-40 -5.42516e-40 -4.92203e-40 4.93117e-40
-4.98086e-40 -5.05831e-40 -5.11422e-40 -6.29577e-40 -4.95051e-40 -5.16995e-40 -5.2619e-40 5.52113e-40
5.43736e-40 -4.99075e-40 4.93801e-40 -4.94571e-40 -5.0932e-40 -4.99503e-40 6.25175e-40 4.92301e-40
-4.96367e-40 -4.9046e-40 -4.97179e-40 5.05109e-40 5.88416e-40 6.28701e-40 -5.08107e-40 -5.10494e-40
-4.92841e-40 5.1481e-40 -4.9336e-40 -5.72845e-40 4.95903e-40 5.03913e-40 5.55479e-40 5.63354e-40
-4.90963e-40 -4.91468e-40 5.0843e-40 -4.93535e-40 4.93501e-40 -5.06589e-40 5.02807e-40 -4.92091e-40
5.9182e-40 5.022e-40 -5.11859e-40 -4.97695e-40 -4.94521e-40 -5.85175e-40 -4.91539e-40 4.95714e-40
5.49722e-40 -4.9114e-40 5.62644e-40 4.95023e-40 5.5762e-40 -4.93875e-40 -5.03911e-40 -5.00813e-40
-4.93399e-40 5.2275e-40 -5.10241e-40 5.03596e-40 5.0033e-40 4.90621e-40 -4.9981e-40 5.36416e-40
-4.95855e-40 5.80011e-40 5.07548e-40 5.11292e-40 4.94922e-40 5.02158e-40 -5.07741e-40 5.2688e-40
-4.9248e-40 -5.69666e-40 -6.14325e-40 5.05625e-40 -4.94192e-40 4.99938e-40 5.22223e-40 4.99249e-40
-5.63573e-40 5.06927e-40 5.82392e-40 5.89623e-40 6.03576e-40 5.17488e-40 -4.92339e-40 5.02644e-40
5.19928e-40 5.06058e-40 -5.07157e-40 5.2816e-40 -5.51894e-40 5.28515e-40 -4.93237e-40 -5.07082e-40
5.03342e-40 5.66705e-40 5.19495e-40 4.93427e-40 -5.0666e-40 -5.11401e-40 -4.9825e-40 5.0395e-40
00000000: 99a9 0680 16ce 0500 c201 0600 32d0 0680
00000010: a47e 0680 fbc4 0580 8b76 0580 9c7d 0500
00000020: c9d9 0580 d59e 0580 505c 0580 8a86 0580
00000030: ce80 0500 dc0e 0680 e540 0600 d074 0580
00000040: a333 0680 b162 0580 248d 0580 6172 0580
00000050: b860 0580 ff68 0580 d59a 0500 c7a4 0580
00000060: 6774 0580 1781 0580 5376 0600 1da5 0580
00000070: f06d 0580 a8ec 0580 126d 0580 6577 0500
00000080: 4c8e 0580 d475 0580 7481 0500 3564 0580
00000090: 0fd9 0500 a800 0680 0296 0500 745d 0500
000000a0: 576b 0500 b585 0500 5f84 0500 d989 0580
000000b0: 1462 0580 6e78 0500 939e 0600 2390 0580
000000c0: 4c68 0500 3865 0500 e995 0500 6598 0500
000000d0: 064f 0600 1c59 0500 9a5d 0500 8c79 0500
000000e0: d785 0500 b3a9 0500 2e5a 0500 2f61 0500
000000f0: 268c 0500 5377 0580 cca1 0580 76a1 0580
00000100: 8b88 0580 177d 0580 2e69 0580 82a0 0580
00000110: 3981 0580 5081 0580 c3da 0580 919e 0500
00000120: 2f6f 0500 c980 0500 1399 0580 d76a 0500
00000130: 7c73 0500 0a5e 0580 f860 0500 7267 0500
00000140: 1e62 0500 8f85 0500 99a0 0580 6883 0580
00000150: ca2b 0600 7a67 0580 6e82 0600 b97b 0580
00000160: 9bb3 0500 e69d 0580 cc72 0500 bb64 0580
00000170: a3a9 0500 e771 0500 a3dc 0580 63b7 0600
00000180: d67c 0500 a4c3 0500 6c44 0680 ab14 0600
00000190: 3677 0580 120d 0600 8164 0500 64b4 0580
000001a0: f12a 0600 dd6f 0580 6813 0680 306d 0580
000001b0: 8676 0500 4265 0580 956e 0580 e163 0580
000001c0: 5483 0580 2175 0500 376c 0500 c972 0580
000001d0: 0527 0600 957c 0580 205e 0500 f2e4 0500
000001e0: f83d 0680 546a 0500 8390 0580 58b5 0500
000001f0: b7d0 0680 3d73 0500 e03c 0680 a55c 0580
00000200: b963 0580 6698 0580 f462 0500 3f7b 0580
00000210: b2b5 0500 e18b 0680 4669 0580 9759 0500
00000220: ed96 0500 1ab7 0600 3f60 0580 76e9 0580
00000230: bd70 0500 f95a 0500 0168 0580 c4d9 0500
00000240: 8382 0580 d774 0580 295d 0580 1ba6 0500
00000250: 755d 0580 50e8 0580 105c 0580 9c5e 0500
00000260: 766c 0580 0d82 0580 a391 0580 01db 0680
00000270: 0064 0580 2ca1 0580 ceba 0580 1103 0600
00000280: b7eb 0500 386f 0580 8460 0500 aa62 0580
00000290: c78b 0580 6970 0580 bcce 0600 565c 0500
000002a0: ab67 0580 3457 0580 ef69 0580 0a80 0500
000002b0: 4468 0600 90d8 0600 6588 0580 0d8f 0580
000002c0: d75d 0580 159b 0500 495f 0580 dc3c 0680
000002d0: 6066 0500 b47c 0500 730c 0600 6722 0600
000002e0: 9b58 0580 035a 0580 4c89 0500 c65f 0580
000002f0: ae5f 0500 2a84 0580 9f79 0500 c05b 0580
00000300: c171 0600 ee77 0500 db92 0580 5f6b 0580
00000310: 8662 0580 3b5f 0680 365a 0580 d965 0500
00000320: 67fc 0500 1959 0580 6c20 0600 ec63 0500
00000330: 6b12 0600 b960 0580 b37c 0580 1074 0580
00000340: 655f 0580 37b1 0500 588e 0580 d27b 0500
00000350: b772 0500 a757 0500 4471 0580 4fd7 0500
00000360: 3e66 0580 d650 0600 d686 0500 4691 0500
00000370: a463 0500 d077 0500 6087 0580 babc 0500
00000380: d55c 0580 ff33 0680 7db0 0680 7a81 0500
00000390: 9b61 0580 a071 0500 bfaf 0500 b46f 0500
000003a0: 0323 0680 1b85 0500 7957 0600 a16b 0600
000003b0: 8692 0600 8ca2 0500 715c 0580 2b79 0500
000003c0: 59a9 0500 af82 0500 bf85 0580 4cc0 0500
000003d0: 7502 0680 49c1 0500 f25e 0580 8a85 0580
000003e0: 1d7b 0500 be2b 0600 24a8 0500 795f 0500
000003f0: 5d84 0580 9491 0580 eb6c 0580 cf7c 0500

bilstm.bias_ih_l0 f4 [256]
-0.14998773 0.05565904 0.046912532 -0.10757918 0.123590514 -0.10431548 0.027423037 -0.0009595038
0.111784674 -0.07316403 0.111942954 0.0136727365 0.043855935 0.06697497 0.024530035 -0.024279796
0.0066407924 0.08328444 0.09306386 0.02822142 0.052331265 -0.037149325 0.0458771 0.05142067
-0.010423842 -0.09308 0.06486281 -0.10690724 0.06901509 0.18317649 0.0011588725 0.15033641
-0.036650147 0.06613981 -0.007857679 0.023269588 0.05436096 0.085691966 0.06590524 0.05427978
-0.10681755 0.07712538 0.123862386 0.09672803 -0.041259695 0.061591037 0.14354734 0.03434917
-0.0277107 0.12132532 -0.028816504 0.023436185 -0.019695966 0.115491755 0.043620184 0.07467043
-0.16884552 -0.056836393 -0.04469191 0.0006686268 0.12160494 -0.06513826 0.034138165 -0.041315336
-5.04302e-40 5.07182e-40 5.46775e-40 5.25292e-40 5.26483e-40 -5.34104e-40 5.81603e-40 -5.01973e-40
5.0408e-40 -6.18375e-40 -5.20574e-40 5.16584e-40 6.22429e-40 5.90779e-40 -4.94364e-40 -5.42915e-40
4.98949e-40 5.63932e-40 -6.00452e-40 4.98565e-40 5.33903e-40 5.15752e-40 5.57544e-40 -4.93387e-40
-4.93417e-40 -5.45021e-40 -5.12179e-40 -5.56883e-40 -4.96411e-40 -5.03554e-40 -5.93359e-40 5.02039e-40
-4.92521e-40 -6.27015e-40 -5.11317e-40 5.01738e-40 -4.99595e-40 5.14027e-40 5.41861e-40 5.08876e-40
5.1987e-40 4.91627e-40 -4.94796e-40 4.94336e-40 -5.03454e-40 -5.00968e-40 5.0221e-40 5.1879e-40
-4.9896e-40 5.24804e-40 4.98606e-40 5.92182e-40 -4.91616e-40 5.12453e-40 -6.18652e-40 5.01038e-40
4.9738e-40 4.91442e-40 4.90666e-40 5.95577e-40 -5.16761e-40 4.94337e-40 4.99047e-40 -4.90586e-40
-0.009359389 -0.055544525 -0.029920474 -0.06211258 -0.058381114 -0.11473176 0.098246455 -0.07389119
-0.07635165 -0.022663325 -0.062062494 -0.026242081 -0.06901428 0.08313296 -0.1279408 -0.049523685
-0.02157716 0.049266066 0.064453505 -0.053999398 0.023891915 -0.025571635 0.11082645 0.044844612
-0.091164045 -0.023455083 0.025824275 -0.0031750468 0.0932478 -0.082796246 -0.10543534 0.033618946
0.08733326 -0.10649672 0.006049112 0.11240718 0.058277827 0.0850457 -0.048586242 -0.005701251
-0.051453795 -0.13953146 0.04660201 0.00037580307 0.098950684 -0.07273221 -0.051751312 0.017399693
0.0022315502 0.056676436 -0.057972543 -0.0043390277 0.030341493 -0.025234444 -0.034683034 0.020399842
0.101050854 0.037975196 0.053144187 -0.08171417 0.10120348 -0.14637667 -0.11129571 0.130413
-0.13617186 -0.09975278 -0.09560608 -0.017251674 0.036167417 -0.08911922 -0.009399147 -0.08958465
-0.09353408 -0.16840269 -0.043465838 0.1063222 0.03394233 0.1547191 0.009937869 -0.011001193
-0.055983633 0.12288838 0.05532225 0.12662083 -0.054952804 -0.036458686 -0.008581595 -0.06865738
-0.13312007 -0.08496801 0.07422171 -0.017067144 0.08619837 0.05952214 -0.061273184 0.036538508
0.029567122 -0.09215284 -0.089573376 0.01829994 -0.07048584 0.075172246 8.2102255e-05 -0.04039534
-0.12825297 -0.076481774 0.12387907 -0.026464185 0.059248377 0.08879147 -0.03220031 -0.07503541
0.040883727 -0.066887036 -0.028316848 -0.08615502 -0.03788251 0.20490776 -0.08709861 -0.10041845
-0.09216989 -0.06675513 0.08804202 0.041034773 0.03694178 0.023724463 -0.073181145 -0.04315623
00000000: 6296 19be bcfa 633d 5b27 403d 7952 dcbd
00000010: 061d fd3d 5ba3 d5bd 47a6 e03c 3687 7bba
00000020: 5def e43d 06d7 95bd 5942 e53d 9d03 603c
00000030: 48a2 333d 2c2a 893d 36f3 c83c 6ce6 c6bc
00000040: 019b d93b 0891 aa3d 4498 be3d 9b30 e73c
00000050: 4f59 563d e429 18bd a0e9 3b3d 7b9e 523d
00000060: c3c8 2abc baa0 bebd cbd6 843d 2ff2 dabd
00000070: c957 8d3d 9e92 3b3e 4fe5 973a caf1 193e
00000080: 771e 16bd 4f74 873d 7fbd 00bc dd9f be3c
00000090: 99a9 5e3d 457f af3d 54f9 863d 7954 5e3d
000000a0: 29c3 dabd e9f3 9d3d 90ab fd3d 5819 c63d
000000b0: edff 28bd e246 7c3d 13fe 123e b7b1 0c3d
000000c0: 8d01 e3bc 6979 f83d 9710 ecbc 3efd bf3c
000000d0: 6f59 a1bc f186 ec3d 14ab 323d cfec 983d
000000e0: d7e5 2cbe 47cd 68bd dd0e 37bd c946 2f3a
000000f0: 030c f93d 3567 85bd 76d4 0b3d 453a 29bd
00000100: ca7d 0580 d185 0500 30f4 0500 4db8 0500
00000110: 9fbb 0500 ddd0 0580 4655 0600 4c77 0580
00000120: 2c7d 0500 c7bb 0680 26ab 0580 07a0 0500
00000130: 14c7 0600 da6e 0600 1662 0580 6de9 0580
00000140: de6e 0500 0324 0600 d189 0680 cc6d 0500
00000150: 4ed0 0500 b59d 0500 3512 0600 5d5f 0580
00000160: 725f 0580 4cef 0580 bf93 0580 5d10 0680
00000170: cb67 0580 b47b 0580 0b76 0680 7b77 0500
00000180: f35c 0580 ddd3 0680 5891 0580 a476 0500
00000190: ab70 0580 e698 0500 7de6 0500 8a8a 0500
000001a0: 30a9 0500 755a 0500 4a63 0580 0262 0500
000001b0: 6d7b 0580 7f74 0580 f577 0500 2da6 0500
000001c0: e66e 0580 f1b6 0500 e96d 0500 c372 0600
000001d0: 6d5a 0580 8394 0500 8dbc 0680 b174 0500
000001e0: 7e6a 0500 f159 0500 c757 0500 3a7c 0600
000001f0: 85a0 0580 0362 0500 246f 0500 8e57 0580
00000200: 1f58 19bc a882 63bd c81b f5bc c369 7ebd
00000210: 0921 6fbd 7cf8 eabd 7035 c93d 4454 97bd
00000220: 415e 9cbd 70a8 b9bc 3e35 7ebd a2f9 d6bc
00000230: 5c57 8dbd 9d41 aa3d ea02 03be 59d9 4abd
00000240: 96c2 b0bc 37cb 493d 3300 843d 792e 5dbd
00000250: fab8 c33c 9b7b d1bc faf8 e23d fcae 373d
00000260: 37b4 babd e024 c0bc 6e8d d33c 7214 50bb
00000270: b4f8 be3d 1491 a9bd 7cee d7bd 05b4 093d
00000280: c8db b23d f41a dabd a137 c63b bc35 e63d
00000290: bbb4 6e3d 712c ae3d 5e02 47bd 8fd1 babb
000002a0: 37c1 52bd 56e1 0ebe c0e1 3e3d 6f07 c539
000002b0: a8a6 ca3d a0f4 94bd 2ff9 53bd cd89 8e3c
000002c0: 333f 123b 8d25 683d 9e74 6dbd 672e 8ebb
000002d0: b98e f83c 77b8 cebc cc0f 0ebd 921d a73c
000002e0: c0f3 ce3d e18b 1b3d b8ad 593d c259 a7bd
000002f0: c543 cf3d c4e3 15be 01ef e3bd fc8a 053e
00000300: a370 0bbe 2f4b ccbd 1fcd c3bd 6253 8dbc
00000310: 4924 143d 2384 b6bd e1fe 19bc 2878 b7bd
00000320: cc8e bfbd c171 2cbe 3c09 32bd 74bf d93d
00000330: 1d07 0b3d af6e 1e3e 72d2 223c 593e 34bc
00000340: 184f 65bd e7ac fb3d 9599 623d e4a8 013e
00000350: 3116 61bd b455 15bd d199 0cbc 3e9c 8cbd
00000360: a150 08be b503 aebd 8d01 983d 65d0 8bbc
00000370: c588 b03d 7dcd 733d 97f9 7abd 67a9 153d
00000380: c036 f23c a1ba bcbd 3f72 b7bd c1e9 953c
00000390: e15a 90bd e8f3 993d 502e ac38 9675 25bd
000003a0: bf54 03be 7aa2 9cbd 4fb4 fd3d 6bcb d8bc
000003b0: 6dae 723d 4dd8 b53d 79e4 03bd 2aac 99bd
000003c0: b275 273d 12fc 88bd bcf8 e7bc 0b72 b0bd
000003d0: b12a 1bbd 57d3 513e c260 b2bd 30a8 cdbd
000003e0: 91c3 bcbd eab6 88bd 604f b43d 1414 283d
000003f0: 4450 173d ce59 c23c ffdf 95bd 96c4 30bd

bilstm.bias_hh_l0 f4 [256]
-0.13659081 -0.07264129 -0.0023237043 0.026104392 0.108661525 -0.0700251 -0.113097556 -0.13621984
0.06908865 -0.043355387 0.055633634 -0.01428946 -0.039334647 0.09456132 0.16962644 -0.060404174
0.08891718 -0.015141947 -0.10808952 0.019490248 -0.1089384 0.15045486 0.06917741 0.03454117
-0.13545562 0.060571678 0.019992227 0.0016012806 0.06357792 0.09225666 -0.07673509 0.13499434
-0.019792251 -0.029789032 -0.014658504 0.06765584 0.07111955 0.1494312 0.1427063 -0.074162126
-0.036732115 0.090551436 0.06785053 -0.033158373 0.08216456 -0.0133620305 0.14586501 0.073419206
-0.12325474 0.034800824 0.10229731 -0.0015928957 0.2062265 0.06258344 0.046283383 0.07525452
-0.16944577 -0.10518536 0.048229467 0.05362486 0.1436627 0.03875577 -0.098857656 -0.0053169606
4.955e-40 4.96138e-40 4.96446e-40 -4.99455e-40 -4.95587e-40 4.9828e-40 -4.98937e-40 4.99852e-40
-5.38658e-40 4.97368e-40 5.06684e-40 5.029e-40 5.05219e-40 5.48102e-40 5.03017e-40 4.99716e-40
-5.02686e-40 -5.21064e-40 -4.99416e-40 5.09009e-40 5.00186e-40 -5.6599e-40 -5.01357e-40 -4.93383e-40
-4.99406e-40 -4.9416e-40 5.52466e-40 4.97866e-40 5.12594e-40 -5.78761e-40 5.04528e-40 4.94583e-40
-5.73907e-40 -4.98854e-40 5.70344e-40 -4.90558e-40 -4.95485e-40 5.0669e-40 4.94663e-40 5.08467e-40
5.12068e-40 -5.06171e-40 -5.02616e-40 5.25596e-40 -4.96364e-40 -5.28976e-40 -5.37682e-40 -5.00709e-40
-5.88858e-40 -4.93163e-40 5.0277e-40 -4.98564e-40 5.0417e-40 -5.09532e-40 -5.87702e-40 5.18092e-40
-5.06204e-40 -6.05302e-40 4.98808e-40 4.96379e-40 -4.93697e-40 -5.01022e-40 -4.95317e-40 5.12343e-40
0.06296312 0.10359286 0.004956367 -0.041110907 -0.025666928 -0.066871494 0.008484245 -0.014391429
-0.17021653 -0.04151297 -0.030746657 0.07762074 0.07839686 0.016207315 0.083157375 0.08612103
0.0873717 -0.03566022 0.07809959 0.10667009 -0.026560644 -0.011306563 0.080154225 0.0381133
0.08717533 -0.06187917 0.092553444 0.10011797 0.084316924 -0.121473365 -0.16438489 0.05483474
-0.04812514 0.031989828 0.0553198 0.09650228 -0.10882663 0.050052885 -0.0142719075 -0.06503905
0.138033 -0.07551437 -0.069416106 0.13091737 -0.050447933 -0.055746738 -0.035566237 -0.07240766
0.0039371275 0.016281513 0.08022728 0.086746916 0.074553244 0.08631727 0.06443504 -0.09543443
-0.053316988 -0.10371722 0.06643516 0.08088416 -0.020000748 0.07563609 -0.1300064 0.028123286
-0.16808999 -0.049631838 -0.14556843 0.031409074 0.05148936 -0.121776804 -0.043329243 0.009289989
0.037696905 -0.004115621 0.021817269 0.07749177 -0.025090154 -0.018690841 0.016449952 0.03302722
0.116816744 0.09792807 -0.07374951 0.019539328 -0.035142615 0.122488 -0.03179674 -0.06074957
-0.09648966 0.030668743 0.07363748 -0.15303944 -0.12496306 0.14328541 -0.04176293 0.07445482
-0.060941316 -0.010500216 0.09984876 -0.0807562 0.0052648834 -0.038174763 -0.018027673 0.050467394
-0.084863074 0.01240178 0.11178276 0.048770536 -0.052712847 0.021814378 0.116123825 -0.072302446
-0.11557622 0.061952658 0.1791627 -0.12368908 0.19345471 0.16721039 -0.019767871 -0.113169424
-0.15028477 -0.045945425 -0.00092305936 0.089235045 0.11041869 0.026905974 -0.14279126 0.014428439
00000000: 76de 0bbe f5c4 94bd 4a49 18bb e1d8 d53c
00000010: ef89 de3d 5269 8fbd b19f e7bd 377d 0bbe
00000020: 5a7e 8d3d 6b95 31bd 18e0 633d 571e 6abc
00000030: 5e1d 21bd 5ea9 c13d 8eb2 2d3e 5e6a 77bd
00000040: 361a b63d ee15 78bc 0a5e ddbd 03aa 9f3c
00000050: 191b dfbd d710 1a3e e3ac 8d3d 0b7b 0d3d
00000060: e1b4 0abe 021a 783d bdc6 a33c 10e2 d13a
00000070: 2435 823d 0ff1 bc3d 4927 9dbd f53b 0a3e
00000080: 5c23 a2bc 2108 f4bc 392a 70bc 258f 8a3d
00000090: 20a7 913d 7e04 193e 9a21 123e 50e2 97bd
000000a0: 6a74 16bd 0873 b93d 38f5 8a3d 13d1 07bd
000000b0: e545 a83d 6bec 5abc a35d 153e cf5c 963d
000000c0: fb6c fcbd 4f8b 0e3d 4181 d13d b6c8 d0ba
000000d0: 0a2d 533e bf2b 803d a593 3d3d 0b1f 9a3d
000000e0: 3183 2dbe 6c6b d7bd 438c 453d bea5 5b3d
000000f0: 511c 133e 5fbe 1e3d e275 cabd e639 aebb
00000100: 4165 0500 0867 0500 e467 0500 4770 0580
00000110: 7f65 0580 006d 0500 d56e 0580 6271 0500
00000120: 8fdd 0580 766a 0500 6e84 0500 e179 0500
00000130: 5880 0500 e3f7 0500 357a 0500 0171 0500
00000140: 4979 0580 84ac 0580 2b70 0580 e98a 0500
00000150: 5172 0500 c029 0680 9475 0580 5a5f 0580
00000160: 2470 0580 8461 0580 0d04 0600 d96b 0500
00000170: e794 0500 5a4d 0680 6b7e 0500 b262 0500
00000180: d23f 0680 9a6e 0580 e335 0600 7a57 0580
00000190: 3665 0580 7284 0500 eb62 0500 6689 0500
000001a0: 7093 0500 0083 0580 1779 0580 26b9 0500
000001b0: a967 0580 92c2 0580 d7da 0580 c673 0580
000001c0: 7f69 0680 bd5e 0580 8579 0500 cb6d 0580
000001d0: 6c7d 0500 5e8c 0580 4666 0680 3ba4 0500
000001e0: 1783 0580 5697 0680 796e 0500 b467 0500
000001f0: 3a60 0580 a574 0580 be64 0580 3494 0500
00000200: cff2 803d 7e28 d43d 0569 a23b e963 28bd
00000210: 7343 d2bc ecf3 88bd 8101 0b3c 07ca 6bbc
00000220: 3e4d 2ebe 8109 2abd 6ae0 fbbc 9ff7 9e3d
00000230: 888e a03d 34c5 843c 6a4e aa3d 3960 b03d
00000240: efef b23d 7310 12bd aef2 9f3d d975 da3d
00000250: b595 d9bc 2a3f 39bc e627 a43d b11c 1c3d
00000260: fb88 b23d 0375 7dbd a98c bd3d a60a cd3d
00000270: 5aae ac3d 07c7 f8bd 8354 28be 649a 603d
00000280: de1e 45bd c407 033d 0497 623d fda2 c53d
00000290: 7fe0 debd 4104 4d3d b8d4 69bc 3233 85bd
000002a0: 8658 0d3e 47a7 9abd 082a 8ebd 340f 063e
000002b0: 7ea2 4ebd b156 64bd e7ad 11bd 784a 94bd
000002c0: 0503 813b cf60 853c 334e a43d 5ea8 b13d
000002d0: 5faf 983d 1cc7 b03d 85f6 833d 2073 c3bd
000002e0: ea62 5abd b269 d4bd 280f 883d 98a6 a53d
000002f0: 9cd8 a3bc 18e7 9a3d 6620 05be ce62 e63c
00000300: c81f 2cbe c14a 4bbd e40f 15be cda6 003d
00000310: 82e6 523d 1e66 f9bd 017a 31bd 0a35 183c
00000320: 1268 1a3d 55dc 86bb 21ba b23c 01b4 9e3d
00000330: de89 cdbc 891d 99bc 0dc2 863c 8d47 073d
00000340: 9e3d ef3d 838e c83d fc09 97bd f110 a03c
00000350: b4f1 0fbd fdda fa3d 4c3d 02bd 8bd4 78bd
00000360: 5f9c c5bd 043d fb3c 3fcf 963d 5fb6 1cbe
00000370: a2ec ffbd 69b9 123e 9b0f 2bbd c57b 983d
00000380: 9a9d 79bd 1909 2cbc 827d cc3d 8263 a5bd
00000390: 0b85 ac3b 245d 1cbd c5ae 93bc e6b6 4e3d
000003a0: b1cc adbd d630 4b3c 5cee e43d 9dc3 473d
000003b0: 6de9 57bd 11b4 b23c 54d2 ed3d 4e13 94bd
000003c0: 3ab3 ecbd 12c2 7d3d 6d76 373e b350 fdbd
000003d0: fe18 463e 3339 2b3e 3bf0 a1bc 5fc5 e7bd
000003e0: 40e4 19be 4531 3cbd 77f9 71ba ddc0 b63d
000003f0: 3223 e23d eb69 dc3c df37 12be 4265 6c3c
