antioxidative_best_model_fold_5_auc_0.8626.pth (torch, 975118 bytes, 35 tensors)

feature_preprocessing.0.weight f4 [128, 128]
000000 f2 43 5e bd ba b2 77 bc e4 25 f1 3c 11 0e 21 bb
       -0.054264016 -0.015118295 0.029437013 -0.0024575035
000010 76 8f dc 3c e8 90 ed bb 76 f3 a1 3b 47 12 c5 bd
       0.026923876 -0.00724994 0.004942353 -0.09622627
000020 91 f7 7f 3d 7a 84 a2 3d 77 2b 01 bd fd 69 ee bd
       0.062491957 0.07935424 -0.031535592 -0.116413094
000030 c7 a2 c4 bd 98 cf 53 3a dc 74 05 80 89 10 20 be
       -0.0960136 0.0008079945 -5.01099e-40 -0.15631308
000040 56 70 e3 bc 30 3c 6e 3e a4 9f af 3c 53 8c 05 00
       -0.027763527 0.23265147 0.021438427 5.09516e-40
000050 18 88 05 80 1f 6b 2e be 72 dd 29 bd 00 50 01 bd
       -5.07999e-40 -0.17033051 -0.041470952 -0.031570435
000060 14 3a 19 be a1 0a d3 bc ed 4c 46 3d 69 c7 fe 3c
       -0.14963561 -0.025761904 0.048413206 0.031100946
000070 8d 72 05 00 ff 73 5a 3d 0e 5c 05 00 5c 68 fe 3d
       5.0027e-40 0.05333328 4.922e-40 0.12422249
000080 44 85 8f bd 6b 18 58 3d 0f 26 cd bd 6b 98 d5 bd
       -0.0700784 0.05275766 -0.10017025 -0.10429462
000090 a3 3a e9 39 63 69 06 be 47 16 1b bd ff cf 4b 3d
       0.0004448491 -0.1312614 -0.037863042 0.049758907
0000a0 6b f8 5e 3b 9c 2a ad bd 99 bc b5 bc f8 aa e8 bc
       0.003402258 -0.08455393 -0.022184657 -0.028401837
0000b0 00 75 bd 3d b0 01 2d bc d7 c3 55 3d a9 1e 85 bb
       0.092508316 -0.010559484 0.05218872 -0.004062493
0000c0 37 8a bb 3c 37 ac 67 bd 21 a1 02 3d 55 76 b0 3d
       0.022893054 -0.05656072 0.031891946 0.0861632
0000d0 79 ab 17 3c 1a 87 4b bb 2a 86 16 3e 74 b6 35 3e
       0.009257191 -0.0031055869 0.14699617 0.17745382
0000e0 cb 63 47 3d c0 93 33 3d 1c 97 f9 bc 8b d6 37 3d
       0.048679154 0.043842077 -0.030467562 0.04488234
0000f0 e1 04 76 bd 05 66 c4 3c a9 2b 36 3e 9f 5b 4a 3d
       -0.060063247 0.023974428 0.17790093 0.049403783
000100 53 c4 f6 3d b5 86 dd 3d 2f 9c d5 ba 0a bf df 3d
       0.120491646 0.10816709 -0.0016297157 0.1092511
000110 e5 f6 f9 3c 55 30 9f 3d ea 0b 7d 3d 39 ba 43 3d
       0.030513236 0.077728905 0.06177894 0.047785018
000120 b1 be 45 bd b6 78 62 3c 6a 7a 64 bd 09 0d cf 3c
       -0.04827756 0.013822725 -0.055780806 0.02527477
000130 90 ed 66 3d f5 2c 7d bc a3 76 8f bd 62 07 23 bd
       0.0563789 -0.015452613 -0.0700505 -0.039801963
000140 e2 df 0f bd c6 ec 2d bd ef e0 5f bd cf 88 59 3c
       -0.03512562 -0.042462133 -0.054657873 0.013277247
000150 47 c3 5e bc a2 4d a8 bd 01 13 38 3c 0c 66 1c 3a
       -0.013596362 -0.08217932 0.011235 0.0005966134
000160 5b 9d 59 3d f7 d3 95 bd 77 db 36 3d 75 35 ea 3c
       0.05312858 -0.0731582 0.04464289 0.028589943
000170 20 c9 6a bd 46 33 aa 3c 5a ab 35 bd 9b f0 59 bc
       -0.057320714 0.020776402 -0.044352867 -0.013301994
000180 1d 6d c3 bc 2f de 2e 3d ef 2a e9 bd c8 3a 92 3c
       -0.02385574 0.04269236 -0.11385142 0.017850295
000190 bb dd 99 ba b7 36 44 3a 57 eb b0 bc b8 1f b8 3c
       -0.0011739054 0.000748496 -0.021596594 0.022476062
0001a0 50 10 78 bd 83 3b 5d bc 45 fc b7 3c f1 86 10 bd
       -0.06056243 -0.013502958 0.022459159 -0.03528494
0001b0 b7 58 b4 3d 99 e1 05 3d c1 8a 48 bd c7 91 91 3d
       0.088059835 0.03268585 -0.04896045 0.07107883
0001c0 87 21 3b bd e0 f8 ca 3d da 37 1d 3c 64 80 d8 bc
       -0.04568627 0.099107504 0.009595836 -0.026428409
0001d0 e4 56 b9 bc bb b8 2a 3c e6 7a b1 bc 36 f5 1b bc
       -0.02262444 0.01042002 -0.021665048 -0.009518912
0001e0 59 ad a4 bc 61 59 d5 3b 4b 64 e4 3d b7 84 76 bd
       -0.02010219 0.006510899 0.11151942 -0.06018516
0001f0 b6 79 c8 3d db 7a b9 bc cb 05 1e bc 55 1a ba 3d
       0.097888395 -0.02264159 -0.009644936 0.09087054
000200 9a a3 58 bd 42 ca 91 bd d6 08 67 bc 2b d1 5d 3d
       -0.052890398 -0.07118656 -0.014101228 0.054154556
000210 ca b5 9c bd 99 c7 9c bd d8 70 c4 bd 3b 02 c2 be
       -0.07651861 -0.07655258 -0.09591836 -0.37892327
000220 e9 01 4a bd aa 75 8a 3d b0 e1 d6 bb 51 6a b5 bd
       -0.049318228 0.06760724 -0.0065576658 -0.08858169
000230 61 b6 ca bd b4 1b 5b 3c f2 72 05 00 41 46 64 bd
       -0.09898067 0.013373304 5.00412e-40 -0.05573106
000240 6f d7 30 3d 51 a4 d5 3d 1f 12 3e 3e af 93 05 00
       0.043174203 0.104317315 0.185616 5.12156e-40
000250 9e 3e 06 00 9f 80 bb bd b6 fb 78 3a 8f d8 92 3b
       5.73476e-40 -0.09155392 0.0009497957 0.004481382
000260 d2 a2 b4 bd eb 8c d1 bd 24 d7 f4 3b 8d c9 74 bd
       -0.08820118 -0.10231956 0.007471936 -0.059762526
000270 0d 60 05 00 30 16 b5 3c c1 69 05 80 19 f4 1d 3d
       4.93634e-40 0.022105306 -4.97115e-40 0.038562868
000280 c8 3f cd bd 80 7d 45 3e 54 ef 65 bd 9d 99 27 bd
       -0.10021931 0.19286156 -0.056136444 -0.04091798
000290 f9 22 8f bd 95 de fe bd 88 c1 2f bd 86 1e 4b 3e
       -0.069890924 -0.12444798 -0.042909175 0.19835863
0002a0 34 71 ba bd b8 92 53 3b 30 36 3c 3d 15 cb f6 3d
       -0.09103623 0.0032283496 0.045950115 0.120504536
0002b0 db 36 e7 3d c4 3b 89 3c a6 7a 54 bd 0f 52 88 bd
       0.1128976 0.016752131 -0.05187478 -0.066562764
0002c0 59 37 dd bc 26 84 61 bc 21 36 95 bb 00 5a 3e 3b
       -0.02700393 -0.013764417 -0.004553572 0.0029045343
0002d0 b5 e1 ab 3d 80 c3 7b 3c f2 d3 e7 3c ca 29 bb 3d
       0.083926596 0.015366435 0.028299306 0.0913883
0002e0 c2 63 b3 bd 10 56 ab 3c 1a 95 d4 3c 14 ca cd 3d
       -0.08759262 0.020915061 0.025950003 0.10048309
0002f0 a9 23 25 3b 03 dd 04 3d 7d 34 c7 3d b5 72 d2 3d
       0.0025198257 0.032437336 0.09726808 0.10275785
000300 18 04 7c bc 6f 6d bf 3d 8c 10 1c bc 40 6d ed 3c
       -0.015381835 0.09347045 -0.009525429 0.028982759
000310 23 d8 07 bd 8a cb af bd 6f 82 5a 3d d1 8e 93 3d
       -0.03316511 -0.08583744 0.053347047 0.072049744
000320 92 1a a9 3d dd 69 8a bb 8d d5 91 3d 5f d5 4a bd
       0.08257021 -0.0042240457 0.0712081 -0.049519893
000330 4a 31 1c bc 0f 0d a9 3d 78 af 6c 3d 3d 38 c1 3d
       -0.009533236 0.08254444 0.057784528 0.09434555
000340 28 14 25 3d f0 da be 3d ab f9 b2 3d 74 85 2e 3d
       0.040302426 0.09319103 0.08739027 0.04260774
000350 48 50 48 3b cd de 83 bc 65 c4 44 bd b4 36 b6 bd
       0.003056543 -0.01609745 -0.04803886 -0.088971525
000360 02 07 0e bd 52 74 f5 bc ad b6 b1 3c 60 9a 7a 3d
       -0.034674652 -0.029962692 0.021693552 0.06118238
000370 42 99 d9 bc 40 70 e6 bc 0d 2e 90 bd 29 a1 95 3c
       -0.026562337 -0.028129697 -0.070400335 0.018265324
000380 3f 02 ac 3c 51 dd df bd f8 d2 99 bd 88 29 c1 3c
       0.020997165 -0.10930885 -0.07510942 0.023579374
000390 dd 16 b9 3d ed 93 b2 3d 1a 99 e4 bc 43 c4 76 bb
       0.09037564 0.08719621 -0.027905036 -0.0037653602
0003a0 da 90 80 3d d7 46 f8 3d 34 11 5c 3b 0d 66 67 3d
       0.06277628 0.12122887 0.003357959 0.056493808
0003b0 d6 66 0b bc 4f 47 1a bd 76 74 4b bc 13 8d 77 bd
       -0.008508405 -0.03766566 -0.012417903 -0.060437273
0003c0 6e 1e 73 bd 81 60 32 3c 1f e2 a1 bc a6 53 c6 3c
       -0.059355192 0.010887266 -0.019761143 0.024209809
0003d0 ee 9e 2b 3d a4 de 55 bd 87 a8 8b bd ee 42 83 3c
       0.041899614 -0.05221428 -0.068192534 0.016023125
0003e0 a4 db ca bb a2 f4 21 3d c2 18 6f 3c 91 43 0d bd
       -0.006190734 0.03953994 0.014593305 -0.034488264
0003f0 0b a1 d8 bc c1 b2 c9 3b fb fe 8c 3c 46 5f 20 3d
       -0.026443979 0.0061553423 0.017211428 0.03915336

feature_preprocessing.0.bias f4 [128]
000000 8b 19 ea 37 6a a6 a5 b7 8b aa cc 36 6a 9d d3 b8
       2.7906868e-05 -1.9747025e-05 6.0995276e-06 -0.00010090585
000010 62 64 e4 b8 42 36 94 38 34 29 66 37 46 2a c3 b8
       -0.00010890585 7.067296e-05 1.3718662e-05 -9.3061986e-05
000020 7f 81 ee b5 23 fc 08 38 ed d6 bb 37 b2 c7 1b b8
       -1.777007e-06 3.2659747e-05 2.239222e-05 -3.714086e-05
000030 e0 81 5c 38 5f 32 08 38 9c e3 68 37 de 75 8b 38
       5.2573043e-05 3.247184e-05 1.3881272e-05 6.649991e-05
000040 e3 62 74 37 72 4a 64 b7 80 50 70 b7 c9 72 87 b8
       1.4566557e-05 -1.3607192e-05 -1.4323858e-05 -6.458682e-05
000050 ab e2 13 b6 5a b8 43 38 67 0b 82 37 ae 35 da 37
       -2.2036645e-06 4.6663314e-05 1.5502517e-05 2.6012622e-05
000060 16 91 dc b8 96 e1 89 38 81 ff f3 35 5b df dd b7
       -0.00010517442 6.574688e-05 1.8179272e-06 -2.6449261e-05
000070 45 7f 28 37 a6 5c ee b8 ab 8e 48 39 b0 14 4a b7
       1.0043213e-05 -0.000113659815 0.00019126634 -1.2044955e-05
000080 5c ca b2 37 cb 6b 8d b8 99 c8 02 b9 5e 49 59 b6
       2.1313484e-05 -6.743482e-05 -0.00012472495 -3.2378225e-06
000090 41 31 6f 38 3f 00 42 37 e3 91 b0 37 56 e4 3b b7
       5.702791e-05 1.1563358e-05 2.1048769e-05 -1.1199232e-05
0000a0 2c 92 5f 37 58 5d da b6 a0 fe 69 b8 10 f8 0f 39
       1.3325869e-05 -6.507773e-06 -5.5788667e-05 0.00013729953
0000b0 f9 62 88 b8 35 b7 e1 37 2a 86 03 b7 dd 2f 2b 38
       -6.5034204e-05 2.6907403e-05 -7.839446e-06 4.0814153e-05
0000c0 aa fe 90 38 e1 5e 94 b7 61 1c 8d 37 6c 2b 89 38
       6.91389e-05 -1.7687156e-05 1.6821725e-05 6.540757e-05
0000d0 94 05 24 b8 8b 22 4e 36 fe 1e c4 b6 c5 e2 8d b7
       -3.9105842e-05 3.0716499e-06 -5.844863e-06 -1.6914108e-05
0000e0 51 b3 14 b8 05 f2 2c 36 5d 20 5d b7 f7 8f 0a b7
       -3.545295e-05 2.5770871e-06 -1.3180162e-05 -8.25896e-06
0000f0 da 0f 14 b7 8f a1 85 38 1e f2 bb b8 d5 aa ad 37
       -8.825178e-06 6.372027e-05 -8.961953e-05 2.0702757e-05
000100 5f 9f 60 b6 f1 81 6b 37 dd c0 f3 37 04 d6 67 b8
       -3.3471367e-06 1.4037346e-05 2.9057666e-05 -5.527401e-05
000110 60 49 13 38 15 ef 93 35 b7 8d 97 38 e3 02 bd 38
       3.5115867e-05 1.1021936e-06 7.2266375e-05 9.01276e-05
000120 5b e9 51 36 ab 26 ed 36 02 eb 9d b6 04 90 d2 37
       3.1279258e-06 7.067652e-06 -4.706323e-06 2.5101013e-05
000130 53 44 8e b8 5e 1a 64 38 7a f6 d4 b8 40 74 f5 38
       -6.783814e-05 5.4383992e-05 -0.000101548576 0.000117041636
000140 dd 5b 82 36 d4 29 ba 37 dd 9a d7 36 d4 55 9d 38
       3.884996e-06 2.2192406e-05 6.4255278e-06 7.50233e-05
000150 8b 33 f9 b7 2a dd 29 36 77 26 88 b6 84 74 58 b8
       -2.9707115e-05 2.5311697e-06 -4.0575937e-06 -5.1606927e-05
000160 24 19 04 38 04 d0 0e b9 04 19 92 38 98 69 8f b7
       3.1494666e-05 -0.00013619667 6.966482e-05 -1.70961e-05
000170 47 39 94 b7 e5 9b ec 38 6f fe cc b7 d7 e5 53 38
       -1.7669647e-05 0.000112823946 -2.4437175e-05 5.0520375e-05
000180 62 ef 04 b8 74 63 16 34 35 ca 93 37 c2 c4 43 b7
       -3.1694195e-05 1.400602e-07 1.7617926e-05 -1.1668717e-05
000190 c6 6e b1 b6 15 f7 78 b7 79 ce 92 38 41 21 14 38
       -5.287907e-06 -1.483948e-05 7.000281e-05 3.531692e-05
0001a0 75 a9 d2 b7 1f 03 85 36 64 b1 b9 b8 17 57 4e 38
       -2.511286e-05 3.964072e-06 -8.854529e-05 4.9195336e-05
0001b0 b6 d1 2f b7 60 d4 4e b9 3e e7 39 37 e5 f7 30 38
       -1.047964e-05 -0.00019724807 1.10807e-05 4.219254e-05
0001c0 cd 04 f1 37 5b 31 14 37 d3 27 f7 b7 80 04 67 35
       2.8731674e-05 8.832979e-06 -2.946324e-05 8.6060754e-07
0001d0 f3 ab ca 37 6c 35 2d b7 f4 33 2c 34 c7 1b f8 b6
       2.4160347e-05 -1.0324042e-05 1.6037649e-07 -7.3942097e-06
0001e0 f5 77 8c 37 e1 19 8d 38 30 12 a2 37 5b 69 0c 38
       1.674516e-05 6.728224e-05 1.9320374e-05 3.347672e-05
0001f0 e8 8a 81 36 95 e3 9b b6 65 b7 30 b8 19 6b 3e 37
       3.8606704e-06 -4.645854e-06 -4.213247e-05 1.1349818e-05

feature_preprocessing.1.weight f4 [128]
000000 56 5f 71 3f 6b cb 81 3f db 9b 8b 3f d2 86 79 3f
       0.94286096 1.0140203 1.0906938 0.97471344
000010 98 cb 82 3f 01 25 98 3f 94 71 7d 3f be 8d 82 3f
       1.0218382 1.1886293 0.9900143 1.0199506
000020 82 e4 83 3f 14 13 71 3f 06 0d 6f 3f c7 44 72 3f
       1.030411 0.94169736 0.9337925 0.94636196
000030 29 a6 86 3f 0a 40 87 3f ba 8e 84 3f aa a8 79 3f
       1.0519458 1.0566418 1.0356057 0.97522986
000040 bb 0a 69 3f 4c f2 72 3f 2d 78 67 3f 72 29 7b 3f
       0.91032 0.94900966 0.9041775 0.98110116
000050 80 bb 6c 3f e9 1e 8b 3f 7e 4a 6a 3f 08 cb 8a 3f
       0.924736 1.0868808 0.91519916 1.084321
000060 be 4b 78 3f ff 01 81 3f 21 54 72 3f ee 9e 74 3f
       0.96990573 1.0078734 0.9465962 0.9555501
000070 95 1a 6d 3f 64 7e 88 3f af 65 9a 3f 41 04 68 3f
       0.92618686 1.0663571 1.2062281 0.9063149
000080 e8 54 88 3f 7e 65 88 3f 58 c2 82 3f c3 42 70 3f
       1.0650911 1.0655973 1.0215559 0.9385187
000090 2b 8d 8e 3f 77 ab 79 3f 68 88 78 3f 8c 56 7a 3f
       1.1136831 0.9752726 0.9708314 0.9778831
0000a0 e7 73 92 3f 5e 48 69 3f eb 37 89 3f df f5 78 3f
       1.144162 0.9112605 1.072019 0.9725017
0000b0 e7 fa 6f 3f 17 87 8d 3f 47 7a 79 3f 6a 9f 84 3f
       0.9374222 1.1056851 0.97452205 1.0361149
0000c0 7a 54 81 3f ea 58 82 3f fd 9e 70 3f e7 fa 7a 3f
       1.0103905 1.0183384 0.93992597 0.98039097
0000d0 f5 4b 76 3f 6e db 80 3f 73 6f 82 3f 33 f0 89 3f
       0.9620965 1.0066965 1.0190262 1.0776428
0000e0 95 be 83 3f 56 78 70 3f f8 6a 7f 3f 72 71 76 3f
       1.0292536 0.9393362 0.99772596 0.96266854
0000f0 51 cb 82 3f 75 da 83 3f ca 47 84 3f 22 a5 8d 3f
       1.0218297 1.0301043 1.0334408 1.106602
000100 ae 2f 6a 3f 2c 1b 8a 3f 72 76 86 3f ac 42 8a 3f
       0.91479003 1.0789542 1.0504897 1.0801597
000110 7a ef 87 3f 86 68 84 3f de 48 7a 3f 40 e9 85 3f
       1.0619957 1.0344398 0.97767437 1.0461807
000120 c7 15 7e 3f 61 2b 80 3f be a9 75 3f ad 31 90 3f
       0.9925198 1.0013238 0.9596213 1.126516
000130 9e a4 80 3f 6e 51 80 3f 0a 57 86 3f e3 d4 83 3f
       1.0050237 1.002485 1.0495312 1.0299343
000140 35 26 6f 3f 43 ba 81 3f 1a 60 81 3f 41 03 8c 3f
       0.93417674 1.0134968 1.0107453 1.0938493
000150 3f 4f 81 3f 0e 7d 86 3f c2 e8 74 3f fd bf 80 3f
       1.0102309 1.0506914 0.9566766 1.005859
000160 62 02 7c 3f 91 21 8b 3f c8 80 87 3f 1e a1 76 3f
       0.98441136 1.0869619 1.0586176 0.96339595
000170 ee 80 75 3f 42 65 90 3f 27 cd 80 3f 7b cb 80 3f
       0.95899856 1.1280901 1.0062608 1.0062097
000180 f6 09 81 3f c4 87 6f 3f 67 c1 90 3f 85 54 81 3f
       1.0081165 0.93566537 1.1309022 1.0103918
000190 2c 4a 5c 3f c8 ae 6e 3f ef 13 8b 3f 2e 92 83 3f
       0.8605068 0.93235445 1.0865458 1.0278986
0001a0 c0 65 87 3f 4a 52 81 3f d4 fd 82 3f 12 05 8a 3f
       1.0577927 1.0103238 1.0233712 1.0782797
0001b0 22 d6 65 3f 5b 40 80 3f 7c a0 88 3f cb 45 8b 3f
       0.89779866 1.001964 1.0673976 1.0880674
0001c0 1d d0 78 3f 73 c2 78 3f 35 ea 87 3f 9d ed 6f 3f
       0.97192556 0.97171706 1.0618349 0.93721944
0001d0 a4 4e 87 3f 99 c4 71 3f 20 24 6a 3f 40 03 72 3f
       1.0570874 0.9444061 0.9146137 0.9453621
0001e0 1b af 62 3f 02 5c 7a 3f d2 9c 81 3f d5 70 87 3f
       0.8854844 0.9779664 1.0125983 1.0581309
0001f0 de 5b 89 3f 6e b9 57 3f 72 f8 6f 3f 08 c1 81 3f
       1.0731161 0.8426732 0.9373847 1.0137033

feature_preprocessing.1.bias f4 [128]
000000 24 19 a4 3d 44 ff 34 be d9 1e b6 bd bd 10 bd bc
       0.08012608 -0.17675501 -0.088926025 -0.02307927
000010 fc 4e 00 be 78 a0 8b bd 0c 24 61 bd c2 b2 06 be
       -0.1253013 -0.06817716 -0.054966018 -0.13154128
000020 6f 54 ad bd 73 48 04 be 2a 66 20 be 18 26 22 bd
       -0.0846337 -0.12918262 -0.15663972 -0.03958711
000030 46 f4 4d bd 33 1e f2 bd 26 fc c9 bd e4 bf 8b bc
       -0.050281785 -0.11822166 -0.098625466 -0.017059274
000040 26 83 b2 bd c3 29 17 be cd 22 1c be 9e 2b 6c be
       -0.08716421 -0.14762025 -0.1524765 -0.23063514
000050 36 eb f7 bd 7f 0a dc bd 1b 31 dc bd aa 5f fa 3c
       -0.1210541 -0.107441895 -0.107515536 0.030563194
000060 d1 3b 7c bd 6e 17 f7 bd 3c 73 1d bd 41 a7 cd bb
       -0.061580483 -0.12065016 -0.038439974 -0.0062760417
000070 db bc 95 bd d9 1f 07 be 14 76 13 bd 69 44 a8 bd
       -0.07311412 -0.13195743 -0.03600128 -0.08216173
000080 a8 0f 17 bd cc bb ed bd b6 97 83 bc f9 b8 ac bd
       -0.036880165 -0.11608085 -0.016063552 -0.08433718
000090 51 fe 0c be 80 c6 3f bc 39 76 2b bd 8f 6e ea bc
       -0.13768889 -0.011705041 -0.041860793 -0.028617172
0000a0 27 f9 3e bd 31 89 5b be 85 22 78 3d d0 14 cf bd
       -0.04662433 -0.21439053 0.060579795 -0.101113915
0000b0 8b 4a d9 bd 05 e0 05 be 8e ce b4 bd 8e 0f 01 be
       -0.10609921 -0.13073738 -0.0882846 -0.1260359
0000c0 14 14 91 bd 6e 2d 11 be 56 70 58 bd a2 0c dd bd
       -0.07083908 -0.14177486 -0.052841507 -0.10793425
0000d0 fc eb 8d bd 19 0e bd bd 74 83 bc 3c 9e e9 8c bc
       -0.06929776 -0.092312045 0.0230119 -0.017201241
0000e0 6c 62 62 be b4 e1 0e be b1 3e a6 bd 2c af da bd
       -0.22107857 -0.13953286 -0.08117426 -0.10677943
0000f0 06 f1 c5 3b 06 03 56 bd d0 fe d4 bd 06 5d 83 bd
       0.006040695 -0.052248977 -0.10400164 -0.06414227
000100 0f ce 08 be a1 2a a4 bd 32 3e 2b be a5 5b bf bd
       -0.13359855 -0.08015943 -0.16722944 -0.09343652
000110 13 c6 db bd 41 e2 97 bd 12 63 be bd b9 c0 2f be
       -0.10731139 -0.074162014 -0.0929624 -0.17163362
000120 fc 72 28 3c 2e 26 50 be 84 19 0f be 90 86 b3 bd
       0.010281321 -0.20327064 -0.13974577 -0.087659
000130 49 16 a4 bd 71 54 e4 bc c3 26 0a bd 9f 74 bc bd
       -0.08012063 -0.027872296 -0.033728372 -0.09201931
000140 16 47 2f bd 98 e0 17 be c3 02 8e bd eb 3b 43 be
       -0.042792402 -0.1483177 -0.069341205 -0.19065826
000150 a5 82 4c 3c 99 61 43 be 52 3f db bc f5 d3 00 be
       0.01248232 -0.190802 -0.026763592 -0.12580855
000160 a9 1a ee 3c f6 15 a3 bd ee 86 ae bd f0 02 32 bd
       0.029065447 -0.07963173 -0.085218295 -0.043459833
000170 18 db 96 bd a0 88 ff bc 86 a5 e2 bd 13 78 ad bd
       -0.073660076 -0.031193078 -0.11066727 -0.08470168
000180 8b e6 15 be 76 d6 68 bd 35 f7 2b bd b4 6a ad 39
       -0.14638726 -0.05684515 -0.041983802 0.0003307663
000190 5c 3e af bc aa 30 cf bc 35 86 96 bd 5e 1b c1 bd
       -0.02139204 -0.02529176 -0.07349817 -0.09429048
0001a0 d4 4e 2d bd 72 16 95 bd 2d b5 2e bd 05 44 19 bd
       -0.042311504 -0.07279672 -0.04265325 -0.037418384
0001b0 66 be 6e bd be a4 32 be d4 fd 10 be 86 9b 72 bd
       -0.058287047 -0.17445657 -0.14159328 -0.05923035
0001c0 a4 fb c5 bd 33 a5 9c bc e2 0b 8b 3d 6d 9b 29 3d
       -0.09667137 -0.019121742 0.06789376 0.04140799
0001d0 ca 4e f6 bd 7f 4f 4f be bd 98 5a bc c1 f6 53 bd
       -0.120267466 -0.20245169 -0.01334208 -0.051748995
0001e0 55 53 e8 bd 75 d4 c4 bc a2 39 64 3b 2f 33 09 bd
       -0.11344019 -0.024027089 0.003482439 -0.033496078
0001f0 06 82 89 bd 47 b1 b8 bd c5 a6 b0 3a a0 df f5 bc
       -0.06714253 -0.09018188 0.0013477436 -0.03001386

feature_preprocessing.1.running_mean f4 [128]
000000 8c 9e 75 bc 23 87 ca bb 90 b2 b1 3c a6 5e 12 bc
       -0.014991414 -0.0061806603 0.02169159 -0.008933699
000010 b4 73 40 bc ff 16 6b bc 59 ef a6 3c 75 3c 32 3c
       -0.011746336 -0.014348744 0.020377802 0.010878672
000020 be a0 5d bc 2f 35 ee bb c6 37 58 3c ad 27 a4 3b
       -0.013527093 -0.0072695236 0.013196891 0.0050096125
000030 3d 36 41 3c 0f dc 71 3c 0c e8 ed 3b 52 88 39 ba
       0.011792717 0.014761939 0.007260328 -0.0007077503
000040 84 b5 00 bd b8 20 8f bb 40 2f 4e bd e1 e1 88 38
       -0.031423107 -0.004367914 -0.05033803 6.5270586e-05
000050 95 5e 1c 3d 23 c5 38 3b 0d 84 73 bc 2f 27 d5 bb
       0.038176138 0.0028193675 -0.014863026 -0.006504915
000060 e4 21 6c bc 78 c6 72 3c 1a 67 59 3d 6f ab d9 bb
       -0.014412377 0.014817826 0.05307684 -0.006642751
000070 1d 1f e5 3c 45 2b 14 3c 54 aa c4 38 c4 2c a7 ba
       0.027968938 0.009043519 9.3777344e-05 -0.001275443
000080 24 a9 d8 3c 7b 67 8b 3c 5e 2b 77 3c f5 6a d2 3c
       0.02644784 0.017017117 0.015086023 0.025685767
000090 c3 db c9 3c 89 dd 8f bb dd 38 bf bc df 2f 57 3c
       0.024640923 -0.0043904227 -0.023342544 0.013133972
0000a0 55 0f ee 3a 8f 7a f4 3b 6b 89 97 3b 76 ae 06 bb
       0.0018162528 0.007460899 0.004624536 -0.0020550764
0000b0 19 e8 60 bb 63 41 94 bc f1 93 63 3c 86 55 cb bc
       -0.0034318028 -0.018097585 0.013890252 -0.024821054
0000c0 63 83 5e 3c 78 a8 96 3c f7 fd 4c 3b c6 4e 8e bc
       0.01358113 0.018390879 0.0031279305 -0.017371546
0000d0 ab 8c 84 bc 64 15 a2 3b 1f fb b2 bb 42 ff 8e 3c
       -0.016180357 0.0049463976 -0.005462065 0.0174557
0000e0 15 57 c4 3c 4c 57 fb 3b 46 f1 c2 ba 9c e0 20 bb
       0.023967305 0.0076703187 -0.001487293 -0.002454794
0000f0 9a c0 c5 3b 04 27 16 bc c8 32 9a bc 40 fe c8 3b
       0.006034923 -0.0091645755 -0.018823043 0.0061338246
000100 df 60 36 3b 7b 77 1c bb 35 f2 a6 3c e4 c3 91 3c
       0.0027828736 -0.0023874927 0.020379165 0.017793603
000110 e2 b5 7d 3b dc 78 65 bc a0 1f c4 3c ae 27 89 3b
       0.0038713147 -0.014005866 0.023940861 0.0041856384
000120 ba aa a0 bc 7c 07 d6 3c 93 31 61 bb c1 4b de bb
       -0.019612659 0.026126616 -0.0034361824 -0.006783933
000130 6f f8 fd bc eb c9 23 bd 4d 5b f3 3b b6 0b 1f bc
       -0.031002251 -0.039987486 0.0074266554 -0.009707382
000140 90 f3 ba 3a 56 fe b4 3c d7 ff 37 bb 08 b8 4a bc
       0.0014263261 0.022093933 -0.0028076076 -0.012372978
000150 76 b4 a0 3c ea c8 db bb f2 0a 5c 3d 9b 22 6f 3c
       0.0196173 -0.0067073004 0.053721376 0.014595653
000160 a8 ac 38 bc 85 df 3b ba 50 ab 46 3b 15 9e db 3c
       -0.011271633 -0.0007166791 0.0030314513 0.026808778
000170 f8 c8 c3 3c a2 ee 27 3b dd d0 7f 3a ab ba 23 3c
       0.02389954 0.0025624414 0.0009758601 0.009993236
000180 41 f7 66 39 11 78 86 3d bb e5 85 3c 07 5d df bc
       0.00022026619 0.065658696 0.016344896 -0.027266039
000190 45 84 00 3d b4 57 98 3c 70 b7 08 bc a2 b5 ac 3c
       0.031376142 0.018596508 -0.008344516 0.021082703
0001a0 be b0 a2 3c a2 1a 0b 3d 0a 9e 19 bd 04 76 b3 3c
       0.019859668 0.033960946 -0.037504233 0.02190686
0001b0 58 13 05 bc 66 b9 dd bc e3 00 22 3c a4 4b 9d 3c
       -0.008122288 -0.027065944 0.009887907 0.019201107
0001c0 5c 3b 14 bc f2 9c 5e bc 79 21 6d ba c4 9f 5b bc
       -0.0090473555 -0.013587223 -0.00090458203 -0.01340479
0001d0 64 05 92 bc eb 7f 27 bc d0 d7 08 b9 25 f4 18 3d
       -0.017824836 -0.010223369 -0.00013050367 0.03734221
0001e0 f1 79 16 bc a3 f2 b4 3c 2f a0 e4 3c 15 13 6a bb
       -0.0091843465 0.022088354 0.027908413 -0.003571694
0001f0 dd 82 e3 3b 33 d1 30 3d f6 28 1d 3c 86 c2 af bc
       0.0069430904 0.043168258 0.009592285 -0.02145506

feature_preprocessing.1.running_var f4 [128]
000000 9f 15 29 3f 13 6a f7 3e 9c 23 42 3f 85 b9 f5 3e
       0.66048616 0.48323116 0.75835586 0.47993103
000010 5d ce eb 3e bd 65 a5 3e 3b e1 ae 3e ea 54 f2 3e
       0.4605588 0.32304183 0.34156212 0.4733041
000020 85 ce 06 3f 04 77 ad 3e ec 2e 41 3f 66 e1 57 3f
       0.52658874 0.33879864 0.7546222 0.84328306
000030 06 96 23 3f d0 47 fc 3e a9 fd a6 3e 0e 60 a7 3e
       0.6390079 0.4927354 0.32615402 0.3269047
000040 a6 8a b9 40 cb 00 b2 3e c6 c5 aa 3f d0 85 96 3f
       5.798175 0.3476623 1.3341606 1.1759586
000050 b5 ff cd 40 ca 1c e4 3e 8b 72 89 3f f4 8b e9 3e
       6.437464 0.44553214 1.0738081 0.45614588
000060 ff f1 03 3f 67 9c 19 3f 67 c4 8d 40 dd b6 5b 3f
       0.5154113 0.60004276 4.430225 0.858259
000070 17 66 3f 40 1f ae b6 3e 9d 86 c2 3e ac 28 9f 40
       2.990606 0.3567972 0.37993327 4.973715
000080 1c 3d d4 3e 53 bf 77 3f 9c d0 45 3f 44 87 33 40
       0.41452873 0.9677631 0.7727144 2.805131
000090 47 fe e7 3e db 8c 4c 40 79 a7 1e 3f 3f 7f f7 3f
       0.45311186 3.1960971 0.61974293 1.9335707
0000a0 d8 e9 f8 3e 79 13 05 3f 55 bb 8c 3f c5 1b f1 3e
       0.4861591 0.5198284 1.0994669 0.470915
0000b0 a2 de bb 3e fa 4a a1 3e 4f f5 23 3f eb 26 da 3e
       0.36693293 0.31502515 0.64046186 0.42607817
0000c0 34 f4 b6 3e ff 1d d8 3e 9b 99 41 3f 48 84 f8 3e
       0.35733187 0.42210385 0.7562501 0.48538423
0000d0 6a b9 4b 40 65 03 4e 3f 17 de d9 3f 30 67 4f 3f
       3.1831918 0.8047393 1.7020901 0.81016827
0000e0 16 c0 df 3e 0a e2 00 3f d6 a9 15 3f 00 8e 07 3f
       0.43701237 0.5034491 0.58462274 0.5295105
0000f0 ce 7e 10 3f 22 5d 2b 3f 61 5e 96 3e 35 4d f0 3e
       0.5644349 0.66938984 0.2936888 0.46933904
000100 04 c1 34 3f 48 39 d0 3e 72 75 ef 3e c6 60 06 3f
       0.7060702 0.40668702 0.4676929 0.52491415
000110 ee 78 89 3f 93 ff 0c 3f 97 a3 1b 3f 98 40 05 3f
       1.074003 0.55077475 0.60796493 0.5205169
000120 2a 7e 0c 3f 5b 5d 06 3f de 03 00 3f f4 d4 ab 3e
       0.5488001 0.524862 0.500059 0.33560908
000130 b6 e4 02 3f d3 36 ed 3f c0 8e b3 3e ed 63 97 3e
       0.51130235 1.8532356 0.35069847 0.29568425
000140 ea f0 9d 3f 9e 6d 37 3f b1 ca 62 3f db 05 aa 3e
       1.2339146 0.7165164 0.8859053 0.33207592
000150 a1 aa 41 3f 58 a8 2d 3f ab 0f 67 40 af 84 1f 3f
       0.75650984 0.67835 3.6103313 0.62311834
000160 c3 ab 3f 40 60 22 49 3f ca 3d a4 3e 40 79 1b 40
       2.9948585 0.7856808 0.3207839 2.4292755
000170 70 29 b5 40 ef 7b 59 3f 88 2b 0f 3f 22 f6 97 3e
       5.6613083 0.8495473 0.559258 0.29679972
000180 d1 6a a5 3e 62 1c e9 40 6b 25 09 40 1f 59 b3 3f
       0.32308057 7.2847147 2.1429088 1.4011573
000190 45 90 ab 3f 76 18 e1 3e fc 7e d2 3e 52 e1 48 3f
       1.3403403 0.43963975 0.41112506 0.7846881
0001a0 fe 74 dc 3e dd d8 5d 40 22 41 33 3f 97 30 60 3f
       0.43058008 3.4663613 0.7002126 0.8757414
0001b0 48 92 1a 3f ab 9d 9c 3e 2a 7b 2f 3f 3e c6 3d 3f
       0.6037946 0.3058904 0.6854731 0.7413062
0001c0 db f8 52 3f 3e a3 d4 3e 37 3c 3b 3f 73 fb 20 3f
       0.82410973 0.41530794 0.73138756 0.6288368
0001d0 21 1f da 3e 5d b0 8d 3f 16 b2 65 40 66 7e 8e 3f
       0.42601874 1.1069447 3.5889945 1.1132324
0001e0 86 63 74 40 fb 5b 0a 3f d6 e0 6b 40 60 c1 d1 3e
       3.8185744 0.540466 3.685598 0.40967846
0001f0 44 f4 0c 3f 69 83 1a 41 e9 8e 40 3f b9 67 c5 3e
       0.5506022 9.657083 0.75218064 0.38555697

bilstm.weight_ih_l0 f4 [256, 128]
000000 aa 1c 44 3d dc cb db 3d 96 dd ab bd d9 af e5 3c
       0.0478789 0.107322425 -0.083918735 0.028037952
000010 30 cd 09 be 69 2c 14 3c eb 73 d8 3a fc 22 f9 bd
       -0.13457179 0.009043791 0.0016514038 -0.12164876
000020 6e 87 8b 3d 76 00 b6 3d 95 43 c3 3b 32 f8 c1 3d
       0.068129405 0.08886807 0.005958984 0.094711676
000030 c5 71 3e bd e9 36 15 be 0e c7 17 be fe 1b 02 be
       -0.046495218 -0.14571728 -0.14822027 -0.1270599
000040 40 25 87 bd 59 25 1c 3b 4b 1b 15 be 9e 17 df bd
       -0.06598902 0.0023825972 -0.14561193 -0.108931765
000050 52 b9 a8 bd 14 bd 55 3e bb ba d3 bd 05 1d 16 bd
       -0.08238472 0.20872909 -0.103383504 -0.03664877
000060 d1 73 b4 bd 1f b0 96 bd 25 5b 08 3d 4e 1b 41 bd
       -0.08811153 -0.07357811 0.033290047 -0.04714518
000070 5d 80 8b 3d b2 30 6b bd 92 a4 c6 bd c6 e6 f7 3d
       0.06811593 -0.057419486 -0.09699358 0.121045634
000080 1b a1 d5 3c 99 7c b3 bd 3e d9 aa bd 11 02 98 3d
       0.026077798 -0.087639995 -0.08342217 0.07422269
000090 31 f5 53 bd 80 57 50 bd e3 5c af 3d 81 f8 0e be
       -0.051747505 -0.050864697 0.085626386 -0.13961984
0000a0 50 20 db bd 91 60 a1 bd 42 c3 0e be b3 d6 6c bd
       -0.106995225 -0.07879747 -0.13941672 -0.05782194
0000b0 67 67 36 bd 24 0f 10 3d c7 b9 09 bc 66 19 6a bd
       -0.044532206 0.03517069 -0.008406109 -0.057153128
0000c0 1a 33 47 3d 24 ea 7d 3d 58 16 cd bd 19 5d 72 be
       0.04863272 0.061990872 -0.10014027 -0.23668326
0000d0 45 00 28 be 24 67 bf bd 83 ff 46 bd 0d 08 8b 3d
       -0.16406353 -0.093458444 -0.04858352 0.06788645
0000e0 25 79 91 3d 64 a6 c4 3d 39 de f3 3d a0 49 08 3d
       0.071031846 0.09602049 0.1190762 0.03327334
0000f0 ff dc b3 3d 07 5d b1 bd 93 c8 08 3d 06 60 0b bc
       0.08782386 -0.08660322 0.033394407 -0.0085067805
000100 81 d9 50 bb b9 18 c5 3d 83 76 a7 3d d5 c1 a0 3c
       -0.0031867924 0.09623856 0.08176901 0.019623676
000110 ae 18 02 be 89 12 97 bb f3 79 09 bd dd b7 52 3c
       -0.12704727 -0.004610364 -0.033563565 0.012861219
000120 cb 80 10 3d e1 98 65 3d b9 e7 43 bb 72 e0 b4 3c
       0.035279077 0.056054 -0.0029892756 0.02207968
000130 a3 78 e0 bc 73 8d fa 3c ea 22 15 be 46 b6 01 be
       -0.027401274 0.030585026 -0.145641 -0.12667188
000140 87 7f 1f bd 2a 4d 7d bd 1d cf 38 bd ba 5b d6 3b
       -0.03893998 -0.061841168 -0.045119394 0.0065416964
000150 aa 76 df bd c2 36 19 3c da 83 6a 3d 8e 8f d9 bd
       -0.10911305 0.009351434 0.05725465 -0.10623084
000160 aa a6 27 3d 40 6b a8 3d 38 cd a8 bd 5a 6e 05 be
       0.040930428 0.08223581 -0.08242267 -0.13030377
000170 fc 57 80 bc 52 9e 36 3d a4 61 62 bd 93 02 94 3d
       -0.015666954 0.04458458 -0.0552689 0.072270535
000180 4c be 44 bd f0 c4 81 3c 7e 61 98 3d 4a d1 f2 3d
       -0.048033044 0.015840977 0.0744047 0.11856325
000190 9e 4a d3 3c 72 c1 94 bd 00 c8 84 bd ef 0d 7e bd
       0.025792416 -0.07263459 -0.064834595 -0.062025007
0001a0 56 c2 1c be 4f ab 3c 3d 0b 58 0e be 6a 93 d1 bd
       -0.15308508 0.04606181 -0.13900773 -0.10233195
0001b0 3c a1 be bc 5b 7c 88 bd ef 42 ad 3d 6e d2 c3 bd
       -0.023270242 -0.06664344 0.08460032 -0.09561621
0001c0 4d 4e c9 3c 97 4b f3 bd 84 aa 07 be f5 26 d2 bd
       0.02457347 -0.11879652 -0.1324864 -0.10261337
0001d0 37 bd 9b bc 5d ed 43 3d 01 76 0a 3b 7e 30 df 3b
       -0.019011123 0.04783379 0.0021127465 0.0068112006
0001e0 28 60 4c 3c 74 c9 f9 bd f2 21 59 3d ec bf ff 3d
       0.012474097 -0.12196627 0.05301089 0.12487778
0001f0 81 63 b6 bd a4 bc 0a be aa fe 88 bd 6c 33 3a bd
       -0.089056976 -0.13548523 -0.06689198 -0.045459196
000200 04 a5 9c 3d d3 4a e1 3c 87 e4 f2 bd 17 c9 d4 3d
       0.07648662 0.0275015 -0.118599944 0.10389917
000210 5c 58 c2 bd 68 f7 37 be 77 0a 5d 3d 96 fc 03 be
       -0.094895095 -0.17965472 0.05396506 -0.12889323
000220 9a 01 5c bd d7 59 ce bd 6b 32 28 bd 7e 85 13 be
       -0.053712465 -0.10075729 -0.041063707 -0.14406392
000230 a2 f6 96 bd 88 fb e0 bd 1b 70 b0 3d 9d 66 41 bb
       -0.0737126 -0.10985476 0.086151324 -0.0029510625
000240 2f f5 7e bd a4 3e f4 bc 62 6a aa 3c ad 14 2a be
       -0.062245544 -0.029815026 0.02080268 -0.1660945
000250 2e bb ca 3d e4 0b cd 3d 62 52 19 be 42 21 dc bd
       0.09898983 0.100120336 -0.14972833 -0.10748531
000260 12 68 94 ba 8a 3e 9f 3d f1 55 e3 3c f4 8c 9a 3b
       -0.0011322519 0.077756 0.027750941 0.00471651
000270 3a 4e 1a 3d 23 92 8c bc 38 47 1e 3e bd 7e b8 3c
       0.03767226 -0.017159527 0.15456855 0.022521371
000280 35 ac af bd 1d 07 50 3c ee 8d 09 3e ef d0 3c bd
       -0.08577768 0.012697008 0.13433048 -0.046097692
000290 ea 36 9b bc 6d 49 af 3d 37 77 d8 3d 65 87 78 bc
       -0.018947084 0.08558927 0.105696134 -0.015168999
0002a0 56 38 7f bd 2f 5c 05 3e b5 43 fe bc 19 0a 1d be
       -0.062309586 0.13023447 -0.031038145 -0.15335883
0002b0 26 62 97 3d 5a a6 8a bd d0 29 bc bd 97 8c e0 3d
       0.07391767 -0.0677001 -0.091876626 0.109643154
0002c0 73 db 7d bd a6 bb 57 3d 3d 33 43 3d db 38 56 3e
       -0.06197686 0.05266919 0.047656287 0.20920126
0002d0 61 4c f2 bd 7e b4 03 bd ae 5e 6b 3d 74 62 81 bd
       -0.11830974 -0.032154553 0.05746334 -0.063176066
0002e0 ac 4b 8e bd ac 06 d2 3d 9e f3 bf 3c 64 97 49 3d
       -0.06948027 0.10255179 0.023431595 0.049216643
0002f0 1b d6 df 3c 44 c2 a3 bd 55 83 f6 bd 53 de b7 3d
       0.027323773 -0.079960376 -0.12036768 0.08977952
000300 46 f9 2c bd 5d 03 31 3d 0f 2f db bc 2a 72 1d 3e
       -0.042229913 0.043216098 -0.026755838 0.15375581
000310 a8 03 11 bd 9f b4 b5 bd 1a 76 03 bc db 21 e5 3d
       -0.035403877 -0.08872341 -0.008023763 0.11188098
000320 3d 0d 4b bd 3d c7 6a 3d c7 8f 95 3d fd af b7 bc
       -0.049573172 0.057318915 0.07302814 -0.022422785
000330 98 98 92 bd 76 85 0a 3e ff 06 94 bc ce 0e a2 bd
       -0.07158011 0.13527474 -0.018069742 -0.0791298
000340 8b eb 2f 3a 75 e4 dc bd de f0 c7 bb 29 b2 10 be
       0.0006710819 -0.10785762 -0.0061017117 -0.14130463
000350 39 60 5d 3d dc b7 23 bd 91 29 05 bd c1 d4 91 bc
       0.054046843 -0.039970264 -0.032510344 -0.017801644
000360 cf 2e c0 3b ba 98 93 3d 85 27 57 3b 9d f4 b5 bd
       0.005864955 0.07206865 0.0032829952 -0.08884547
000370 f2 15 42 bd e3 39 14 3e 47 b0 a3 bd 67 88 79 bc
       -0.04738421 0.14475207 -0.079926066 -0.015230275
000380 e3 1c 2a bd 4e a2 80 bd 3d 63 df bd 9c 5a 5d bd
       -0.041531455 -0.06280957 -0.109076 -0.05404149
000390 8e 02 e2 bd 77 2b 0f bc c8 7b f7 bd e8 1e e2 3d
       -0.110356435 -0.00873839 -0.12084156 0.11041051
0003a0 18 72 84 3c fd 10 22 bd c7 70 d6 3b 0d bc b4 bd
       0.016167685 -0.039566983 0.006544206 -0.0882493
0003b0 d9 6c 80 bd fb 88 94 bd e4 41 4a be 54 6e 55 bd
       -0.06270761 -0.072526895 -0.19751698 -0.05210717
0003c0 fe d4 34 bd 19 b6 04 bd a9 86 fe bd 84 29 97 bd
       -0.044148438 -0.032400224 -0.12428028 -0.07380965
0003d0 d3 e1 c2 bd 55 1d 03 be 99 7b 80 bc 74 f0 86 bd
       -0.09515729 -0.12804158 -0.015683936 -0.065888315
0003e0 87 78 3e 3d 16 17 f1 bd 92 e1 df bd 3c ba 18 be
       0.046501663 -0.117719814 -0.10931696 -0.14914793
0003f0 68 a1 b4 bd c9 58 de 3d 5a fa 8e 3b d0 2e 86 3a
       -0.08819848 0.10856778 0.0043633403 0.001023734

bilstm.weight_hh_l0 f4 [256, 64]
000000 cb 75 05 00 15 65 05 80 88 61 05 00 bb b6 05 00
       5.01434e-40 -4.95439e-40 4.94165e-40 5.24729e-40
000010 2a 77 05 00 bf 58 05 00 7b 3c 06 80 26 76 05 00
       5.01925e-40 4.91014e-40 -5.72709e-40 5.01561e-40
000020 d5 6b 05 80 07 c9 05 00 6d 66 05 80 3e 5e 05 00
       -4.9786e-40 5.31293e-40 -4.95921e-40 4.92985e-40
000030 a9 67 06 80 9d 67 05 00 38 92 05 00 31 5e 05 80
       -5.88199e-40 4.96347e-40 5.11631e-40 -4.92967e-40
000040 87 82 05 80 19 9d 05 80 f3 76 05 80 ea d4 05 80
       -5.06002e-40 -5.15534e-40 -5.01848e-40 -5.35557e-40
000050 d0 61 05 80 d3 5d 05 00 29 7a 05 80 3b 10 06 80
       -4.94266e-40 4.92835e-40 -5.03e-40 -5.56835e-40
000060 11 90 05 00 93 87 05 00 33 5c 05 80 03 9f 05 00
       5.10859e-40 5.07812e-40 -4.92252e-40 5.1622e-40
000070 96 a7 05 80 f9 9d 05 00 d7 ad 05 00 e3 57 05 00
       -5.19296e-40 5.15847e-40 5.2154e-40 4.90705e-40
000080 62 5f 05 80 41 57 05 80 85 9a 05 80 b7 68 05 00
       -4.93394e-40 -4.90478e-40 -5.14609e-40 4.96742e-40
000090 a6 ad 05 80 a6 95 05 00 bc a2 05 00 4e 68 05 00
       -5.21471e-40 5.12861e-40 5.17556e-40 4.96595e-40
0000a0 09 97 05 00 86 5e 05 80 21 6a 05 00 57 64 05 00
       5.13359e-40 -4.93086e-40 4.9725e-40 4.95173e-40
0000b0 c5 d5 06 00 fa bb 05 00 34 9e 05 80 ff c9 06 80
       6.27699e-40 5.26611e-40 -5.1593e-40 -6.23476e-40
0000c0 df 5d 05 80 14 b1 06 80 d8 59 05 80 46 5f 05 00
       -4.92852e-40 -6.14537e-40 -4.91407e-40 4.93355e-40
0000d0 ed de 05 00 c7 c1 06 80 ed 6b 05 00 7d 59 05 80
       5.39148e-40 -6.20527e-40 4.97894e-40 -4.9128e-40
0000e0 0b 68 05 00 8e a0 05 80 14 66 06 80 7d 63 05 00
       4.96501e-40 -5.16774e-40 -5.87632e-40 4.94867e-40
0000f0 21 65 05 00 61 76 05 80 f1 5d 05 80 13 c3 05 00
       4.95456e-40 -5.01644e-40 -4.92877e-40 5.29157e-40
000100 5c 81 05 80 52 7c 05 00 1d 86 05 80 1a 91 05 00
       -5.05583e-40 5.03775e-40 -5.07288e-40 5.1123e-40
000110 5a 60 05 00 cb 61 05 80 2e 90 05 80 59 8b 05 80
       4.93742e-40 -4.94259e-40 -5.109e-40 -5.09166e-40
000120 17 e0 05 80 28 6d 05 80 f1 75 05 80 61 7f 05 00
       -5.39566e-40 -4.98335e-40 -5.01487e-40 5.04872e-40
000130 22 83 05 00 a3 5f 05 00 47 82 05 80 b9 7a 05 00
       5.06219e-40 4.93485e-40 -5.05912e-40 5.03202e-40
000140 72 82 05 80 82 76 05 80 46 e3 05 80 86 fd 05 80
       -5.05972e-40 -5.0169e-40 -5.40708e-40 -5.50125e-40
000150 a0 96 05 00 e1 84 05 00 ea ca 05 80 34 5b 05 00
       5.13212e-40 5.06845e-40 -5.3197e-40 4.91895e-40
000160 b5 79 05 00 c0 aa 05 00 7b 6b 06 80 98 7d 05 00
       5.02838e-40 5.20431e-40 -5.8957e-40 5.04232e-40
000170 26 61 05 80 9e ea 05 80 8d 71 05 80 00 66 05 80
       -4.94028e-40 -5.43342e-40 -4.99912e-40 -4.95768e-40
000180 ee 6a 05 00 d9 a0 06 00 57 cc 05 80 08 86 05 00
       4.97537e-40 6.08714e-40 -5.32481e-40 5.07259e-40
000190 0c 8b 05 00 77 60 05 00 79 6f 06 80 7c 7d 05 80
       5.09058e-40 4.93783e-40 -5.91002e-40 -5.04193e-40
0001a0 91 64 05 00 44 a5 06 00 02 80 05 00 cf e8 05 80
       4.95254e-40 6.10299e-40 5.05098e-40 -5.42693e-40
0001b0 e5 7e 05 00 4f 89 05 80 cf 70 05 00 f4 6b 05 80
       5.04699e-40 -5.08435e-40 4.99646e-40 -4.97904e-40
0001c0 92 d6 05 80 a3 64 05 80 a9 5c 05 00 ff 9d 05 80
       -5.36151e-40 -4.95279e-40 4.92418e-40 -5.15856e-40
0001d0 2a 76 06 00 7c 59 05 00 5e 7f 05 80 b3 6e 05 00
       5.93402e-40 4.91278e-40 -5.04868e-40 4.98889e-40
0001e0 4a 63 05 80 33 80 05 80 c4 59 05 00 a1 74 05 80
       -4.94796e-40 -5.05167e-40 4.9138e-40 -5.01016e-40
0001f0 8e 5b 05 80 46 73 06 80 69 77 05 80 52 97 06 00
       -4.92021e-40 -5.92365e-40 -5.02014e-40 6.05296e-40
000200 d3 5a 05 80 1c 76 05 80 3e b2 06 00 ff 81 06 80
       -4.91759e-40 -5.01547e-40 6.14954e-40 -5.97647e-40
000210 38 70 05 80 52 5b 05 80 56 f0 05 00 cc 68 05 80
       -4.99434e-40 -4.91937e-40 5.45394e-40 -4.96772e-40
000220 5f 81 05 80 bd 5d 05 00 a5 93 06 00 38 89 05 80
       -5.05587e-40 4.92804e-40 6.03978e-40 -5.08402e-40
000230 41 cb 05 00 48 bd 05 00 02 76 05 00 0b 0b 06 80
       5.32091e-40 5.27079e-40 5.01511e-40 -5.54974e-40
000240 64 87 05 80 1d 71 05 00 f6 5a 05 80 cd 59 06 80
       -5.07746e-40 4.99755e-40 -4.91808e-40 -5.83227e-40
000250 49 66 05 00 99 79 05 00 b8 58 05 00 c3 d6 05 00
       4.9587e-40 5.02799e-40 4.91004e-40 5.3622e-40
000260 25 60 05 80 a3 66 05 80 c0 89 05 80 91 83 05 00
       -4.93668e-40 -4.95997e-40 -5.08593e-40 5.06375e-40
000270 e3 7c 05 00 77 87 05 00 71 5d 05 00 0e 84 05 80
       5.03978e-40 5.07773e-40 4.92698e-40 -5.0655e-40
000280 08 5d 05 80 96 82 05 80 6a a6 05 00 53 b0 05 00
       -4.92551e-40 -5.06023e-40 5.18876e-40 5.2243e-40
000290 db 69 05 80 00 c1 05 00 10 4e 06 00 5e 6d 06 00
       -4.97151e-40 5.28413e-40 5.79017e-40 5.90247e-40
0002a0 ea 78 05 00 50 be 05 80 1f d0 05 00 96 dc 06 00
       5.02553e-40 -5.27449e-40 5.33837e-40 6.30144e-40
0002b0 92 8a 05 00 08 5e 05 80 cd 59 05 80 4f 79 05 80
       5.08887e-40 -4.9291e-40 -4.91392e-40 -5.02695e-40
0002c0 0d bc 05 80 55 80 05 80 0a 58 05 80 1d 59 05 80
       -5.26637e-40 -5.05214e-40 -4.9076e-40 -4.91145e-40
0002d0 aa 5d 05 80 f2 6d 05 80 75 67 05 80 f1 bc 05 80
       -4.92778e-40 -4.98618e-40 -4.96291e-40 -5.26957e-40
0002e0 4f 66 05 80 63 66 05 00 7c f2 05 80 31 cf 05 00
       -4.95879e-40 4.95907e-40 -5.46164e-40 5.33504e-40
0002f0 7c d7 05 80 68 83 05 80 bd a9 05 00 51 97 05 80
       -5.36479e-40 -5.06317e-40 5.20068e-40 -5.1346e-40
000300 25 be 05 80 94 70 05 80 de a0 05 00 0a 6c 05 00
       -5.27388e-40 -4.99563e-40 5.16886e-40 4.97935e-40
000310 56 5e 05 80 a7 57 05 80 dd 5f 05 80 7b 67 05 80
       -4.93019e-40 -4.90621e-40 -4.93567e-40 -4.96299e-40
000320 df 72 06 80 5b b0 06 80 35 a4 05 80 60 66 05 80
       -5.92221e-40 -6.14277e-40 -5.18084e-40 -4.95903e-40
000330 50 97 05 00 e5 5d 05 80 af 68 05 80 c8 6d 05 00
       5.13458e-40 -4.9286e-40 -4.96731e-40 4.9856e-40
000340 aa 6d 05 00 4b 9b 05 00 55 8a 05 00 12 6b 05 80
       4.98518e-40 5.14886e-40 5.08802e-40 -4.97587e-40
000350 27 6c 05 00 ae 66 05 80 74 5e 05 80 22 74 05 80
       4.97975e-40 -4.96012e-40 -4.93061e-40 -5.00838e-40
000360 77 67 05 80 f0 70 05 80 fc a6 05 80 54 88 05 80
       -4.96294e-40 -4.99692e-40 -5.1908e-40 -5.08083e-40
000370 fe 5a 05 00 84 72 05 00 77 5b 05 80 c4 60 05 00
       4.9182e-40 5.00258e-40 -4.91989e-40 4.9389e-40
000380 c2 69 05 00 ba 77 05 00 30 c5 05 80 43 6a 05 80
       4.97116e-40 5.02127e-40 -5.29915e-40 -4.97297e-40
000390 8a 58 05 80 0a 6a 05 80 38 66 05 00 89 5e 05 80
       -4.9094e-40 -4.97217e-40 4.95847e-40 -4.9309e-40
0003a0 d0 b8 05 00 34 13 06 80 f1 d7 05 00 53 c7 06 80
       5.25476e-40 -5.57902e-40 5.36643e-40 -6.22517e-40
0003b0 d8 5d 05 00 65 87 05 00 5c 81 05 80 b4 71 05 80
       4.92842e-40 5.07748e-40 -5.05583e-40 -4.99966e-40
0003c0 55 6b 05 80 9e 6f 05 80 35 23 06 80 00 5c 05 00
       -4.97681e-40 -4.99218e-40 -5.63643e-40 4.92181e-40
0003d0 24 95 05 00 3e 9a 05 00 db c1 06 80 1f 90 05 00
       5.12679e-40 5.14509e-40 -6.20555e-40 5.10878e-40
0003e0 c4 e2 05 00 36 76 05 80 2a ee 05 80 28 45 06 80
       5.40526e-40 -5.01584e-40 -5.44615e-40 -5.75822e-40
0003f0 81 5f 05 00 cf 7c 05 00 e8 75 05 00 e6 9e 06 00
       4.93438e-40 5.0395e-40 5.01474e-40 6.08015e-40

bilstm.bias_ih_l0 f4 [256]
000000 aa 4e 35 bd dd b1 00 bc 29 f3 9c bd 72 23 12 be
       -0.044264473 -0.007854906 -0.076635666 -0.14271334
000010 eb 21 7b bc 03 2d 24 be 04 aa 0a bd 21 06 f2 3d
       -0.015327911 -0.16032796 -0.033853546 0.11817575
000020 b9 d8 03 be 2f 31 64 bd 76 99 1c bb 15 d7 9f 3c
       -0.12875642 -0.055710968 -0.002389518 0.019511739
000030 3e aa d2 3c 01 eb 26 be 39 14 88 3d 37 aa 1d 3d
       0.025715943 -0.16300584 0.06644482 0.038492408
000040 ea 66 fb 3c 53 b9 7d 3d 21 f8 3a 3d 8b 5a 7f bd
       0.030688722 0.061944317 0.04564679 -0.062342208
000050 8a b1 bb 3d a7 dc d0 bc 41 2f 85 bd 85 ad 02 3d
       0.09164722 -0.02549584 -0.065031536 0.031903762
000060 f0 9a e3 3d 1a 36 b5 bd bd 32 69 3d da 24 de bd
       0.11113536 -0.0884821 0.056933153 -0.10846873
000070 44 ae 6c bc b4 db b9 3d 2f ee e8 3c 5c 5d 7b bb
       -0.014445845 0.09075108 0.028433887 -0.0038355207
000080 97 d4 d3 bc 59 1b 7c 3d b0 f9 8c 3d 8b e6 93 3d
       -0.025858207 0.06154952 0.068835616 0.07221707
000090 67 28 0c 3d cb b5 0f 3e b4 aa ca 3d 50 78 d9 bc
       0.03421822 0.14034192 0.0989584 -0.026546627
0000a0 e3 1c d1 bb 4e b0 4a 3d c1 35 04 be be 5f 2e bd
       -0.0063816174 0.049484544 -0.1291113 -0.042571776
0000b0 60 dc da 3d 4d de 1d 3e d4 a5 ba 3c 99 9b 2d bd
       0.106865644 0.15416832 0.022784151 -0.042384718
0000c0 f0 fd ac bd b7 b6 87 3d 67 b6 0c bc 87 7e 67 3d
       -0.08446872 0.06626647 -0.00858841 0.05651715
0000d0 96 71 fc bd 63 ab fb 3c d6 5d 9f 3d 29 cc 8e bc
       -0.12326352 0.030721372 0.0778157 -0.017431336
0000e0 4b d3 d2 bd 9e ca d0 bd 27 0d af 3d 13 7c 9f 3b
       -0.10294207 -0.10194896 0.085474305 0.0048670857
0000f0 2a 2c 52 bd 47 8a 1d 3c c9 48 03 bc d0 aa 25 3e
       -0.05131165 0.009615487 -0.008012959 0.16178441
000100 2c 71 05 80 08 e7 05 80 fd 80 05 80 8c 5a 05 80
       -4.99776e-40 -5.42056e-40 -5.0545e-40 -4.9166e-40
000110 56 96 05 00 e2 89 05 00 f2 cf 05 00 cf bd 06 00
       5.13108e-40 5.0864e-40 5.33774e-40 6.19103e-40
000120 75 8d 05 00 58 1d 06 80 1f 84 05 00 23 5f 05 00
       5.09923e-40 -5.6154e-40 5.06574e-40 4.93306e-40
000130 de af 05 00 f1 a2 05 80 11 e5 05 80 62 8c 05 80
       5.22267e-40 -5.1763e-40 -5.41351e-40 -5.09537e-40
000140 f3 79 05 80 fe 94 05 00 f8 74 05 80 a2 6a 05 00
       -5.02925e-40 5.12626e-40 -5.01138e-40 4.9743e-40
000150 90 6d 05 00 fe be 05 00 a0 aa 05 00 a3 a0 05 00
       4.98481e-40 5.27693e-40 5.20386e-40 5.16803e-40
000160 76 97 05 80 ee 69 05 80 21 e0 05 80 3f 85 05 80
       -5.13511e-40 -4.97178e-40 -5.3958e-40 -5.06977e-40
000170 d2 93 06 80 f7 70 05 80 8e 89 05 80 96 b3 05 00
       -6.04041e-40 -4.99702e-40 -5.08523e-40 5.23601e-40
000180 c6 5d 06 00 06 7b 05 80 6d 7d 05 00 9b 5e 05 80
       5.84653e-40 -5.0331e-40 5.04172e-40 -4.93116e-40
000190 5f 68 05 00 ce 63 05 00 aa 69 05 00 09 6e 05 80
       4.96619e-40 4.9498e-40 4.97083e-40 -4.9865e-40
0001a0 ad ff 05 00 3f 88 06 80 5d 1a 06 00 11 b2 05 00
       5.50897e-40 -5.99889e-40 5.6047e-40 5.23056e-40
0001b0 45 60 05 80 98 9c 06 00 b6 ab 05 00 af 33 06 80
       -4.93712e-40 6.07188e-40 5.20776e-40 -5.69554e-40
0001c0 12 6d 05 00 e9 6f 05 00 7e 88 05 00 c6 68 05 00
       4.98305e-40 4.99323e-40 5.08142e-40 4.96763e-40
0001d0 05 78 05 00 5e d2 06 80 b9 39 06 80 81 e3 05 80
       5.02232e-40 -6.26479e-40 -5.7172e-40 -5.4079e-40
0001e0 0d cc 05 80 fc e8 05 80 6d db 06 00 e3 95 05 80
       -5.32377e-40 -5.42757e-40 6.29728e-40 -5.12947e-40
0001f0 38 67 05 00 3e d7 06 00 7b 5d 05 00 9e 60 05 80
       4.96205e-40 6.28227e-40 4.92712e-40 -4.93837e-40
000200 1a 04 b4 bd 6c 16 9a bd a8 b5 35 bd 38 78 91 bb
       -0.08789845 -0.07523808 -0.044362694 -0.00443938
000210 f5 e7 3a bd f3 4f f5 3d 86 3e 5a 3d a6 4a e1 bd
       -0.045631368 0.1197814 0.053282283 -0.11000566
000220 a4 61 90 bd a5 41 2c be 84 ed d1 3d ea a2 0c 3d
       -0.070498735 -0.16821916 0.10250381 0.034335054
000230 f9 77 d5 3d 40 a0 a1 3d 5b 29 11 be 8e dd cb 3d
       0.104232736 0.078918934 -0.14175932 0.099543676
000240 1f 59 42 bb e0 7e 12 3d 6f 0d 22 bd 89 c8 93 bd
       -0.002965517 0.03576553 -0.039563593 -0.072159834
000250 21 a4 4b bd a9 e8 35 bd f8 ba 32 3d 12 e9 59 bd
       -0.049717072 -0.044411335 0.04363534 -0.05320079
000260 c2 d6 13 3c 5c e5 87 bd fe 6b d4 bd 44 1b ac 3d
       0.00902337 -0.06635544 -0.103721604 0.08403638
000270 a9 02 01 3e 18 85 8b bd e8 54 4f 3d b1 c2 c9 bb
       0.12598671 -0.06812495 0.050618082 -0.006157242
000280 e0 fd 26 bd 13 a3 40 3b 41 35 4a 3c 61 bc 12 3e
       -0.040769458 0.0029394075 0.012341798 0.14329673
000290 04 3e 96 bd 1a cd 14 be c2 cc 53 bd cb a2 86 bd
       -0.07336047 -0.14531365 -0.051708944 -0.06574019
0002a0 b9 7b 16 bd a7 5c 3e bd 38 af 10 bd 34 da 8c 3d
       -0.036739085 -0.04647508 -0.03532335 0.068775564
0002b0 ae 31 1a bd 04 e0 f1 3c c2 15 fc ba 67 78 16 bd
       -0.037645034 0.029525764 -0.0019232559 -0.03673592
0002c0 a7 a3 ea 3c f1 88 64 3d 53 5d 70 3c 20 b9 d5 bc
       0.028642489 0.05579466 0.014670688 -0.026089251
0002d0 cb 79 7f 3d 7e 6f ef bd da d1 fb 3d cd 6c df 3d
       0.06237201 -0.11691187 0.122958854 0.10909424
0002e0 21 42 72 bc eb 36 e1 bc 5d 9d 9d bc f9 ca a6 3d
       -0.014786274 -0.027492007 -0.019240076 0.08144183
0002f0 95 8d 89 bd fc 48 07 3d 75 3a b8 3c b1 f6 d9 bb
       -0.06716458 0.033028588 0.022488812 -0.0066517224
000300 3b 9d 50 3b 99 fe 94 3d 07 18 bb bc d6 98 fb 3b
       0.0031831998 0.07275123 -0.022838606 0.0076781316
000310 95 2c 81 3d e1 a7 66 3c a6 f2 07 3e 69 a2 4a bd
       0.063073315 0.014078111 0.13276157 -0.049471293
000320 88 9d 1f be 5f 00 4b bd 05 8a 9a 3d e7 f2 23 3c
       -0.15587437 -0.0495609 0.075458564 0.010006643
000330 2e 07 e3 bd 5a 1f 9d bd 3d 77 0c be 23 64 9c bd
       -0.11085354 -0.076719955 -0.13717361 -0.07636287
000340 ac d8 dc bd c2 5f 33 bd 8d 3c 74 bd 49 6b c1 3d
       -0.107835144 -0.043792494 -0.05962806 0.09444291
000350 68 92 98 bd 83 7a 68 bd 3d 40 c7 bd b6 d9 18 3d
       -0.074498 -0.05675746 -0.09729049 0.037317
000360 32 24 3a 3c 3e 78 a5 3d 5e 95 ad 3d c1 8c bc 3c
       0.011361169 0.08079575 0.08475755 0.023016335
000370 86 af f2 3c 60 a5 8c bd 5a 15 fc 3d a7 70 b1 3d
       0.029624712 -0.0686748 0.1230876 0.08664065
000380 9c 0e 36 be e2 5b 75 3b d1 99 17 3e 02 12 06 3e
       -0.1777901 0.00374388 0.1480477 0.13092807
000390 a8 69 e6 bd 28 99 3d bd b9 83 53 3b 4d 03 de 3d
       -0.11250621 -0.04628864 0.0032274558 0.10840473
0003a0 68 a2 e8 bd 1c 5e 3f 3c f6 ab 5d bd 54 cd 23 be
       -0.113591015 0.011680152 -0.054119073 -0.15996295
0003b0 7a 8e 97 bd 5a 35 27 3e 30 8c d5 bd 9d 2c 84 bd
       -0.07400222 0.16328946 -0.10427129 -0.06453822
0003c0 f4 7e 37 bc 45 44 2f bd 21 03 80 bd 08 b7 e5 bd
       -0.011199702 -0.042789716 -0.06250597 -0.11216551
0003d0 f0 96 d6 bd ab 75 38 bd cc 0d 7f 3d 7b ae 19 bc
       -0.10478008 -0.045034092 0.062269017 -0.009379978
0003e0 6c 3e 0a bc a2 07 0a 3e 72 af 04 be 8f 3f cc bd
       -0.008437734 0.13479474 -0.12957552 -0.0997306
0003f0 da 06 4b be 9c c3 1e 3d 19 14 4f 3c 95 1a 68 3d
       -0.19826832 0.038760766 0.012639069 0.056665976
