dipeptidyl peptidase IV inhibitor_best_model_fold_7_auc_0.9298.pth (torch, 975118 bytes, 35 tensors)

feature_preprocessing.0.weight f4 [128, 128]
00000000: 1b49 cbbb a473 cabd e641 8b3c db3c 373d
00000010: 4be3 63bd 6c26 a53c 1f18 11bd 690c 57ba
00000020: ce6c cbbd e357 3dbc e207 623d 3044 643c
00000030: b4cc 29bc 3b68 5fbd 6a8f 0580 4145 8ebc
00000040: a31e c9bd 8bba 3f3d 3586 a7bd c8aa 0580
00000050: 396f 0580 4387 f6bd 84b6 d5bd ae63 11bd
00000060: 0b52 bbbc d571 653d 21ff 15be b4ff 8abd
00000070: 8c69 0500 f198 a23a e060 0500 204a fabd
00000080: fe6a 7abe 44da 163d 0515 85bc 4bb6 18bd
00000090: daa8 0d3c ed50 fd3d 0a04 743d 6d88 98bc
000000a0: 8ebd 76bc 6789 e3bc cf15 99bd eef8 bfbc
000000b0: aff8 563d 6ee9 ac3d 7117 9d3d 2dd9 9e3d
000000c0: a829 f339 592a 993b df11 c9bb 25a6 e0bb
000000d0: b30c 89bd 68b3 073d 1e4d f3bd e6ea 723d
000000e0: 1c51 713d 4961 0d3d 59e5 82bd 2f72 43bd
000000f0: 10b3 a73d 34ed 66bb ec7f 3b3d 9127 913b
00000100: f838 ecbc 137a d7bd f1e3 b3bc d1d9 bd3d
00000110: 8a3f 273d 7186 833d 19a5 31bd 11e8 58bc
00000120: 052f 94bc 7698 24bd 7be5 cc3c e138 eb3a
00000130: 0512 abbc 0bd6 92bc dac3 24bc 5cec a8bd
00000140: 73cb 973d a521 8e3d 1d92 5dbc 279c 4e3d
00000150: d962 003c 4c67 13bd 26d7 063d b1a1 25bc
00000160: ee73 ebbb ef1b 403d 27d5 893b 865f 82bd
00000170: da47 91b9 3a00 523d 3bb3 c3bc 3de1 3c3d
00000180: a0ba 283d c045 f43c 1e10 46ba f6e7 91bd
00000190: 09db 58bd 3f2e 3c3d 8b00 463d 816d e8bd
000001a0: 8795 003c c67b 223d 19d2 74bd b310 35bd
000001b0: d759 6cbd 5b16 593c b0dd 443d 859d 513d
000001c0: a234 88bb 527c d53b 6677 733d 5a5c 8bbc
000001d0: 168f f0bb ee40 f8bd 1cb4 06bd 0a50 a4bc
000001e0: 03df 8dbd 5e83 11bd 7ac3 7b3d 47b7 99ba
000001f0: 7015 d5bd bd2f 023d ed59 1dbc b9f5 9b3d
00000200: bbc8 51bc 0605 543d ac23 d63c e81b 073d
00000210: 7943 b43d 8ca6 46bd 34f2 14bd e240 903d
00000220: 1e21 3e3c fb4b d4bc 51cc 84bd 1b6b 053d
00000230: f641 44bd c11b 74bd bf6b 0500 2c3d a3bd
00000240: 959f a73d f5b5 c13d 508c 7dbd 746e 0580
00000250: 6b5a 0500 624f c43c 65ae 02bb 2721 f8bc
00000260: 8a3a 23ba b03c f73d 3574 473d 11f2 8fbd
00000270: 04aa 0680 91f8 06bd 3668 0500 ea5d 0dbd
00000280: b2c2 973d 2480 72bd bde6 8cbd da6f 72bd
00000290: 5934 813d 74d8 eb3d 1e2f 203c 627b 953b
000002a0: beba 70bd ee0e 01bd c0f7 70bd bbea 9d3d
000002b0: 1a71 cabd 9820 29bd dc3a b9bd c4e1 e43d
000002c0: fc13 a53d 2027 b0bc 39f1 bb3d 1aca 0f3d
000002d0: 8072 39bd eff3 9e3d c418 263e 1f66 fd3d
000002e0: f5b2 203d 454d 86bd d353 04bc d95b ee3d
000002f0: 4592 8a3d 854b 673d 0fbb a83d 51f2 cebb
00000300: 49f1 03bb 2efe 693c 46b9 71bd a04b 35bd
00000310: 7c11 a0bd 95e6 cdb9 190e 8f3d 36c0 c4bc
00000320: 3a4e 4cbd 3416 6cbd f38e 233d 344b 7bbc
00000330: 1e81 e03c 0d4b cfbc c98f bebc 86e5 843c
00000340: f52f 9c3d f3c1 b6bd 8eef a83d c4fb 8bbd
00000350: 1c85 b33b da73 013d 87ee 153d f96d e4bc
00000360: 2d3c 75bc b370 0f3d 7075 3a3d 3442 1abd
00000370: a87b c13c c65e 2ebd 2c69 6f3d 9064 e93c
00000380: efc0 c63d c404 59bd 2580 adbb c82f 15bd
00000390: 0c16 6f3d 6b63 063d 2b43 a03d 7d51 843d
000003a0: c844 0fbd 9dbd 113c 1350 a8bc 24db a8bc
000003b0: aeec 7f3c 759b c4bd e186 c8bd 851e 673d
000003c0: 7455 5bbc 99d8 3cbd 648e b6bd 7640 2e3d
000003d0: 3f9e 99bd 7f01 173d 60d8 c8bd 4c43 9b3d
000003e0: 5109 393d 1464 27bd 299a 4cbd 4702 863d
000003f0: d226 37bc 9ece c9bc 50bf b43d 6326 2e3c
-0.006203783 -0.09885338 0.016999196 0.04473577 -0.055636685 0.020159923 -0.035423394 -0.00082034484
-0.09932862 -0.011556598 0.0551833 0.013932273 -0.010363746 -0.05454276 -5.10625e-40 -0.017367007
-0.098202966 0.04680876 -0.08179895 -5.20442e-40 -4.99077e-40 -0.12037518 -0.10435203 -0.035495453
-0.02286627 0.05601676 -0.14648105 -0.06787053 4.9704e-40 0.0012405199 4.9393e-40 -0.122211695
-0.24454877 0.036829248 -0.016245374 -0.037283223 0.008646214 0.12368951 0.059574164 -0.01861974
-0.015059842 -0.02777548 -0.07474863 -0.023434129 0.052483257 0.08442961 0.07670487 0.07756267
0.00046379608 0.0046742377 -0.0061361636 -0.0068557435 -0.06691875 0.03313008 -0.11879943 0.059306048
0.058915243 0.034516606 -0.06391401 -0.047716316 0.0818845 -0.00352366 0.045776293 0.0044297655
-0.028835759 -0.10521331 -0.021959277 0.09270061 0.04083208 0.06422127 -0.04337034 -0.013238923
-0.018088827 -0.04018446 0.025011769 0.0017946028 -0.020882616 -0.01792433 -0.01005646 -0.08248207
0.07411852 0.06940011 -0.013523606 0.050441887 0.007836067 -0.035987183 0.032920025 -0.010109351
-0.0071854508 0.04690164 0.004206318 -0.06365876 -0.0002771009 0.051269747 -0.023889175 0.04611324
0.041193604 0.029818416 -0.0007555502 -0.07124321 -0.052943263 0.04594254 0.04834036 -0.11349011
0.00784815 0.03966882 -0.059770677 -0.04420538 -0.057702865 0.013249959 0.04806298 0.051175613
-0.004156665 0.0065150643 0.05944004 -0.01701181 -0.007341276 -0.12121759 -0.03288661 -0.020057697
-0.06927302 -0.035525672 0.061465718 -0.0011727595 -0.104044795 0.031783808 -0.0096039595 0.07615227
-0.0128042055 0.051762603 0.026140057 0.032985598 0.08801932 -0.048498675 -0.036363795 0.070436254
0.011604575 -0.025915137 -0.06484283 0.032572847 -0.047914468 -0.05959678 4.9783e-40 -0.07970652
0.08184735 0.09458534 -0.06190139 -4.988e-40 4.91613e-40 0.023963634 -0.0019940373 -0.030289246
-0.00062266795 0.12072122 0.048694808 -0.070285924 -6.12003e-40 -0.032951895 4.96561e-40 -0.03451339
0.07410182 -0.059204236 -0.06879947 -0.0591887 0.06308813 0.115158945 0.009776859 0.0045618275
-0.05877184 -0.03150838 -0.058830023 0.07710787 -0.09884854 -0.04129085 -0.0904443 0.11175874
0.08060452 -0.021503031 0.09176869 0.03510485 -0.04527521 0.077613704 0.16220385 0.12372994
0.039233167 -0.06557707 -0.008076626 0.11638612 0.0676618 0.056468505 0.082388036 -0.0063155075
-0.002013283 0.014281793 -0.05901458 -0.044261575 -0.07815835 -0.00039272444 0.06985111 -0.024017435
-0.04987929 -0.057638362 0.03993125 -0.015337754 0.027405318 -0.025304342 -0.023261921 0.016222727
0.076263346 -0.08923712 0.082488164 -0.0683513 0.0054785144 0.031604625 0.03660443 -0.02788447
-0.01496796 0.035019588 0.045522153 -0.037660792 0.023618534 -0.04257085 0.05844991 0.028490335
0.09704768 -0.05298306 -0.005294817 -0.03642252 0.058370635 0.032809656 0.07825311 0.06460855
-0.034977704 0.008895305 -0.020545995 -0.020612307 0.015620394 -0.095999636 -0.09791351 0.05642559
-0.013387073 -0.046105 -0.089138776 0.042541943 -0.07500886 0.03686666 -0.09806895 0.07581195
0.0451749 -0.040866926 -0.049951706 0.06543403 -0.011178689 -0.024634656 0.088255525 0.010629269

feature_preprocessing.0.bias f4 [128]
00000000: a7db 32b8 bb23 bbb7 7b5e a036 d19e 2135
00000010: cad6 0737 ec0c 9db6 8949 9837 c466 0fb7
00000020: ae0a 9cb6 bd05 13b6 5bda 5738 b6cf 7237
00000030: 30d6 6a37 28c8 adb7 a411 2c38 39f6 a9b6
00000040: 8c4b b9b7 6a9a efb8 489c beb8 c0f8 2cb6
00000050: 0ac0 c7b6 647a 29b7 2d50 49b7 2097 5b37
00000060: 62e1 0bb7 7bac 06b6 15ff b137 88d4 c4b6
00000070: 520d fbb6 5680 35b7 d955 dbb4 3ad3 abb7
00000080: 460f 2438 5fdc 4637 b99b d9b7 b59c ec37
00000090: 9033 e637 b09f d336 702a 7637 99fa 3fb7
000000a0: df6a 9b35 4b70 0538 43cb b636 3ea2 1a37
000000b0: a001 23b7 099c 27b7 aa49 cf36 4949 c237
000000c0: 6578 ed35 d28a 0f36 e171 e736 be2b 0b37
000000d0: 426e 23b7 426b 3937 2320 ef36 c181 1c39
000000e0: 3a9e bab7 b35b 99b7 4f1d f8b6 e902 aa36
000000f0: a38f 3938 8527 ad36 8c10 1db7 eac1 b038
00000100: 2559 4937 4f80 b9b6 4c99 fcb7 33e7 61b7
00000110: fa46 1337 b80d 9437 fa4e 0738 1c4b 8236
00000120: c882 4037 66b5 91b8 c780 30b7 0634 f538
00000130: 5bf6 cb36 12e0 b336 3a33 c5b7 28f9 9eb6
00000140: ed81 a0b7 b615 70b7 f5b6 49b6 8434 0d37
00000150: 9662 d936 de93 50b5 5a52 7336 2ec3 bb36
00000160: 61c6 5c38 1eb7 92b7 8de0 fab6 2a98 1337
00000170: 8568 b135 16bd f9b7 7434 d6b6 248b 0bb7
00000180: a6b1 33b8 f8f1 66b7 2b98 00b8 962e 0a37
00000190: 9cae 2cb8 3d9a 2838 9f0a 3637 bae5 c335
000001a0: eb9f 4737 75a1 8836 b95d 0438 6b45 b5b7
000001b0: 9bb5 c237 ac6a 46b8 3a24 d638 a637 26b6
000001c0: 0120 ca37 02b0 9ab6 e8ae b337 07d8 7e37
000001d0: e027 46b6 e3e9 c736 62a6 b535 3917 8538
000001e0: 4d36 f936 8aea 7b38 8ad8 8d37 7ccd b538
000001f0: 7cd2 77b7 bd45 8937 1d2b f237 b58d 1038
-4.2643074e-05 -2.2308775e-05 4.7793706e-06 6.020828e-07 8.0966365e-06 -4.680469e-06 1.8154054e-05 -8.547391e-06
-4.6504056e-06 -2.1908047e-06 5.1463354e-05 1.44726855e-05 1.3997356e-05 -2.0716412e-05 4.1024425e-05 -5.0652566e-06
-2.2088898e-05 -0.0001142517 -9.089016e-05 -2.5774789e-06 -5.9530184e-06 -1.0101681e-05 -1.1999201e-05 1.3088604e-05
-8.337522e-06 -2.0067953e-06 2.1218826e-05 -5.865997e-06 -7.4819336e-06 -1.0818321e-05 -4.085439e-07 -2.0483149e-05
3.911487e-05 1.1853029e-05 -2.594093e-05 2.8206365e-05 2.7442147e-05 6.30688e-06 1.4672623e-05 -1.1442834e-05
1.1579504e-06 3.1814252e-05 5.4476855e-06 9.21689e-06 -9.715935e-06 -9.990305e-06 6.1776564e-06 2.3160728e-05
1.7692915e-06 2.1389465e-06 6.8975937e-06 8.29523e-06 -9.7412285e-06 1.1051832e-05 7.1264963e-06 0.00014925656
-2.2246608e-05 -1.8281722e-05 -7.394388e-06 5.0667336e-06 4.424121e-05 5.1604025e-06 -9.361782e-06 8.428453e-05
1.2001289e-05 -5.5283667e-06 -3.0112125e-05 -1.3464875e-05 8.778408e-06 1.7649363e-05 3.226006e-05 3.883046e-06
1.1474542e-05 -6.947927e-05 -1.0520401e-05 0.000116922005 6.078551e-06 5.360701e-06 -2.3508084e-05 -4.7377725e-06
-1.9133988e-05 -1.431017e-05 -3.005783e-06 8.416482e-06 6.478581e-06 -7.7701213e-07 3.6257757e-06 5.595756e-06
5.2636842e-05 -1.7489827e-05 -7.4767217e-06 8.797311e-06 1.3217947e-06 -2.9771163e-05 -6.3838033e-06 -8.317442e-06
-4.2842374e-05 -1.3765406e-05 -3.0659296e-05 8.236288e-06 -4.1170613e-05 4.0197967e-05 1.0850518e-05 1.4595491e-06
1.1898558e-05 4.071912e-06 3.155854e-05 -2.1609207e-05 2.3211169e-05 -4.7306225e-05 0.00010211063 -2.476832e-06
2.409518e-05 -4.6100477e-06 2.141991e-05 1.5189878e-05 -2.952751e-06 5.95789e-06 1.3533975e-06 6.34626e-05
7.4270997e-06 6.0061495e-05 1.6909344e-05 8.669027e-05 -1.47713545e-05 1.6364147e-05 2.8868724e-05 3.446425e-05

feature_preprocessing.1.weight f4 [128]
00000000: 3a1e 7a3f aebb 843f 6c12 793f 8f43 7b3f
00000010: dfc2 853f 7ceb 853f ab3b 863f f888 883f
00000020: dfd0 683f afc7 7c3f b10e 783f bf76 723f
00000030: 1b2f 723f ff49 7a3f c3bd 833f f787 763f
00000040: 1ba2 6c3f c1a0 853f ef0c 823f a69a 713f
00000050: 434b 7d3f a974 843f ebaa 833f 88cd 773f
00000060: 77c7 7e3f 9ff8 7e3f 4fda 803f 6323 783f
00000070: 8ae0 713f 3f58 883f d8a5 7b3f 20c5 803f
00000080: f86d 733f cf73 843f 8708 863f 5b1d 803f
00000090: b659 753f 7ac2 6f3f 2aec 813f 64e5 833f
000000a0: 0a82 763f 853b 863f ab1c 803f 1d2c 863f
000000b0: f303 873f d6ad 7d3f b0ad 6d3f 2fcf 873f
000000c0: c2a2 783f bfd2 7a3f 904d 783f b66f 803f
000000d0: 4472 7a3f f106 813f e975 873f 81c4 8d3f
000000e0: c8e0 873f 1eb8 833f a68f 853f 1d20 803f
000000f0: 8e27 853f b263 763f f89f 703f c497 863f
00000100: 8d4e 673f 39af 7a3f 2fe9 773f d847 833f
00000110: ef60 7a3f 7a94 7f3f 6db3 7e3f 2428 733f
00000120: 88b3 833f 327d 923f 30f2 7a3f 6d52 833f
00000130: 7cf5 693f 6db9 843f f103 863f 7802 7b3f
00000140: 7295 7f3f c7d6 853f b95f 7f3f 9953 7b3f
00000150: 392e 823f 7ac2 733f 555a 833f 9b0a 733f
00000160: 411f 7b3f b005 8d3f dfdf 7a3f 38b4 7f3f
00000170: ff78 623f a720 7a3f b950 7e3f 6726 743f
00000180: 1198 853f 4e09 863f 4dfd 833f ffd6 793f
00000190: 84d4 7b3f f903 743f 3d03 883f 32ef 6b3f
000001a0: 8841 873f f3b3 843f 9485 863f a306 803f
000001b0: fba7 823f 2084 853f c1a1 8a3f 4d07 803f
000001c0: 7ee8 813f a1a1 7e3f bb71 863f e63f 783f
000001d0: 43d7 683f cb7c 6a3f 5b46 823f 8dc8 8a3f
000001e0: c59a 6d3f e6cc 873f 9bbd 843f 4173 833f
000001f0: 76cb 823f aff7 7a3f 57c4 7f3f 9985 863f
0.9770237 1.0369775 0.97293735 0.9814996 1.0450095 1.0462489 1.0486959 1.06668
0.9094371 0.98742193 0.9689742 0.9471244 0.9460313 0.9776916 1.0292286 0.96301216
0.92434853 1.0439683 1.0160197 0.943766 0.98942965 1.0348102 1.0286535 0.9679799
0.9952311 0.99598116 1.0066622 0.96928996 0.94483244 1.065193 0.9829993 1.0060158
0.95089674 1.0347842 1.0471352 1.0008959 0.95840013 0.9365612 1.0150197 1.030438
0.96292174 1.0486914 1.0008749 1.0482212 1.054808 0.9909338 0.9284315 1.0610102
0.9712335 0.97977823 0.9699335 1.0034091 0.97830606 1.0080243 1.0582858 1.1075593
1.0615473 1.0290563 1.0434463 1.00098 1.0402696 0.9624587 0.9399409 1.0515065
0.90354234 0.9792362 0.96840185 1.02563 0.9780416 0.9983593 0.9949253 0.94983125
1.0289164 1.1444457 0.980258 1.0259529 0.91390204 1.0369087 1.0469953 0.9805064
0.9983741 1.045617 0.99755436 0.98174435 1.0170356 0.9521862 1.0261942 0.9493806
0.98094565 1.1017361 0.9799785 0.99884367 0.88465875 0.97706074 0.99341923 0.953711
1.0437032 1.047159 1.0311676 0.97593683 0.9837115 0.9531856 1.0625988 0.9216186
1.0566874 1.0367416 1.0509515 1.0002025 1.0207514 1.0430946 1.0830613 1.0002228
1.0149076 0.99465376 1.0503458 0.969725 0.90953463 0.9159667 1.0177721 1.0842453
0.92814285 1.0609405 1.0370363 1.0269548 1.0218341 0.98034185 0.99908966 1.0509521

feature_preprocessing.1.bias f4 [128]
00000000: 01e2 bfbd e0af 253c 447c 9a3c ca85 50bd
00000010: 19cd cd3c 563c 9d3c 551f 8d3c fd6c 203d
00000020: 0f5b b3bd b99f 43bd a48b a0bd 550f 1dbe
00000030: 3d54 f1bc e25e edbc dc6b 93bd 41d6 abbc
00000040: d278 8dbd 01fd 0dbc 3cdb 07be 88ea de3a
00000050: bf54 6bbd fa4a d4bd 0e1e bb3a 6e1a b7bc
00000060: 7d8d 723d a395 8abb 97c1 13bd 8720 393d
00000070: 0dac e3bd ed37 8fbc ac26 edbc 0e6d 58bd
00000080: 81e3 03be 1ac8 bdbd 1e00 d93c faba b0bd
00000090: 6937 0abe 19c3 f1bc 4ba1 e0bc d50b 6dbb
000000a0: e2e3 4dbd af0d 24bd dbe0 13be 64c6 febc
000000b0: 94ea f63b 3a55 8ebd 14f0 0ebd d529 e3bd
000000c0: 29cf dab9 6a85 4abd cd85 24bd 643a 50bd
000000d0: 3470 16bd 231b 17be 3174 19bd 1df6 233d
000000e0: 2a5c 4c3c 24c7 3ebd 124d 57bd 96e9 43bc
000000f0: 4d5f a33d 2c82 2bbd e455 1ebd 2697 983c
00000100: a667 a0bd e256 b4bd 0653 14bd 1cdf a53c
00000110: 2377 9dbc ccf9 a2bd 4488 13bd 4e68 4d3d
00000120: dd87 273d c823 6cbd 810c 41bd c802 4fbd
00000130: 3d31 c7bd 053e ca3b 415f d2ba e8c1 053d
00000140: e5d3 96bd 7f4a 0ebd 133b 5bbd 0061 08bd
00000150: 58e7 f8bc 9f2a 82bd 104b b1bc 90a0 1bbd
00000160: 4948 073b cc0d 61bc 0bdf 6cbd ba87 3dbd
00000170: c79b a0bd 0db2 1ebd ca21 033d a5fa dabd
00000180: fd8e abbd 3bdb f4bd 865e 51bc 506a 1bbd
00000190: b66c d6bd 594b f3bd 6ac0 bebc d343 4ebd
000001a0: 4fd9 87bd 829f b2bb d7ad 763d 8f41 61bd
000001b0: 0c21 09bd 173b a33b ea2c ef3c e51d 88bc
000001c0: 121f 2cbd 8def 24bc 1089 123d 85f1 d3bc
000001d0: b726 bbbd d243 0dbe 415f 66bd 2f16 48bc
000001e0: e320 5cbd 954f d13c c5aa 02be 1a40 c43c
000001f0: bb55 2fbd 1230 403d 30d7 ccbd 284e f9bd
-0.09369279 0.010112733 0.018858083 -0.05090884 0.025122212 0.01919381 0.017226854 0.03916644
-0.087576024 -0.047759745 -0.07839134 -0.1533788 -0.029459113 -0.028975908 -0.07198307 -0.020976188
-0.0690781 -0.008666278 -0.13267225 0.0017007152 -0.057453867 -0.10365863 0.0014275925 -0.02235147
0.059216965 -0.004229264 -0.036073294 0.045197036 -0.111168005 -0.017482722 -0.028949104 -0.052838378
-0.12879755 -0.09266682 0.026489314 -0.08629413 -0.134977 -0.029511975 -0.02742066 -0.0036170383
-0.050266154 -0.040052112 -0.14441244 -0.03110046 0.007535288 -0.069498494 -0.034896925 -0.11091963
-0.00041734547 -0.04944364 -0.040166665 -0.050836936 -0.0367281 -0.14756446 -0.037464324 0.040029634
0.0124731455 -0.046576634 -0.052563734 -0.011957547 0.079771616 -0.04187219 -0.03865613 0.01862676
-0.07832269 -0.08805634 -0.03621199 0.020247988 -0.019221848 -0.07957801 -0.036018625 0.0501483
0.040901054 -0.05765131 -0.047131065 -0.05053976 -0.09726188 0.006171944 -0.0016050116 0.032655627
-0.073646344 -0.034739014 -0.053523134 -0.03329563 -0.03038375 -0.063557856 -0.021642238 -0.03799492
0.002064245 -0.0137362 -0.057829898 -0.046272017 -0.07842212 -0.03874402 0.032014646 -0.10692338
-0.08376882 -0.119558774 -0.012778884 -0.037943184 -0.10469954 -0.11879606 -0.02328511 -0.05035765
-0.06633245 -0.0054511437 0.06022438 -0.054994162 -0.03347878 0.0049814093 0.029196221 -0.016615817
-0.04202182 -0.010066879 0.035775244 -0.025872001 -0.09138244 -0.13795403 -0.056243185 -0.01221232
-0.0537423 0.025550643 -0.12760456 0.023956347 -0.04280637 0.046920843 -0.10001981 -0.1217311

feature_preprocessing.1.running_mean f4 [128]
00000000: 2b3e fc3b 8741 b1bc 693b a33b e0e2 69bc
00000010: 1a2a b3bb 0d9e 983c 7977 973c 92ab 213c
00000020: 0d7c bbbc d227 b0bb 02ef 23bd 4009 c03c
00000030: fa04 cc3c a04d c2bc 1581 18bd b2b7 11bd
00000040: 29c0 a73c c310 0d3c ad84 923b b373 9eba
00000050: 17a3 b73c c453 32bb b4a6 46bc 5744 cf3c
00000060: 7f68 cdbb 3028 12bc 16c4 dfba 898c 393c
00000070: 7065 83bd f49b c4bc cdaa dabc 6225 23bc
00000080: 35e2 a7bc dc62 4c3c 8372 a83c bcff 23bd
00000090: 2ce7 7b3c 9ef1 85bc 99c2 42bc 0d12 833b
000000a0: 986f 44bd 4e56 28bd 57b7 66bc 5c83 bbbc
000000b0: 7b0a 80bc f4a2 073c a22d 6bbd f8e0 b8bc
000000c0: 0dab 033d e15d f7bc 4b79 8bbb 0c0b 043d
000000d0: 30ad ea3b 0878 d0bc 634b 8bbc 1402 85bc
000000e0: deb6 003c d80a c9ba a86f fa3c 1d43 28bd
000000f0: 3110 893b 035f d83c 5b9e 0a3a ac39 0e3c
00000100: d0e9 9bbc 8c49 c0bc 748b 11bd 0bf7 0bbd
00000110: 3b48 783d e996 2e3c 5c17 243c e5c9 9e3c
00000120: df07 24bd 3c6d ab3b a25f 17bd 94ec a5bc
00000130: eed7 20bc a8ba aabc fd2f d2bb 82ba 89bd
00000140: 399e edba abcf 02bd ea24 c5bc eec4 fe3c
00000150: aec2 37bc 4fa2 39bc 3eba 1abc 1311 cb3c
00000160: 0b99 03bc 9f61 a13b e0b0 ddbc ce85 6cbc
00000170: 84b4 54bd 8c74 92bb 4a8c 063d cff2 9f3b
00000180: 1289 62bc 5ad3 10bd e87e e33c 87bc 85bc
00000190: a353 253c 32c3 893b c2b0 b13b 3945 85bc
000001a0: 5d13 b2bc 7842 0ebd d4c6 edbb aa0d 83bc
000001b0: c577 67bb 5454 c83b 4242 b53c 05e8 6dba
000001c0: b633 cb38 8df6 963b 1011 bf3b e290 0b3d
000001d0: 054a 00bd 18f2 f2bc 154a b5ba 8629 e53b
000001e0: 6d8f 82bc 9eb5 cc3b a2b3 d3bc 2a2d 6cbc
000001f0: 9ef8 31bd 8fdb 783b 9cd6 e6bc 9ee9 fb3c
0.0076978407 -0.021637691 0.0049814475 -0.014275283 -0.0054676654 0.018630052 0.018489586 0.009867566
-0.0228863 -0.0053758407 -0.040022857 0.02344191 0.024904717 -0.023718655 -0.037232477 -0.035575576
0.020477371 0.008609953 0.0044713826 -0.0012088924 0.022416634 -0.0027210573 -0.012124706 0.025301142
-0.0062685604 -0.008920714 -0.0017071988 0.01132501 -0.06415832 -0.024000145 -0.026692772 -0.009957643
-0.020493606 0.012474742 0.020562416 -0.04003881 0.01537494 -0.016350564 -0.011887216 0.0039999546
-0.047957987 -0.04109793 -0.014081798 -0.022889785 -0.015629997 0.008278597 -0.057416566 -0.022568211
0.03214555 -0.030196132 -0.0042564026 0.032237098 0.007161759 -0.02544786 -0.01700372 -0.016236342
0.007856099 -0.0015338315 0.03057082 -0.04107963 0.0041828384 0.026412493 0.0005287879 0.008680742
-0.019032389 -0.02347257 -0.035533383 -0.034171145 0.06061576 0.010656097 0.010015335 0.01938338
-0.04004657 0.0052315276 -0.036956437 -0.02025441 -0.009817107 -0.020840958 -0.006414412 -0.06725027
-0.0018128819 -0.03193633 -0.024065454 0.031099763 -0.011215849 -0.011330201 -0.009443818 0.024788415
-0.008032094 0.0049249674 -0.02706188 -0.014436198 -0.051929966 -0.00446946 0.032848634 0.00488124
-0.013826625 -0.03535781 0.027770475 -0.016325248 0.010090741 0.0042041773 0.0054226825 -0.01626836
-0.021737749 -0.03473136 -0.007256368 -0.015997726 -0.003531919 0.0061135683 0.02212632 -0.0009075406
9.689426e-05 0.004607028 0.0058308914 0.034073718 -0.03132059 -0.029656455 -0.0013831282 0.0069934754
-0.015937531 0.0062472364 -0.025842492 -0.014415065 -0.04344999 0.0037972664 -0.028178506 0.030751046

feature_preprocessing.1.running_var f4 [128]
00000000: 5937 c33e 6eee 9d3e 1bf2 1b3f 912b 973e
00000010: 3bb6 4e40 f65b 8c3f 495e 9b3e f701 0a40
00000020: 513b 9140 4443 873f 36b7 653f edf9 2e3f
00000030: a343 b43f 29e2 a13e 8f94 c63e cdad 513f
00000040: b85a 013f 6125 583e 7a19 b83e 82a9 1040
00000050: 350f a740 9227 343f c769 a13f 829a b63e
00000060: 9583 2c3f ffce cf3f 8c87 4c3f f732 1040
00000070: 109b 803f 5ed5 433e 95a9 5a3f 381d 4c3f
00000080: a56f bf3e 2676 8a3e 083b 6a3f 99a5 003f
00000090: 306c 553f 2033 bf3f 3dd3 173f 6d17 403f
000000a0: 6771 103f c81e da3f 630a 953e 8bd4 b03e
000000b0: fbaf c73e 1473 9c3e aade b63f 0ed8 e03e
000000c0: 66b1 1140 9355 4240 ff84 f73f f0b7 fe3e
000000d0: 6931 893e 9d76 053f 4324 b83e bdc4 8f3e
000000e0: 9032 cc3e 73a1 333f 97a4 1340 62ee 8c3f
000000f0: 7a64 0e3f bb20 4140 82ba de3e b4c1 003f
00000100: a47d 0241 dd18 ef3e 51f8 b13f 33b5 d840
00000110: cc80 2540 1ea0 803e faeb 9e3e b362 5d3f
00000120: 432a 833f 0530 e93e 2eff a73f 893a ff3e
00000130: eb2b 9240 20ad a43e 91a7 bf3e 8187 0740
00000140: e246 d13e c15a f03e 6212 fc3e ecf5 0d3f
00000150: 3ff8 e73e 2099 f83e c3d0 ba3e f6fb 8f40
00000160: fd87 8b3f fa77 5b3f 7175 093f fc5f ae3e
00000170: 10f5 2440 870e 433e 8223 0040 d466 3d40
00000180: 2fdd 343e a5d2 b93e 1cc6 e83f cb0f 7d3e
00000190: fafa d93e 104f c03e 92a8 963e 1454 bf40
000001a0: 793f 2f3f 194a 823e ae31 223f 37da f53e
000001b0: 2307 933f dd5e 0a3f 03b1 973e 6304 7b3f
000001c0: bf8e 013f a2ec 2940 05c8 9c3f 2833 123f
000001d0: ec8d 5440 59f3 853f 69f4 e43e 332c 073f
000001e0: 0596 b83e 2dde 663f 3d09 233f d59e 683e
000001f0: 07d6 023f bd49 af3f 9c2e 363f 7736 993f
0.38128164 0.3084597 0.609163 0.29525426 3.2298725 1.0965564 0.3034537 2.15637
4.538491 1.0567403 0.8973268 0.68350106 1.4083141 0.3161786 0.38785216 0.81905824
0.5052905 0.21108009 0.35956937 2.260346 5.2206063 0.7037288 1.2610406 0.35664755
0.6738828 1.6235045 0.7989433 2.2531106 1.0047321 0.19124362 0.8541501 0.79732084
0.37389866 0.27043265 0.91496325 0.5025268 0.83368206 1.4937477 0.593067 0.75035745
0.5642304 1.7040644 0.29109487 0.34537157 0.3900145 0.30556548 1.4286702 0.43914837
2.2764525 3.036473 1.9337462 0.49749708 0.2679551 0.52134115 0.35965165 0.28079787
0.39882326 0.70168227 2.3069208 1.1010249 0.55622065 3.0176227 0.4350167 0.5029557
8.155674 0.46698657 1.3903905 6.772119 2.5859861 0.2512216 0.3103941 0.8647873
1.0247272 0.45544448 1.312475 0.49849346 4.567861 0.32163334 0.3743253 2.1176455
0.40874392 0.4694424 0.49232775 0.5545337 0.45306584 0.48554325 0.36487398 4.499507
1.0900875 0.85729945 0.53694826 0.34057605 2.5774574 0.1904851 2.0021672 2.9594011
0.176625 0.36293522 1.8185458 0.24713056 0.42574292 0.3756032 0.29425484 5.9790134
0.68456227 0.25447157 0.63357055 0.48018047 1.1486553 0.54051 0.29627237 0.9805357
0.5060844 2.655068 1.2248541 0.5710931 3.3211622 1.0464889 0.4471772 0.5280182
0.36051956 0.90182763 0.6368597 0.2271684 0.5110783 1.3694378 0.7116487 1.1969746

bilstm.weight_ih_l0 f4 [256, 128]
00000000: d74d af3d b237 1e3d 5857 58bd b192 3e3d
00000010: 3a1c 7c39 7c09 34bd 5c55 0fbd 0cd5 93bd
00000020: 4d64 783d 3ed1 6dbd dfa4 6dbd 348e e13c
00000030: a437 cabd 0b80 cc3d aa0e 223d 990b 033c
00000040: 8f60 0f3d 9267 b7bd 44d8 9bbd 0503 4f3d
00000050: 4489 773d bf87 053e b535 2e3b 7f83 1abb
00000060: 2046 123e 91d1 b03c 9d5a d73d 8e04 073d
00000070: 05a9 dd3c d67c cabc 1e58 883d 693f 8cbd
00000080: c6fa 73bd 2410 db3d 1e92 82bd a4e1 39bd
00000090: 8a3c 75bd 2820 703c c5af a4bc 9cf3 a1bc
000000a0: 7054 28bd 6069 d73d b9a8 fcbc e074 6f3d
000000b0: 1caf 423e 27f5 423c 7280 e0bd ef79 3e3d
000000c0: aadb 9abd 3920 a3bd c4ca 4ebd c1ac 80bd
000000d0: a1b5 6f3d 5e24 0a3e aa2e 97bd f11b c03d
000000e0: 07bf 2f3e 236d 073e c6fa 973d 886c 8d3d
000000f0: 66ea 65bd 0d6f a1b9 8018 b73d 3036 813c
00000100: 73d3 90bb d21d 96bd 33b3 74bd 45fa 873d
00000110: 66aa 853d 192a 26bd b44a c1bd 80c6 6e3d
00000120: d60b 183d a7d0 143c 27f4 bd3c 26d4 8d3d
00000130: cacf d63c 5249 debc b577 dcbd 1266 223d
00000140: 0b61 45bc 1efa 023d 2fae b3bc c86e 443b
00000150: 3fce 9e3d 0789 1c3c 0807 b0bd a154 f93d
00000160: e4f1 e3bc 3240 8cbd 9e26 26b9 281d 303e
00000170: 6520 c0bd 79f5 47bc 3e13 bf3d 49a0 4abd
00000180: 2378 2abd 042f d0bd 41e6 cb3d 6187 be3d
00000190: 8374 e4bc 9e78 913c 52bd 723d 7aa6 863d
000001a0: a79e 823c 19af 6a3c bd0a a4bd d9ed 3c3d
000001b0: c72c 393d ebf8 0e3b 986e 043e 7b40 a73d
000001c0: 3faf 0e3e decc 5d3d 6095 b4bd 4698 9e3d
000001d0: bca0 a33d e17f c6bc 7b6c e5bd 6d97 85bd
000001e0: dda3 c43d 0681 653d 09e2 3a3d e69a 18bd
000001f0: 305c a0bd 447e 38bd 440b 32be 16d7 bc3d
00000200: 5bab 81bc ee92 ce3b 36c7 9abd cbb4 b83c
00000210: c9e1 d8bd 458d e13d 5c9f cb3d 71a7 8abd
00000220: ba6b 09bd 1671 d93b fab3 dc3d cd99 04bc
00000230: ede6 eb3c 8dc1 a73c c447 193d 2362 aabd
00000240: 4cf5 e93d 39f7 f73b d6d4 83bc b10b b3bc
00000250: c975 00bb 0683 e2bc 7a37 09bd 4916 df3c
00000260: 4dc4 bfbd e853 0fbd 61a6 313d bc84 adbc
00000270: f951 bd3d 609f 993d 78da ee3d db67 0f3d
00000280: 7451 223a ac4c 00bd 9d75 67bd b0d6 e1bd
00000290: 5abc 0cbd f18f ab3d dd44 a43d 43de 153d
000002a0: abc0 963d f66b 583d 33c0 2e3d 8d6a c6bd
000002b0: 1a76 ecbd 8534 f5bd a6a6 c0bd 444d 0bbe
000002c0: 71cf 2cbc 653c 02be 22e5 a43d a997 903d
000002d0: 61db efbc bcfc e2bd c628 4abd 0fde 593c
000002e0: 71eb d6bd d684 ce3c 7908 6fbd 519e 3bbd
000002f0: 2ef9 84bd 05b4 acbd 9816 c23d a93f dbbd
00000300: 2caa ea3c b57b 753c 7be8 8dbd be5b 06be
00000310: eb60 7fbd f6aa cdbd 986b 14be 8f8d d8bc
00000320: 8460 8e3d 3992 f5bd 8176 b4bc fe9b b9bc
00000330: 0316 cb3d b5c8 3e3d 9c6b 98bd 99f3 a13c
00000340: 42eb 64bd 4248 d9bd 4556 bcbd fd6c 8abc
00000350: 25e9 c3bd 998a eabc 7915 483d b846 7d3b
00000360: 9f30 883c 8903 b93c b5d7 123d cb92 b23d
00000370: b8a6 8abd 74ee c4bd 5f7a 653d de9c 863d
00000380: f70c 193e 594f 41bd 2c88 8e3c 90d1 893d
00000390: d7f7 83bd 24a6 fabb fcd8 c43c e13f d8bd
000003a0: 7d9b 8a3b 27af 3dbd 7809 13be fe50 cbbc
000003b0: c6bd efbd 326a c93d 10c3 6fbd 5e15 c6bd
000003c0: a10c b3bd 9152 9d3d 4302 01be fca6 02bd
000003d0: 9f21 b239 ec53 ac3d 7480 55bd 2c34 aabd
000003e0: 0a9e cdbd b0e3 e1ba 2089 42bd a5f0 03bd
000003f0: 0888 6b3d 5d4f 5ebd 00d6 8c3d f3bf 953d
0.08559769 0.038627334 -0.052817672 0.046526615 0.00024043108 -0.043954358 -0.034993514 -0.0721837
0.06064253 -0.058060877 -0.05801856 0.027533628 -0.09873894 0.0998536 0.039564766 0.007998371
0.035004195 -0.08955301 -0.07609609 0.05053999 0.06043364 0.13040064 0.0026582305 -0.0023576913
0.14284563 0.021584304 0.1051533 0.032963328 0.027058134 -0.02471773 0.06657432 -0.06848032
-0.059565328 0.10696438 -0.06375526 -0.045381203 -0.059872188 0.014656104 -0.020103345 -0.019769482
-0.04109615 0.105181456 -0.030842172 0.05846107 0.19012111 0.011899269 -0.10961999 0.046503004
-0.07561429 -0.0796513 -0.05048634 -0.0628295 0.058522824 0.13490435 -0.07381947 0.093803294
0.17162715 0.13225226 0.07420878 0.06905466 -0.056131743 -0.00030791052 0.0894022 0.015772909
-0.004419738 -0.073299065 -0.05974121 0.06639532 0.065266415 -0.04056749 -0.094380766 0.058294773
0.037120663 0.00908295 0.02318771 0.0692523 0.026222128 -0.027134571 -0.1076502 0.039648123
-0.012047063 0.03197681 -0.021933643 0.0029973257 0.07754182 0.009554154 -0.08595091 0.12174345
-0.027825303 -0.06848182 -0.0001584538 0.17198622 -0.09381179 -0.012204521 0.09329842 -0.049469266
-0.041618478 -0.101652175 0.09956027 0.09303165 -0.027887588 0.01775771 0.05926258 0.06574722
0.015944792 0.014323973 -0.08009861 0.046125267 0.04520872 0.0021815847 0.12932813 0.081665955
0.13934039 0.054150455 -0.088175535 0.077438876 0.07989642 -0.0242309 -0.11202332 -0.06523023
0.09601567 0.05603125 0.04562572 -0.037257098 -0.07830083 -0.04504229 -0.1738711 0.09220712
-0.015828779 0.0063041365 -0.07557528 0.022547146 -0.1058994 0.11013273 0.09942505 -0.06770218
-0.03355 0.0066357953 0.10776515 -0.00809331 0.028796637 0.020478034 0.037421957 -0.08319499
0.1142374 0.007567313 -0.016092699 -0.02185616 -0.0019601455 -0.027650367 -0.033500172 0.027232306
-0.09363613 -0.03499213 0.043371562 -0.021181457 0.09244151 0.075011015 0.11662763 0.035011154
0.0006191947 -0.03132312 -0.05650865 -0.110272765 -0.034359314 0.08377064 0.08020947 0.03658892
0.07360967 0.052837335 0.042663764 -0.09688292 -0.115459636 -0.11972908 -0.09406786 -0.13603693
-0.010547505 -0.12718351 0.08051516 0.07060177 -0.029279413 -0.110833615 -0.04935529 0.013297572
-0.10494126 0.025209825 -0.05835769 -0.04580528 -0.0649284 -0.084327735 0.09476966 -0.107055016
0.028645597 0.014983107 -0.06929108 -0.13120934 -0.062348288 -0.10042374 -0.14494169 -0.026434688
0.06952003 -0.119907804 -0.022029163 -0.02265739 0.09916308 0.046578128 -0.074424 0.019769477
-0.05588842 -0.10609485 -0.09196142 -0.016897673 -0.09565953 -0.028630542 0.048848603 0.0038646888
0.016624747 0.022584694 0.035850246 0.08719405 -0.0677008 -0.09615794 0.056024905 0.06572889
0.14946352 -0.047194812 0.017398916 0.06729424 -0.06443756 -0.0076492 0.024029247 -0.10559059
0.0042299614 -0.046309616 -0.14359081 -0.024818894 -0.11706118 0.09834708 -0.058535635 -0.09672044
-0.08742643 0.07681764 -0.12598519 -0.03189753 0.00033975855 0.08414444 -0.052124456 -0.08310732
-0.10039909 -0.0017233994 -0.047494054 -0.03221192 0.057502776 -0.054274905 0.06876755 0.07312002

bilstm.weight_hh_l0 f4 [256, 64]
00000000: 3a5c 0580 6987 0500 d559 0500 31af 0500
00000010: 005d 0500 8168 0580 2760 0580 7157 0500
00000020: 44e3 0500 2c59 0580 89dc 0500 e067 0500
00000030: 5864 0580 d664 0580 3775 0500 af63 0500
00000040: ea5b 0580 fb68 0500 fc5e 0500 2f69 0580
00000050: a18a 0500 69c9 0580 747c 0500 3097 0580
00000060: 2b99 0600 4975 0500 6e63 0580 1d64 0500
00000070: e7b6 0580 c190 0580 0c5e 0500 095c 0500
00000080: a25b 0580 e265 0500 c1a5 0500 015d 0500
00000090: f85f 0500 36b0 0680 22a0 0500 8c04 0600
000000a0: d76b 0580 faa5 0580 3d9d 0580 025d 0580
000000b0: 8163 0580 8980 0500 fb67 0600 165a 0580
000000c0: 9842 0600 06bb 0500 7061 0680 4876 0500
000000d0: b0c0 0500 4272 0580 546b 0680 0998 0580
000000e0: d892 0580 ce69 0500 5b0b 0600 d195 0500
000000f0: c66f 0500 4063 0500 816c 0500 705d 0580
00000100: 5660 0500 92b7 0500 bda5 0680 ef63 0580
00000110: 5286 0500 bf6c 0580 7762 0500 3cfb 0500
00000120: a96a 0580 7792 0580 edcf 0500 f078 0580
00000130: 1f6f 0580 1e6b 0580 8041 0600 3584 0500
00000140: 5f6b 0580 79e2 0580 5e68 0580 df58 0580
00000150: 8b7b 0580 a257 0580 c85a 0500 d793 0580
00000160: 616b 0500 72f9 0500 03b7 0580 e812 0680
00000170: 11df 0580 195b 0580 3062 0580 7c86 0580
00000180: 556a 0580 676c 0580 ab5a 0580 b031 0680
00000190: 1965 0500 ff9c 0580 9861 0580 876c 0500
000001a0: c054 0600 d9d0 0580 e363 0580 a696 0580
000001b0: f76e 0580 c060 0500 bd5a 0580 7c5b 0580
000001c0: 4558 0580 e53e 0680 8566 0500 d061 0580
000001d0: 0ea8 0580 335e 0500 c05e 0500 a2b6 0580
000001e0: 4a6d 0500 307d 0580 3968 0580 91de 0500
000001f0: e562 0580 848d 0500 2667 0500 5c65 0500
00000200: 3d61 0500 e998 0580 b55b 0500 426a 0500
00000210: 35c8 0580 4764 0580 f1ab 0580 2c6b 0500
00000220: f557 0500 20a6 0500 9b87 0500 f666 0580
00000230: e68d 0500 c55d 0500 fb79 0680 0582 0500
00000240: 206b 0580 956b 0500 8981 0500 7e61 0580
00000250: d275 0500 7cb8 0600 8466 0500 dd08 0680
00000260: 5666 0500 5662 0580 1e15 0600 d887 0580
00000270: 295b 0500 da6c 0500 4957 0500 7a55 0680
00000280: 2d65 0500 1f62 0580 8a66 0500 5b67 0580
00000290: a55c 0580 4e5e 0580 2ba6 0680 38ca 0580
000002a0: e8aa 0580 15b2 0580 105d 0580 e268 0580
000002b0: 4c63 0500 95b7 0500 28da 0600 ee5a 0580
000002c0: 8b7e 0580 c589 0580 0276 0600 c292 0500
000002d0: 687e 0580 b1c3 0580 f07d 0500 3459 0500
000002e0: 4461 0580 8871 0580 7996 0600 3569 0580
000002f0: 9e5e 0500 5b90 0500 db6b 0500 23d0 0580
00000300: 1467 0580 296a 0500 dca8 0680 b76c 0500
00000310: 1767 0500 c45d 0580 7673 0500 997e 0500
00000320: e1ef 0500 3c67 0500 7489 0580 3abe 0580
00000330: 086d 0500 7164 0500 84a0 0500 df67 0580
00000340: 4857 0580 21db 0680 c787 0580 11ee 0500
00000350: 805d 0580 695e 0500 9e64 0500 9561 0580
00000360: 679d 0580 cd51 0680 5e59 0500 f261 0580
00000370: 9567 0500 4231 0680 265d 0580 df5e 0600
00000380: 9663 0500 f714 0600 b097 0580 af89 0580
00000390: 57d2 0500 908e 0580 22e6 0580 d11e 0680
000003a0: 3269 0580 8027 0600 015b 0500 d364 0580
000003b0: 46aa 0580 e057 0680 b20f 0600 8c59 0500
000003c0: b339 0680 20b1 0500 af99 0500 c75a 0500
000003d0: 311c 0600 0262 0500 5368 0500 b869 0580
000003e0: b967 0500 1c68 0580 e15a 0500 193c 0680
000003f0: b458 0500 ae60 0680 756a 0580 ea5d 0580
-4.92262e-40 5.07753e-40 4.91403e-40 5.22024e-40 4.9254e-40 -4.96666e-40 -4.9367e-40 4.90546e-40
5.40705e-40 -4.91166e-40 5.3829e-40 4.96441e-40 -4.95174e-40 -4.9535e-40 5.01226e-40 4.94937e-40
-4.9215e-40 4.96837e-40 4.93251e-40 -4.9691e-40 5.08908e-40 -5.3143e-40 5.03823e-40 -5.13413e-40
6.05959e-40 5.01251e-40 -4.94846e-40 4.95091e-40 -5.2479e-40 -5.11105e-40 4.92915e-40 4.92193e-40
-4.92049e-40 4.95726e-40 5.18639e-40 4.92541e-40 4.93605e-40 -6.14226e-40 5.16622e-40 5.52644e-40
-4.97863e-40 -5.18719e-40 -5.15584e-40 -4.92542e-40 -4.94873e-40 5.05287e-40 5.88314e-40 -4.91494e-40
5.74902e-40 5.26269e-40 -5.85967e-40 5.01609e-40 5.28301e-40 -5.00165e-40 -5.89515e-40 -5.13717e-40
-5.11855e-40 4.97133e-40 5.55087e-40 5.12921e-40 4.99274e-40 4.94782e-40 4.98101e-40 -4.92697e-40
4.93736e-40 5.2503e-40 -6.10469e-40 -4.95027e-40 5.07363e-40 -4.98188e-40 4.945e-40 5.49303e-40
-4.9744e-40 -5.11719e-40 5.33767e-40 -5.02562e-40 -4.9904e-40 -4.97604e-40 5.7451e-40 5.06604e-40
-4.97695e-40 -5.4042e-40 -4.96617e-40 -4.91058e-40 -5.03496e-40 -4.90614e-40 4.91744e-40 -5.12212e-40
4.97698e-40 5.48662e-40 -5.2483e-40 -5.57795e-40 -5.39199e-40 -4.91857e-40 -4.944e-40 -5.07421e-40
-4.97322e-40 -4.98065e-40 -4.91703e-40 -5.68837e-40 4.95444e-40 -5.15497e-40 -4.94188e-40 4.9811e-40
5.81416e-40 -5.34098e-40 -4.9501e-40 -5.1322e-40 -4.98984e-40 4.93885e-40 -4.91728e-40 -4.91996e-40
-4.90843e-40 -5.73575e-40 4.95955e-40 -4.94266e-40 -5.19464e-40 4.9297e-40 4.93167e-40 -5.24694e-40
4.98383e-40 -5.04086e-40 -4.96566e-40 5.39019e-40 -4.94654e-40 5.09944e-40 4.9618e-40 4.95538e-40
4.9406e-40 -5.14031e-40 4.92076e-40 4.97296e-40 -5.30998e-40 -4.9515e-40 -5.20858e-40 4.97624e-40
4.9073e-40 5.18772e-40 5.07824e-40 -4.96113e-40 5.10081e-40 4.92816e-40 -5.94771e-40 5.0582e-40
-4.97607e-40 4.9777e-40 5.05646e-40 -4.94151e-40 5.01443e-40 6.17194e-40 4.95953e-40 -5.54193e-40
4.95889e-40 -4.94454e-40 5.58588e-40 -5.07909e-40 4.9188e-40 4.98226e-40 4.9049e-40 -5.81676e-40
4.95473e-40 -4.94377e-40 4.95962e-40 -4.96254e-40 -4.92412e-40 -4.93008e-40 -6.10623e-40 -5.3172e-40
-5.20487e-40 -5.23061e-40 -4.92562e-40 -4.96802e-40 4.94798e-40 5.25034e-40 6.29273e-40 -4.91797e-40
-5.04573e-40 -5.086e-40 5.93346e-40 5.11824e-40 -5.04523e-40 -5.29378e-40 5.04355e-40 4.91178e-40
-4.9407e-40 -4.99905e-40 6.04992e-40 -4.96919e-40 4.9312e-40 5.10962e-40 4.97869e-40 -5.33843e-40
-4.96155e-40 4.9726e-40 -6.11588e-40 4.98177e-40 4.96159e-40 -4.92814e-40 5.00597e-40 5.04592e-40
5.4523e-40 4.96211e-40 -5.08486e-40 -5.27418e-40 4.9829e-40 4.95209e-40 5.1676e-40 -4.9644e-40
-4.90488e-40 -6.29622e-40 -5.07885e-40 5.4458e-40 -4.92719e-40 4.93045e-40 4.95272e-40 -4.94183e-40
-5.15643e-40 -5.80358e-40 4.91236e-40 -4.94314e-40 4.96336e-40 -5.68683e-40 -4.92593e-40 5.85046e-40
4.94902e-40 5.58534e-40 -5.13593e-40 -5.08569e-40 5.34633e-40 -5.10319e-40 -5.41734e-40 -5.62068e-40
-4.96914e-40 5.65183e-40 4.91824e-40 -4.95346e-40 -5.2026e-40 -5.82537e-40 5.56643e-40 4.91301e-40
-5.71712e-40 5.22718e-40 5.14309e-40 4.91742e-40 5.61126e-40 4.94336e-40 4.96602e-40 -4.97102e-40
4.96386e-40 -4.96525e-40 4.91779e-40 -5.72572e-40 4.90998e-40 -5.85695e-40 -4.97367e-40 -4.92867e-40

bilstm.bias_ih_l0 f4 [256]
00000000: 234d d9bd f438 3ebe 1c4a da3d ea44 fb3c
00000010: 5015 2dbd 5eac 8c3d e8db d43c 26c7 b73d
00000020: e865 2e3d 99f3 80bd ccd1 66bc 9f21 f93d
00000030: b717 89bd 32b9 d03c f1a1 bcbd 0bb3 7c3c
00000040: 3276 253d ce41 ddbd 0acf 19bd 68aa c3bc
00000050: 73e3 bdbc 4510 f9bd 8bf3 d4bd ceb7 edbd
00000060: 6ad1 a23d 84be bfbd a8b0 e2bd d70d 863d
00000070: 4823 14bc 2a7f a6bd d185 c23c 4a2f 5abb
00000080: dafb 64bd 314d 16bc 9dba dabc c21d 0ebc
00000090: e172 34bb f945 16bd cee6 e8bd 1cf7 753d
000000a0: e058 e1bd 036a 063d fd86 083d 6091 843d
000000b0: 6da8 bdbb d50c 053c 8598 563d f7c2 11be
000000c0: 9c34 56bd 619d 3b3d b8d1 c23d fd0b ff3d
000000d0: abc3 c13d e610 8e3d 8fa3 96bd a7dc 6d3d
000000e0: 0bd2 803b 90c7 d8bd f25e 0fbc f237 d6bc
000000f0: d2c2 9dbd 1974 463c 8e33 423d c76a 8e3d
00000100: 417e 0500 337d 0580 3a45 0680 1c5f 0500
00000110: d486 0580 d65b 0580 955e 0580 9d4c 0600
00000120: 5a47 0680 646d 0580 0629 0600 33d0 0680
00000130: 5591 0580 e35d 0580 595b 0500 5b78 0500
00000140: 666e 0580 88c9 0580 74fb 0580 d9aa 0500
00000150: 1e61 0500 7462 0580 987e 0500 e296 0580
00000160: 425e 0500 b5ab 0500 ab60 0580 a967 0500
00000170: e778 0500 b737 0600 d2d0 0600 8bb9 0580
00000180: 5b5f 0500 aebc 0580 d767 0500 e264 0500
00000190: 268c 0600 9472 0500 de9d 0680 46a1 0500
000001a0: 9cb2 0500 5c9c 0580 4b72 0500 cf62 0680
000001b0: 955d 0500 68a6 0600 7559 0580 5267 0580
000001c0: cbfc 0500 4e68 0580 0798 0500 6f74 0580
000001d0: b904 0600 6c88 0580 7822 0600 f67a 0500
000001e0: 098e 0580 4886 0600 ab60 0500 9662 0500
000001f0: f35d 0500 9e65 0500 b46c 0500 fa64 0500
00000200: 8269 b43d 8f08 c13d 8f1e b83d 0cfd 293c
00000210: f390 2a3d 1653 bd3d 663d 0dbe d415 26bd
00000220: fea0 d3bd 2330 e3bb a937 c3bc d7de cebd
00000230: 3c1b 0bbc 5fb4 413d 6353 2cbc 018e 46bd
00000240: 3570 89bd b732 973d c33f b4bb e77a 7e3d
00000250: bad2 073e 9c81 eebc 891f 13bd d934 a93d
00000260: 1363 4e3c 9988 12be 546a 5aba 6ddc d1bd
00000270: dcf6 d43d 0829 1bbc 69fa 8d3c fe72 283c
00000280: 17ae 73bc 6377 09be a56f 5a3d 6f4b d1bd
00000290: b0b1 253d 8409 ebbc 91ed b43d b5c0 a8bd
000002a0: ddf7 a63c d3df 863d 7710 68bc bff2 00be
000002b0: b1e5 d2bd bf58 ca3d 2a09 2abd 6784 1f3e
000002c0: 6c41 91bd 4aee 4e3e 2530 9bbc 4839 a33d
000002d0: fe5e 523d d7eb fd3b bf46 77bd 9be2 b7bb
000002e0: b7ff 2bbe f502 b03d f87e a2bd ee7b 05be
000002f0: 7312 073e c1ec 4e3c 65d2 ff3d e061 1ebd
00000300: 907c a13d 8e18 83bc 10b3 32bd 8dec c73d
00000310: 4f0d c33d 784a 45bc 3bac 1cbe b7f6 4d3c
00000320: 0ab2 bcbc a548 6bbd 55d0 57bd 591b 91bd
00000330: ccfd c1b9 7054 3eb9 43b9 933c 9912 ab3d
00000340: 7267 00bd 0413 c8bd c556 f9bd 93be af3d
00000350: b1a5 063e d875 2c3d 103c db3d 91b8 3abd
00000360: 6535 85bd 14fc e03c 1aee f9bd 44ab 8d3d
00000370: 91a2 00be 47c4 e83d a9c2 ac3d 63bf 9abd
00000380: 3667 b53c 3fba cdbd b50c 233e a4c1 843d
00000390: 8241 d33d 3890 953c cbe5 efbd bb4c afbd
000003a0: 0495 ac3d e05a babd e8e2 a2bb af43 c6bc
000003b0: eae0 473d de6b aebd a244 b8bd f8f4 b6bc
000003c0: 871b fc3c 8ccc 5b3d a6cb c7bd d846 413d
000003d0: 8df7 51bc 835e a6bd 6eba 0cbe 8bc2 4a3d
000003e0: 886d dc3d e276 25bc 5a39 33bd b079 b03d
000003f0: 728f 4bbd 605a b2bc e735 aa3d 5bdd 3c3d
-0.10610416 -0.18576413 0.106586665 0.03067251 -0.042256653 0.06868814 0.025983766 0.089735314
0.042577654 -0.062964626 -0.014088105 0.12164616 -0.06693976 0.025478933 -0.09210575 0.015423547
0.040395923 -0.10803567 -0.037550963 -0.023884967 -0.023179745 -0.12161306 -0.10398015 -0.116073236
0.07950099 -0.0936251 -0.11068851 0.065456085 -0.009041615 -0.08129723 0.02374545 -0.0033292347
-0.055904247 -0.009173677 -0.026700312 -0.008674087 -0.0027534293 -0.036687825 -0.113721475 0.060050115
-0.1100328 0.032815944 0.03333186 0.064730406 -0.0057879 0.008120735 0.052391548 -0.1423453
-0.052296266 0.045804385 0.09512657 0.124534585 0.09461149 0.06936817 -0.07355415 0.05807176
0.003931289 -0.105849385 -0.008750664 -0.026149724 -0.07703175 0.012112641 0.047412448 0.0695396
5.04469e-40 -5.0409e-40 -5.75847e-40 4.93296e-40 -5.07545e-40 -4.92122e-40 -4.93107e-40 5.78497e-40
-5.76609e-40 -4.9842e-40 5.6573e-40 -6.25701e-40 -5.11313e-40 -4.92858e-40 4.91947e-40 5.02353e-40
-4.98781e-40 -5.31473e-40 -5.49382e-40 5.20466e-40 4.94017e-40 -4.94496e-40 5.04591e-40 -5.13304e-40
4.92991e-40 5.20774e-40 -4.93855e-40 4.96364e-40 5.02549e-40 5.71e-40 6.25924e-40 -5.25738e-40
4.93385e-40 -5.26863e-40 4.96428e-40 4.95367e-40 6.01289e-40 5.0028e-40 -6.07645e-40 5.17031e-40
5.2325e-40 -5.15269e-40 5.00178e-40 -5.86459e-40 4.92748e-40 6.10708e-40 -4.91269e-40 -4.96242e-40
5.49863e-40 -4.96595e-40 5.13715e-40 -5.00946e-40 5.52707e-40 -5.08116e-40 5.63378e-40 5.03288e-40
-5.1013e-40 5.99184e-40 4.93855e-40 4.94543e-40 4.9288e-40 4.95631e-40 4.98173e-40 4.95401e-40
0.088091865 0.094254605 0.089902036 0.0103752725 0.04164214 0.09244363 -0.13792953 -0.04054816
-0.10333441 -0.0069332286 -0.023830252 -0.10101097 -0.00849038 0.047291156 -0.010517928 -0.04847527
-0.06710855 0.0738272 -0.005500765 0.062128928 0.1326398 -0.029114537 -0.035918746 0.08262033
0.012596863 -0.1430992 -0.0008331884 -0.10247121 0.10398647 -0.009470232 0.017331319 0.0102813225
-0.014873049 -0.13424449 0.05332913 -0.10219466 0.04045266 -0.02869106 0.08834375 -0.08239881
0.020381862 0.0658566 -0.014164082 -0.125926 -0.102977164 0.09880208 -0.041512646 0.15577851
-0.07092556 0.20208088 -0.018943856 0.0796991 0.051360123 0.0077490616 -0.060370203 -0.0056117303
-0.16796766 0.08594314 -0.079343736 -0.13035557 0.13190632 0.012629689 0.124913014 -0.03866756
0.078850865 -0.01600292 -0.0436278 0.09761915 0.09524023 -0.0120416805 -0.15300076 0.012571028
-0.023034114 -0.057442326 -0.052688915 -0.07085294 -0.00037000922 -0.00018151267 0.018032676 0.083531566
-0.031348653 -0.09769252 -0.12174753 0.08581271 0.13149144 0.042104572 0.107048154 -0.045586172
-0.06504325 0.02746395 -0.122036174 0.06917432 -0.12562014 0.11365562 0.08435566 -0.07556035
0.022143941 -0.10045289 0.15922816 0.064822465 0.10315229 0.018257245 -0.117137514 -0.08559557
0.0842686 -0.09099364 -0.004970897 -0.024202196 0.04879848 -0.08516668 -0.08997466 -0.022333607
0.030774845 0.053661868 -0.0975564 0.047186702 -0.012815368 -0.081234954 -0.13742992 0.049501937
0.10763079 -0.010099145 -0.043755867 0.0861696 -0.049697347 -0.02177161 0.08311062 0.04610954

bilstm.bias_hh_l0 f4 [256]
00000000: a196 573d 0696 2bbd f410 7cbd 1bd7 e13d
00000010: f519 0e3e b297 763d f491 afbd a52b f2bd
00000020: 29af f7bb 8eb7 dd3d 40a9 e4bd 4ffd c73d
00000030: 3ee5 10be 8bc9 af3d a269 0bbe 0f38 a0bb
00000040: 467e 8dbd 5ecf 913c 5d40 ca3d 104d 783d
00000050: 4613 193d 467f 913a b630 cbbd 4d92 dabd
00000060: bc23 48bd 57c0 fb3c fc7d acbc 7d07 8c3c
00000070: 5199 fdbd bba2 8fbb 03b0 d1bd 4446 f83c
00000080: 93e7 c3bc 7eb5 04bc 91f5 733d af3e 0dbe
00000090: e1e0 dc3d e12e adbd 4601 f2bd 6e83 26bd
000000a0: 246d c2bd c9b8 dabd b150 e5bd e382 f03d
000000b0: a886 653d 8359 dfbb 3ca5 c3bd 0518 c4bd
000000c0: 5db3 d53b f083 083e 3e5e b23d 70cf b43d
000000d0: 4ade 01bd 51f2 283d 9dc6 42bc b0c9 0abc
000000e0: b278 8a3d fdef bbbd 33f6 b93d 1f58 e03b
000000f0: adeb 443c 0958 893d fd32 5bbd b573 96bd
00000100: 4fb3 0500 bf64 0600 40d8 0580 0ff2 0500
00000110: 49b4 0580 d058 0580 a998 0580 e9ce 0680
00000120: a863 0580 5b41 0680 d066 0580 7670 0500
00000130: 1c6d 0580 4b67 0680 0969 0580 1a67 0580
00000140: 8486 0680 b8e3 0580 c075 0500 8df1 0500
00000150: 2bd2 0500 3f5c 0580 3c89 0500 2970 0500
00000160: ec8c 0500 ff68 0580 f264 0500 4a35 0680
00000170: a059 0500 3e65 0500 c5c4 0580 f59e 0500
00000180: 151e 0600 6086 0580 b0a2 0500 c744 0600
00000190: fa57 0580 935f 0500 2068 0500 b394 0500
000001a0: ad79 0580 f55a 0580 44d2 0580 565f 0500
000001b0: 0863 0500 418f 0500 c6b5 0680 af63 0500
000001c0: 367b 0580 8fdb 0680 8f5e 0500 3c69 0580
000001d0: d784 0500 b05f 0580 eeb4 0580 4456 0600
000001e0: 7d8c 0580 4b5d 0500 0564 0580 3692 0500
000001f0: 0f70 0580 6e60 0500 61be 0500 cd5b 0500
00000200: a122 f5bd 7237 3ebd fa13 c6bd c082 083e
00000210: fac5 423c 4592 9e3c 269d 4ebd e639 423c
00000220: a1e6 6dbd 29f4 61bc a1d6 9d3d 4e01 14be
00000230: 3b6f 3bbd 0dd6 023e d94a c33c d21b dcbd
00000240: c02d e3bc fdd0 edbb ae71 743c 86d7 613d
00000250: 5e1e c2bd 4b4b 0b3e 8020 ccbd d94c d8bc
00000260: f146 bc3d 7adb a13d a940 d7bb 58b0 a7bd
00000270: b29e 52bd e155 f03d a33f b03d 041a ac3d
00000280: 672e a93d 22f0 023c 9b6e a73d 39cf e6bc
00000290: f4d1 f6bd d1cf b33d e8b2 ccbd fce1 dfbd
000002a0: 9875 d8bc 7e13 bebd f7f5 053e 84ec d7bd
000002b0: 86d5 6dbd 9742 3b3b 6eb4 443d 0496 01bd
000002c0: 1865 fc3d 4433 fb39 bbee b7bd baf5 ddbd
000002d0: 1f41 013e e959 05be 6f27 f33d 1fc7 96bd
000002e0: e3b1 7a3d b996 87bd be0f a63d b68a d83d
000002f0: 02ab a53d 0abc ccbd 85fa cb3d 9448 cfba
00000300: 0f37 1c3d bbf1 4d3c 6bdd ba3c ba1b c13d
00000310: d036 b1bd 5f93 d8bd 11fc 203c bca5 c2bd
00000320: a25d 493d e399 ff3d c8c0 763d e042 f1bd
00000330: b915 93bc 06da 9d3d 9e75 16bd d0a2 39bd
00000340: 2625 0ebd 5e20 003b 331b 87bd 489c c1bd
00000350: 767f 87bc 5eb0 d83d a153 65bc b8f3 7dbd
00000360: 113b 3abd 9bb9 993c 7396 6b3d c4e2 a5bd
00000370: e510 8d3c 2c7f 3bbb 32a7 a8bd ceb6 acbd
00000380: aba9 abbd 1a61 c9bd 053c f23d 6c8b 133d
00000390: 2f0d 67bd a671 91bd ea5e fa3c fb6e a63d
000003a0: 4e51 eebd 90d5 cebd 02b5 f8bd 471a dabb
000003b0: 4b4d af3c d257 643d 87ae 0abe 6799 edbd
000003c0: 99de 1e3e b0ef f23d d83a 14b9 f235 1dbd
000003d0: a140 003d 1cc2 373d 88e9 bbbd 5673 d1bd
000003e0: c9d0 0c3e 0899 97bb 1682 7f3d af17 fbb9
000003f0: 86a6 03bd 84b8 c03d f593 b0bd e529 393c
0.052633885 -0.04189112 -0.061539605 0.11027356 0.1387709 0.06020326 -0.0857276 -0.11824731
-0.0075587225 0.10826026 -0.111650944 0.09765112 -0.14149949 0.08583363 -0.13614514 -0.004889495
-0.0690885 0.017799076 0.098755576 0.060620368 0.037371896 0.0011100553 -0.099214 -0.10672436
-0.048862204 0.030731363 -0.021056168 0.017093414 -0.123827584 -0.0043834127 -0.1023865 0.030306943
-0.023914134 -0.008099912 0.059560362 -0.13793443 0.1078508 -0.08456207 -0.11816649 -0.040652685
-0.09493473 -0.10679776 -0.11197031 0.11743715 0.05603662 -0.0068160906 -0.09553 -0.09574894
0.006521626 0.1333158 0.087093815 0.08828628 -0.031706132 0.041246716 -0.011888173 -0.008470938
0.06761302 -0.091766335 0.09080162 0.0068464424 0.01201908 0.067062445 -0.053515423 -0.07346288
5.23501e-40 5.87154e-40 -5.36753e-40 5.46012e-40 -5.23852e-40 -4.91037e-40 -5.13942e-40 -6.25238e-40
-4.94927e-40 -5.74458e-40 -4.9606e-40 4.99521e-40 -4.98319e-40 -5.88068e-40 -4.96857e-40 -4.96163e-40
-5.99268e-40 -5.40868e-40 5.01418e-40 5.4583e-40 5.34572e-40 -4.92269e-40 5.08408e-40 4.99413e-40
5.09731e-40 -4.96843e-40 4.9539e-40 -5.7013e-40 4.91329e-40 4.95496e-40 -5.29765e-40 5.162e-40
5.61804e-40 -5.07382e-40 5.17539e-40 5.75686e-40 -4.90738e-40 4.93463e-40 4.9653e-40 5.12521e-40
-5.02827e-40 -4.91807e-40 -5.34607e-40 4.93378e-40 4.94703e-40 5.10567e-40 -6.16221e-40 4.94937e-40
-5.03377e-40 -6.29776e-40 4.93099e-40 -4.96928e-40 5.06831e-40 -4.93504e-40 -5.24083e-40 5.81959e-40
-5.09575e-40 4.92645e-40 -4.95058e-40 5.11628e-40 -4.99377e-40 4.9377e-40 5.27473e-40 4.9211e-40
-0.119694956 -0.046439596 -0.09671779 0.13331127 0.011888022 0.019356856 -0.050442837 0.011854624
-0.058081273 -0.0137911225 0.07706953 -0.14453623 -0.045760375 0.12776966 0.023839401 -0.10747494
-0.027731776 -0.0072575794 0.0149196815 0.05513718 -0.09478448 0.1360294 -0.099671364 -0.026403831
0.091932185 0.0790319 -0.0065689874 -0.08187932 -0.051420875 0.1173513 0.08605888 0.084033996
0.08260804 0.007991822 0.08175393 -0.028174983 -0.12051764 0.08779872 -0.09995061 -0.10931775
-0.02642326 -0.092810616 0.1308211 -0.10543159 -0.05806496 0.0028573626 0.048023634 -0.031637207
0.123239696 0.00047912647 -0.08981081 -0.10837884 0.12622498 -0.13022579 0.11872756 -0.07362198
0.061204802 -0.06620545 0.08108471 0.10573332 0.08089258 -0.09996803 0.09959892 -0.0015814477
0.038138445 0.01256984 0.022810658 0.094291165 -0.08653033 -0.10574984 0.009825722 -0.095042676
0.04916156 0.124805234 0.060242444 -0.117803335 -0.017954694 0.077076 -0.036733262 -0.045321286
-0.034703396 0.0019550542 -0.06596985 -0.094536364 -0.01654027 0.10580514 -0.0139969895 -0.062000006
-0.045466486 0.018765261 0.057516526 -0.08099893 0.01721997 -0.0028609736 -0.08235015 -0.08433305
-0.08381971 -0.09832974 0.11827854 0.036021635 -0.056409057 -0.07101755 0.030562837 0.081266366
-0.116366014 -0.100993276 -0.121438995 -0.0066559645 0.02139916 0.055747814 -0.1354314 -0.11601525
0.15514602 0.11862123 -0.00014136301 -0.038381524 0.031311635 0.04486285 -0.09175402 -0.10227077
0.1375152 -0.004626397 0.06237992 -0.00047892096 -0.03214123 0.094101936 -0.086219706 0.011301492
